models/1-BiLSTM_Loss_0.5018732744513754.pt (torch_old, 191938 bytes, 10 tensors)

lstm.weight_ih_l0 f4 [256, 25]
0	0xbe270865	-0.16311796
1	0x3e0669f3	0.13126354
2	0x3dcb081c	0.09913656
3	0xbd4ed70a	-0.050498046
4	0xbd46a6e4	-0.048499003
5	0x3cf37838	0.02972041
6	0x3ccedf4f	0.025252966
7	0xbcb19f21	-0.021682324
8	0x3dd89427	0.10575133
9	0xbe0ed9fe	-0.13950345
10	0x3db986c2	0.09058906
11	0xbc20dae8	-0.009817816
12	0x3c0d6b43	0.00863153
13	0xbd3ff74b	-0.046866696
14	0x3e9cc941	0.30622295
15	0xbe813cd9	-0.25241736
16	0xbdf342a3	-0.11877944
17	0xbd7b8f11	-0.061415736
18	0x3e009b75	0.12559302
19	0x3d68b0f2	0.056809373
20	0x3e3341e1	0.175056
21	0x3e7a2f12	0.24432018
22	0xbe6ef44c	-0.2333538
23	0xbe0aac16	-0.13542208
24	0x3d7346fa	0.05939386
25	0x3caa5672	0.020793173
26	0x3c894ac5	0.016759286
27	0xbd889743	-0.06669476
28	0x3c1b2783	0.00946987
29	0xbdbbabf2	-0.09163655
30	0x3c8cb6ee	0.017177071
31	0x3dd890c9	0.105744906
32	0xbd8a844f	-0.06763517
33	0x3decf0e3	0.11569383
34	0x3e09b69c	0.13448566
35	0xbd258994	-0.040414408
36	0x3db2e459	0.0873496
37	0x3d07595a	0.033044197
38	0x3c59edf7	0.013301364
39	0xbe0dc220	-0.13843584
40	0xbd9b4421	-0.07581354
41	0xbe0aa9f0	-0.13541389
42	0xbccaf68f	-0.024775771
43	0xbe4b0971	-0.1982782
44	0x3b5efaee	0.0034024077
45	0xbcd37009	-0.025810258
46	0x3e250bcd	0.16117783
47	0x3e247ced	0.1606328
48	0x3df86bc6	0.12129931
49	0xbc9106a7	-0.017703367
50	0xbde70a8f	-0.11281311
51	0xbcbe082e	-0.02319726
52	0x3ca4ea89	0.020131366
53	0x3de124f6	0.10993378
54	0xbe0055b7	-0.12532698
55	0xbc9cb55c	-0.019129448
56	0xbd25b91d	-0.04045974
57	0xbcc34ad9	-0.023839401
58	0xbc386b60	-0.011256069
59	0x3d478c62	0.048717864
60	0xbe275537	-0.163411
61	0x3e63b75a	0.22237912
62	0xbdd794a8	-0.10526401
63	0xbd6dd490	-0.058064044
64	0x3d959086	0.07302956
65	0x3d999076	0.07498257
66	0xbd5590e0	-0.052140117
67	0x3d075f88	0.03305009
68	0x3e337747	0.1752597
69	0xbe37bf98	-0.17944181
70	0x3d3fbbc3	0.046809923
71	0x3c4c9763	0.012487265
72	0x3c89a0bc	0.016800277
73	0xbdf3f4b3	-0.11911907
74	0xbe453a25	-0.19260462
75	0xbe0a188f	-0.13485931
76	0x3e35e8aa	0.17764536
77	0x3d3722e3	0.044711005
78	0x3c294975	0.010332455
79	0xbc98924a	-0.018624444
80	0x3adfeb3e	0.0017083657
81	0xbd3884e4	-0.04504861
82	0xbddfdf48	-0.109312594
83	0x3d54f72b	0.05199353
84	0x3d055804	0.03255464
85	0xbdcf86e4	-0.1013315
86	0x3e35dfc3	0.1776114
87	0xbdcdce77	-0.10049146
88	0xbdc05742	-0.09391643
89	0xba9e2ac5	-0.001206719
90	0xbdab5f49	-0.083677836
91	0xbe340743	-0.17580895
92	0xbc81d7c9	-0.015849965
93	0x3d7cb00f	0.06169134
94	0xbe071663	-0.13192134
95	0x3e256f7b	0.16155808
96	0x3e154693	0.14577703
97	0xbd1e6a4d	-0.038675595
98	0x3b4bb4a2	0.0031083007
99	0x3d31e2af	0.043429073
100	0xbdc5acba	-0.096520856
101	0x3e242499	0.16029586
102	0x3d710986	0.058846973
103	0xbc260759	-0.010133588
104	0x3c8a0f41	0.016852977
105	0x3c39da06	0.011343485
106	0x3e12797e	0.14304158
107	0xbe9da53b	-0.30790123
108	0x3d63f0de	0.05564963
109	0x3c04fdcc	0.0081171505
110	0xbe1a3a80	-0.15061378
111	0x3dfea89a	0.12434502
112	0xbe8620da	-0.2619694
113	0xbd5a1632	-0.053243823
114	0x3e367150	0.17816663
115	0x3e1aba79	0.15110196
116	0x3e25c458	0.1618818
117	0x3c7f958a	0.015599618
118	0x3e5a28ef	0.21304677
119	0xbddbe626	-0.10737257
120	0x3d4a4ead	0.049391437
121	0x3d90690f	0.07051288
122	0x3d9e4b4c	0.077292055
123	0x3d74e343	0.059787046
124	0x3c87d54e	0.016581204
125	0x3cf52815	0.02992634
126	0x3d5bae2c	0.0536329
127	0x3e5b348c	0.21406764
128	0x3caabc14	0.020841636
129	0xbd263dba	-0.04058621
130	0xbe5cd0d8	-0.21564043
131	0xbcbc6938	-0.022999391
132	0xbcc60f09	-0.024177091
133	0x3c50f945	0.012754743
134	0xbd9da309	-0.07697112
135	0x3cf4bcb3	0.029875135
136	0x3d8b823b	0.06811949
137	0xbc79ab09	-0.015238532
138	0xbe874120	-0.26416874
139	0xbc254b66	-0.010088777
140	0x3c633cfa	0.013869518
141	0x3d97cf40	0.07412577
142	0xbdc42efb	-0.09579273
143	0xbde8f3e5	-0.11374644
144	0x3e0298b0	0.12753558
145	0x3caba922	0.020954672
146	0x3b99fb31	0.004699134
147	0x3d07f504	0.03319265
148	0xbdaf684a	-0.085648134
149	0xbdede3ed	-0.11615739
150	0x3d81acca	0.06331785
151	0x3a82ba2d	0.0009973698
152	0xbd4fd8bd	-0.050743807
153	0x3e3c40f0	0.18384147
154	0xbd89c9a5	-0.06727914
155	0xbd86ab96	-0.06575696
156	0xbd24eb93	-0.040263724
157	0xbcce41b2	-0.02517781
158	0xbdbf65d5	-0.09345595
159	0xbd9a5dc8	-0.075374186
160	0xbc911afe	-0.017713066
161	0x3dd8c5c2	0.10584594
162	0xbe2269b1	-0.1586063
163	0xbd5bf6a2	-0.053702004
164	0x3d861607	0.0654717
165	0x3d6515db	0.055929046
166	0xbda06727	-0.07832175
167	0x3d0c8f4d	0.03431635
168	0x3c11b335	0.008892824
169	0x3ceb4542	0.028719548
170	0x3e21fb8f	0.15818618
171	0x3cb7d383	0.022439724
172	0xbdb028bd	-0.0860152
173	0xbdc22d38	-0.09481281
174	0xbe8ea389	-0.27859142
175	0x3c4f096e	0.012636526
176	0x3e2e8e03	0.1704636
177	0x3d1df8f3	0.038567495
178	0x3db9e843	0.090775035
179	0x3d0c8310	0.03430468
180	0xbd206415	-0.039157946
181	0x3ca59ca3	0.020216292
182	0xbde72f80	-0.11288357
183	0x3dfaae91	0.12240327
184	0x3bcc8556	0.006241481
185	0xbccd418e	-0.025055673
186	0x3e11dd4b	0.14244573
187	0x3d65df53	0.05612118
188	0xbd5ba73f	-0.053626295
189	0x3e2c3311	0.16816355
190	0xbe59fcc4	-0.21287829
191	0xbe0cf25f	-0.13764332
192	0x3e14bef8	0.14525974
193	0x3d6a576b	0.057212275
194	0xbba45f2d	-0.0050162286
195	0x3e3c43a3	0.18385176
196	0xbdb4a5a7	-0.08820658
197	0xbd87ef6b	-0.06637462
198	0xbdd3b350	-0.103369355
199	0x3db64c89	0.08901317
200	0xbdc15f78	-0.09442037
201	0xbba7a330	-0.005115889
202	0xbdc406a8	-0.09571582
203	0xbdae6e41	-0.08517123
204	0x3c8b1a0e	0.016980197
205	0x3db14e0a	0.08657463
206	0x3d0df65d	0.03465878
207	0x3d909b77	0.070609026
208	0xbc6d9ab3	-0.014502215
209	0xbc8fde08	-0.017561927
210	0xbd00e3c6	-0.03146722
211	0xbca7f8c7	-0.020504368
212	0xbddec609	-0.10877616
213	0xbd25a1c3	-0.04043747
214	0xbcdbea59	-0.026845144
215	0xbdba6539	-0.09101338
216	0xbe0c960f	-0.13729118
217	0xbdc58cd9	-0.09646005
218	0xbcc1d017	-0.023658795
219	0xbe192fa5	-0.14959581
220	0x3d80cd55	0.06289164
221	0xbe1d9db0	-0.15392184
222	0x3d3f1a8d	0.04665618
223	0x3da580d8	0.080812156
224	0xbe300582	-0.17189601
225	0x3d664790	0.05622059
226	0x3d264013	0.04058845
227	0xbc462a44	-0.012095038
228	0x3e0a9f11	0.13537242
229	0xbe055087	-0.13019
230	0x3d467f9a	0.048461534
231	0x3ded2973	0.115801714
232	0xbdadeec0	-0.084928036
233	0x3cdf4e9d	0.027259165
234	0x3e177d4b	0.14793889
235	0xbe3466e5	-0.17617376
236	0x3dcb40f7	0.099245004
237	0xbdb52f00	-0.08846855
238	0x3df558d1	0.11979831
239	0x3e01f62b	0.12691562
240	0xbe0a0f07	-0.13482295
241	0x3dd05457	0.101723365
242	0x3e14b48c	0.14521998
243	0x3df71835	0.12065164
244	0xbe2a7753	-0.16647081
245	0x3e4c8aaa	0.19974771
246	0x3e0ec424	0.13942009
247	0x3b64fd3e	0.0034940983
248	0x3db8a5ec	0.09016022
249	0xbd89cc0a	-0.067283705
250	0xbe5aae51	-0.21355559
251	0xbd98519a	-0.07437439
252	0x3e6605fe	0.22463223
253	0x3e2080d6	0.15674147
254	0xbe93651f	-0.28788087
255	0xbdb25848	-0.087082446

lstm.weight_hh_l0 f4 [256, 64]
0	0x3a071842	0.0005153456
1	0x3c4c767a	0.012479419
2	0x3d4a76a0	0.049429536
3	0xbd1f2ab5	-0.038859088
4	0x3c7a6674	0.015283216
5	0x3d9d4ee6	0.07681064
6	0xbc88451c	-0.016634516
7	0x3d2de804	0.042457595
8	0xbd3f1f31	-0.046660606
9	0xba618316	-0.0008602602
10	0xbe81dade	-0.25362295
11	0x3d657d00	0.056027412
12	0x3e370e27	0.17876492
13	0xbd0e4688	-0.034735233
14	0xbe01da3f	-0.1268091
15	0xbdf2e2b5	-0.11859647
16	0xbdbe2d0b	-0.09285935
17	0x3d800f2f	0.06252896
18	0xbd8bf601	-0.06834031
19	0xbdf9ad64	-0.12191275
20	0x3dd1f554	0.10251871
21	0xbe9613fe	-0.29312128
22	0x3dfed38a	0.124426916
23	0x3dd0dc4d	0.10198269
24	0xbd91592d	-0.07097087
25	0xbe1cfa54	-0.15329868
26	0xbd1104aa	-0.03540484
27	0x3cf441c1	0.02981651
28	0x3e0836ee	0.13302204
29	0xbdfeeee4	-0.124479085
30	0xba2991f5	-0.00064685877
31	0x3de8b161	0.11361957
32	0xbd965041	-0.07339526
33	0xbb9e2fb1	-0.0048274626
34	0x3d3ddd34	0.046353534
35	0xbd28067f	-0.04102182
36	0xbc9df0a4	-0.019279785
37	0x3d1d667c	0.038427815
38	0xbd2fb185	-0.042893905
39	0x3dea9bd1	0.11455501
40	0xbdd9077a	-0.10597129
41	0xbd59d718	-0.053183645
42	0x3d2bcb7f	0.041942116
43	0x3bd4400e	0.0064773625
44	0x3d09e74f	0.03366786
45	0x3ba6d236	0.005090977
46	0xbd6ab940	-0.057305574
47	0x3d287438	0.04112646
48	0xbdf0c1b4	-0.11755696
49	0x3d97387c	0.073838204
50	0x3d1d5e7e	0.038420193
51	0xbe2f355f	-0.17110203
52	0xbe096ba2	-0.13419965
53	0x3d97a08d	0.074036695
54	0xbd3f7fb5	-0.04675265
55	0xbd846c2d	-0.064659454
56	0xbca45136	-0.020058256
57	0xbd689bd5	-0.056789238
58	0x3db421c6	0.08795504
59	0x3e225eed	0.15856524
60	0xbda410fb	-0.08011051
61	0x3b97f8ff	0.004637837
62	0x3b75eb9e	0.0037524472
63	0xbd97a516	-0.074045345
64	0x3df17135	0.11789171
65	0x3e3d5a7e	0.18491551
66	0xbd61c706	-0.055121444
67	0xbd6cb481	-0.05778933
68	0xbd247e2f	-0.0401594
69	0xbc87b655	-0.016566435
70	0xbcaf5b56	-0.021405857
71	0x3e2373b6	0.15962109
72	0xbdcb483f	-0.09925889
73	0xbda1e459	-0.07904882
74	0xbdac8c83	-0.08425238
75	0x3dcb525c	0.09927818
76	0x3d297abb	0.04137681
77	0x3db6471d	0.089002825
78	0x3c6f2672	0.014596568
79	0xbe5e68ae	-0.2171962
80	0x3d4346ea	0.04767505
81	0x3c227ee5	0.009917949
82	0xbda5140a	-0.08060463
83	0x3d9598bf	0.07304525
84	0xbaa89e7a	-0.0012864613
85	0xbe9d5e6b	-0.30736098
86	0x3d1fdea5	0.03903069
87	0xbd467691	-0.048452917
88	0x3e04a983	0.12955289
89	0x3d044402	0.03229142
90	0x3dca758b	0.09885701
91	0x3dde74e7	0.10862141
92	0xbd95a81d	-0.07307456
93	0x3de71da3	0.1128495
94	0xbb13e464	-0.0022566551
95	0x3e2504bd	0.16115089
96	0x3b838e9e	0.004014804
97	0xbdac257e	-0.084055886
98	0x3e5d6482	0.21620372
99	0xbd35c8ed	-0.04438107
100	0x3e1d0776	0.15334877
101	0xbd81905e	-0.06326364
102	0x3d2eee13	0.042707514
103	0x3d509b94	0.05092962
104	0xbb893a96	-0.004187892
105	0xbd22bf28	-0.039733082
106	0x3db17cda	0.08666392
107	0x3dd969c2	0.10615875
108	0xbdbeb77d	-0.09312341
109	0xbd816228	-0.0631755
110	0xbcb7d0be	-0.022438403
111	0xbd9a3d9e	-0.07531284
112	0xbdb2eb3c	-0.08736274
113	0x3d2ea7f5	0.042640645
114	0xbdcb9145	-0.09939817
115	0xbd0b341a	-0.033985235
116	0xbe31294b	-0.17300908
117	0xbddbf674	-0.107403666
118	0xbd5a0070	-0.053223073
119	0xbe38819f	-0.18018197
120	0x39971b29	0.000288212
121	0x3c097944	0.008390728
122	0x3caf3340	0.021386743
123	0xbd8c8bd9	-0.06862611
124	0x3d9ed5e2	0.07755639
125	0xbcd90703	-0.026492601
126	0x3d175f6c	0.036956236
127	0xbdc2e30c	-0.09515962
128	0x3e2d391b	0.16916315
129	0xbdbeaa67	-0.093098454
130	0x3ce56ca2	0.028005902
131	0x3df270d2	0.11837925
132	0xbd025a6b	-0.03182451
133	0x3d8e69b7	0.06953757
134	0x3d132d2c	0.03593175
135	0x3e0ba4da	0.13637105
136	0xbe111a1d	-0.14170118
137	0xbdee169a	-0.11625405
138	0xbd1fcb7b	-0.039012413
139	0xbe1e6e9d	-0.15471883
140	0xbd3e29f8	-0.046426743
141	0xbe029ab6	-0.1275433
142	0xbafa697e	-0.0019104925
143	0x3e04f9ee	0.12985966
144	0x3da26f52	0.07931389
145	0x3e313c0c	0.17308062
146	0xbe004f21	-0.12530185
147	0xbdd56d8e	-0.104212865
148	0x3ba85522	0.0051371017
149	0xbd291ba9	-0.041286144
150	0xbe74f4d1	-0.23921515
151	0x3d85b042	0.06527759
152	0x3d273433	0.040821265
153	0xbe053530	-0.1300857
154	0xbe07cb90	-0.13261247
155	0x3cd8c7e4	0.026462503
156	0x3da05388	0.07828432
157	0xbddbe4ec	-0.10737023
158	0x3e352776	0.17690834
159	0xbcf68cd4	-0.030096449
160	0xbd2d3c38	-0.042293757
161	0x3c677380	0.014126658
162	0xbe358447	-0.17726241
163	0xbd184c8e	-0.037182383
164	0xbe5792da	-0.21052113
165	0xbe42d1d6	-0.19025359
166	0x3e1344b7	0.14381681
167	0x3dd24a99	0.102681346
168	0x3d1dbb6e	0.038508825
169	0x3e3580f2	0.1772497
170	0xbb7c4d50	-0.003849823
171	0x3ded47b4	0.11585942
172	0x3dfca267	0.12335663
173	0x3e08c462	0.13356164
174	0x3dfe48a2	0.12416197
175	0xbdbc9598	-0.0920822
176	0xbe2cd86a	-0.1687943
177	0x3dc5f464	0.096657544
178	0xbe497406	-0.19673166
179	0x3d48a076	0.048981152
180	0xbdb47caf	-0.08812844
181	0xbca633b3	-0.020288324
182	0xbdc8b49d	-0.09800074
183	0x3df4a5e9	0.11945707
184	0xbe298f04	-0.16558462
185	0xbdf2c650	-0.11854231
186	0x3e287c66	0.16453704
187	0xbc81a005	-0.015823374
188	0xbdced11e	-0.1009848
189	0x3c2bb5af	0.010480328
190	0x3dc65bb3	0.09685459
191	0xbc75085b	-0.014955605
192	0x3ca95bd0	0.020673662
193	0x3d7c4083	0.06158496
194	0x3e09175a	0.13387814
195	0x3c35ff6b	0.01110826
196	0x3d1840ff	0.03717136
197	0xbd955d3d	-0.072931744
198	0xbd8588b9	-0.065202184
199	0xbca31cc4	-0.019911177
200	0xbdd709ed	-0.1049994
201	0xbd85f695	-0.065411724
202	0xbdb7ee7f	-0.089810364
203	0x3e14da56	0.14536414
204	0xbd36f881	-0.044670586
205	0xbd6f2f42	-0.058394678
206	0xbd8dae10	-0.069179654
207	0xbe40060f	-0.18752311
208	0xbd8cbe66	-0.06872253
209	0x3d701562	0.058614142
210	0xbd6c50f1	-0.05769438
211	0x3cce7c35	0.02520571
212	0x3d89c16c	0.067263454
213	0xbe7fbb57	-0.24973808
214	0x3d22137c	0.039569363
215	0xbb99c627	-0.004692811
216	0x3d80b286	0.06284051
217	0xbc26f798	-0.010190867
218	0xbe0ea049	-0.13928331
219	0x3c72482c	0.014787715
220	0x3dc6d02d	0.09707675
221	0xbe496d41	-0.19670583
222	0xbd8cfcf5	-0.06884185
223	0x3dea6632	0.114452735
224	0x3db50030	0.088379264
225	0x3e106df8	0.1410445
226	0x3cf8e34a	0.030381817
227	0x3d41c91f	0.047310945
228	0xbda8d652	-0.08244003
229	0x3d6aacab	0.057293575
230	0xbcee71a3	-0.02910692
231	0x3dd4c139	0.10388417
232	0x3b97265f	0.0046127285
233	0xbcbb13c7	-0.022836579
234	0x3c1259a8	0.0089325085
235	0x3de79ca2	0.11309172
236	0xbdcadbf1	-0.09905232
237	0xbcf4fe12	-0.029906306
238	0x3dd81acf	0.10551988
239	0x3cdd2d8c	0.026999258
240	0xbd0401f0	-0.03222841
241	0xbcfcaacb	-0.03084316
242	0xbbb09797	-0.0053891647
243	0xbd723775	-0.05913492
244	0xbdc622cf	-0.09674608
245	0xbdbb8faf	-0.09158265
246	0xbdd11b95	-0.10210339
247	0xbd9915a6	-0.07474832
248	0x3d9cabf4	0.07649985
249	0x3d6cecc7	0.057842996
250	0x3df92031	0.12164343
251	0x3dc4d4a8	0.096108735
252	0xbdb4da0c	-0.08830652
253	0x3d253f3f	0.04034352
254	0x3d6f8450	0.058475792
255	0xbdcfb697	-0.10142248

lstm.bias_ih_l0 f4 [256]
0	0x3e463c12	0.19358853
1	0x3e0b6ce6	0.1361576
2	0xbcd91fca	-0.026504416
3	0x3e084c8f	0.13310455
4	0x3e9f8453	0.31155643
5	0xbdbb4e55	-0.091458
6	0x3defa501	0.11701394
7	0x3d20a7b6	0.03922244
8	0x3e36db01	0.17856981
9	0x3c86791e	0.016415175
10	0x3dfb966c	0.1228455
11	0x3c53a2d1	0.012917236
12	0xbd0edfdd	-0.03488146
13	0x3e763a77	0.2404574
14	0x3e46e203	0.19422154
15	0x3db6313d	0.0889611
16	0x3dd99c26	0.10625486
17	0xbd119e41	-0.035551313
18	0x3d57af0f	0.052657183
19	0xbcef1a2f	-0.02918729
20	0x3dd436ba	0.10362001
21	0xbb044bd8	-0.0020186808
22	0x3ca41b28	0.02003248
23	0x3dc152f1	0.09439648
24	0x3e47cc7a	0.19511595
25	0x3d97a36b	0.074042164
26	0x3e193f39	0.14965524
27	0x3dc87d2e	0.09789501
28	0x3d9eec48	0.07759911
29	0x3eb0df0e	0.34545177
30	0x3e9457f2	0.28973347
31	0xbccf19cd	-0.025280857
32	0x3e0c4f8a	0.13702217
33	0xbd1ffed8	-0.039061397
34	0x3ded7a10	0.11595547
35	0x3d8db9b1	0.069201834
36	0x3e8e1cce	0.2775635
37	0x3e37336b	0.17890708
38	0x3e51b2af	0.20478319
39	0x3d8c94dd	0.06864331
40	0x3ce0076f	0.027347295
41	0x3e307cfb	0.17235176
42	0x3d80f5d9	0.06296892
43	0xbcef6b39	-0.029225932
44	0x3e1b3137	0.15155493
45	0x3e80a522	0.25125986
46	0x3df41857	0.11918705
47	0x3e417fdd	0.18896432
48	0x3dbaaa0f	0.09114467
49	0x3e165998	0.14682615
50	0x3df34cfa	0.118799165
51	0x3d97b635	0.074078
52	0xbd5ab548	-0.05339554
53	0x3c8af7a2	0.016963784
54	0x3d0bf94a	0.034173287
55	0x3b2716cc	0.0025495766
56	0x3eb45b7f	0.35226056
57	0x3d3e15d6	0.046407543
58	0x3e0024b3	0.12514
59	0x3cf0efa1	0.029411139
60	0x3d541645	0.05177905
61	0x3e35f583	0.17769437
62	0x3e86e523	0.26346692
63	0x3e651e2b	0.2237479
64	0x3e0408f5	0.12894042
65	0x3de8a85b	0.11360236
66	0xbda70bb4	-0.08156529
67	0x3df84482	0.12122442
68	0x3d961e4f	0.0733
69	0x3d3e7118	0.046494573
70	0x3def89ae	0.11696182
71	0x3d1876f7	0.03722283
72	0xbc9b281f	-0.01894003
73	0x3d5f07db	0.05445085
74	0x3c4e199f	0.012579351
75	0x3de9178d	0.11381445
76	0xbd037a75	-0.032099206
77	0xbd21cabe	-0.03949999
78	0xbd8ddd1e	-0.069269404
79	0x3d0fd121	0.03511155
80	0xbd9b3a9e	-0.0757954
81	0x3d5e2230	0.054231822
82	0x3dfa2985	0.122149505
83	0xbdc89c3d	-0.09795425
84	0x3c3abb5c	0.011397209
85	0x3bc534dc	0.006018264
86	0xbde0fc73	-0.10985651
87	0x3d98adfe	0.074550614
88	0x3d8b3ea9	0.06799061
89	0x3db11200	0.08646011
90	0xbd63f8a6	-0.05565705
91	0xbdb602bb	-0.088872395
92	0xbc967b54	-0.018369354
93	0x3d9688d4	0.07350317
94	0x3c9be9af	0.019032327
95	0xbdf3ba00	-0.11900711
96	0xbdd5add2	-0.10433544
97	0xbcfa774d	-0.030574465
98	0xbd539620	-0.051656842
99	0x3d8e6e6c	0.06954655
100	0xbdbb0695	-0.09132115
101	0xbd956161	-0.07293964
102	0x3df09ef4	0.11749068
103	0xbda4cdab	-0.080470406
104	0xbdcfaed9	-0.101407714
105	0xbd241607	-0.04006007
106	0x3da44297	0.080205135
107	0x3df9e5ab	0.12202009
108	0xbd873119	-0.066011615
109	0x3a5f1d8e	0.0008511179
110	0x3dbdb70b	0.09263428
111	0x3e07d2ea	0.13264051
112	0xbcd7fd3e	-0.026365872
113	0xbdb669f3	-0.08906927
114	0x3db2aaa2	0.08723952
115	0x3d53205d	0.051544536
116	0x3c5f4aa7	0.013628638
117	0x3cf4dc4b	0.0298902
118	0x3cfa6f5d	0.03057068
119	0xbbcbfe69	-0.0062253964
120	0xbc69809b	-0.014251853
121	0xbb275386	-0.0025531962
122	0xbdaa8dc6	-0.083278224
123	0x3dfa77cb	0.1222988
124	0x3d8f5ee4	0.07000521
125	0x3dbd4c13	0.09243026
126	0x3db1cbcc	0.08681449
127	0x3d0c52d5	0.034258682
128	0x3e9b7c2e	0.3036818
129	0x3dcd87ae	0.100356445
130	0xbd6a18f6	-0.05715271
131	0x3e1480b2	0.14502218
132	0x3c20a626	0.009805238
133	0xbd8c7751	-0.06858695
134	0x3e66733a	0.22504893
135	0xbc1a6837	-0.009424261
136	0xbcb59795	-0.022167007
137	0xbd7c0ceb	-0.061535757
138	0xbe03e887	-0.12881671
139	0x3d35e385	0.044406433
140	0xbd0b6deb	-0.034040373
141	0x3d2387dd	0.03992449
142	0x3aec284e	0.0018017383
143	0x3dec68eb	0.11543449
144	0x3dba990a	0.09111221
145	0xbcd065c1	-0.025439145
146	0xbe366313	-0.17811231
147	0x3d374d04	0.044751182
148	0x3e2e066f	0.16994642
149	0x3e498f7b	0.1968364
150	0xbdfc9a71	-0.12334145
151	0x3c556c57	0.0130263185
152	0x3dd5d590	0.104411244
153	0xbc587dd7	-0.013213596
154	0xbe3ad6e4	-0.18246037
155	0xbd5f9c06	-0.054592155
156	0x3c6a951d	0.014317778
157	0xbe17f61d	-0.14839979
158	0x3d5e87f0	0.05432886
159	0xbde05c46	-0.109551
160	0xbdd61b2a	-0.104544
161	0x3e23da4c	0.16001242
162	0xbe39a469	-0.18129124
163	0xbe2d76a0	-0.16939783
164	0xbddcd015	-0.10781876
165	0xbe336d67	-0.17522202
166	0x3e0430aa	0.12909189
167	0x3e25cd65	0.16191633
168	0xbc977b59	-0.018491434
169	0x3d81f0aa	0.06344731
170	0x3e6823dd	0.22669931
171	0x3cc642dc	0.024201803
172	0x3bffc2da	0.0078052105
173	0x3ce4c45c	0.027925663
174	0x3e780a11	0.2422259
175	0x3cba3c3d	0.022733802
176	0xbdff7ee2	-0.12475373
177	0xbd95c26c	-0.07312474
178	0xbe47925e	-0.19489428
179	0xbdef9d1d	-0.11699889
180	0xbd570d69	-0.052503023
181	0x3ca6187e	0.02027535
182	0x3cdafa5f	0.026730714
183	0x3d5e87e0	0.0543288
184	0xbdccf56f	-0.1000775
185	0xbe31b363	-0.17353587
186	0xbcb9e6ac	-0.022693
187	0xbda8af54	-0.08236566
188	0xbcac4ccc	-0.021032713
189	0xbe1ec747	-0.15505706
190	0x3e87d03e	0.26526064
191	0xbe4524c7	-0.1925231
192	0x3e011e87	0.12609302
193	0xbd7b3aef	-0.0613355
194	0x3d094b07	0.033518817
195	0x3daffcbe	0.085931286
196	0x3de58b4a	0.11208208
197	0xbbdd34c9	-0.0067506772
198	0x3da69e5b	0.08135673
199	0xbcca29da	-0.02467816
200	0x3db30d3d	0.087427594
201	0x3d276aa3	0.04087318
202	0x3e43ff7d	0.1914043
203	0x3e0d2897	0.13785015
204	0xbccabdb9	-0.02474867
205	0x3e5b7458	0.214311
206	0xbd41f4f4	-0.047352746
207	0x3de735e3	0.11289575
208	0x3b2abf93	0.0026054129
209	0x3c327433	0.010891962
210	0xbd416996	-0.047219835
211	0x3e16d96d	0.14731379
212	0x3db7966d	0.08964238
213	0x3c50f58f	0.012753858
214	0xbe02de23	-0.12780051
215	0x3cc3e5c0	0.023913264
216	0x3e2fe816	0.17178378
217	0x3dec6de5	0.11544398
218	0x3b021538	0.0019849073
219	0x3d4d6112	0.0501414
220	0xbd698311	-0.05700976
221	0x3e982fe4	0.29724038
222	0x3d14a717	0.03629216
223	0x3e30e390	0.17274308
224	0xbd023b94	-0.0317951
225	0xbc953bc7	-0.01821698
226	0xbd9a2b3c	-0.075277776
227	0xbcc79115	-0.024361173
228	0x3e4462fa	0.19178382
229	0x3e48ef50	0.1962254
230	0x3e82151f	0.2540674
231	0x3dc87e69	0.09789736
232	0xbcd7f039	-0.026359664
233	0xbcfcbf6c	-0.030852996
234	0x3da6a25a	0.08136435
235	0x3dc57b22	0.09642626
236	0x3d5a50d1	0.05329973
237	0x3d957879	0.07298369
238	0xbae73bb1	-0.0017641691
239	0x3e011bb7	0.12608229
240	0x3e2282e8	0.1587025
241	0x3d4dfa05	0.050287265
242	0x3cd5074c	0.026004456
243	0x3c12a41b	0.008950259
244	0xbd0ac1e2	-0.033876307
245	0xbd22e318	-0.039767355
246	0x3df93c3a	0.121696904
247	0x3d8a62a2	0.06757094
248	0x3dae9d3a	0.08526082
249	0x3d1a4aa8	0.037668854
250	0x3d04795e	0.032342307
251	0x3dce5b0f	0.10075962
252	0x3da191ef	0.07889163
253	0x3d82dda0	0.06389928
254	0x3d314650	0.043279946
255	0x3dbb6520	0.091501474

lstm.bias_hh_l0 f4 [256]
0	0x3e7ecf90	0.24883866
1	0x3dd0ba85	0.10191826
2	0x3db70c75	0.08937923
3	0x3df3b7f5	0.119003214
4	0x3e86dc28	0.2633984
5	0x3d603f5a	0.054747917
6	0x3deb5243	0.114902996
7	0x3c4f6dea	0.012660483
8	0x3dff20ad	0.12457404
9	0xbd904d30	-0.07045972
10	0x3d20d1bf	0.03926253
11	0x3d6e4710	0.05817324
12	0x3d5b8225	0.053590912
13	0x3dc1de90	0.094662786
14	0x3e4ac96e	0.19803402
15	0x3e22f11c	0.15912288
16	0x3b704b6a	0.0036666044
17	0x3df832e1	0.121190794
18	0x3d8065ab	0.062693916
19	0x3e158be9	0.14604153
20	0x3de6da2e	0.11272083
21	0x3d496fd5	0.049178917
22	0xba521a89	-0.00080148183
23	0x3dd4ac2b	0.10384401
24	0x3e4ffe8a	0.20311943
25	0x3d8007ac	0.06251463
26	0x3de5ca23	0.11220195
27	0x3d8499ee	0.06474672
28	0x3d13d094	0.036087587
29	0x3e273059	0.16327037
30	0x3e64fb93	0.22361593
31	0x3d985c6b	0.07439502
32	0x3e1f1c65	0.15538175
33	0x3e434fe7	0.19073449
34	0x3d5768ef	0.052590307
35	0xbc12959e	-0.008946804
36	0x3e913e5e	0.28367895
37	0x3e1f1e9d	0.15539022
38	0x3eb95f84	0.36205685
39	0x3e8c8a88	0.2744944
40	0xbddea929	-0.108721085
41	0x3d2a9795	0.041648466
42	0x3e8269e6	0.2547142
43	0x3c2317f6	0.009954443
44	0x3e2a0c9e	0.16606376
45	0x3de64655	0.112438835
46	0x3eb20b09	0.34774044
47	0x3eb24bab	0.34823355
48	0x3bdbe304	0.006710412
49	0x3bff20c0	0.0077858865
50	0x3dc7790e	0.09739886
51	0x3e40949a	0.18806687
52	0x3d99eea4	0.0751622
53	0xbbefae7f	-0.0073145027
54	0xbcba5ff4	-0.022750832
55	0x3dd783cb	0.105231844
56	0x3eae72a2	0.34071833
57	0x3da8b95a	0.08238478
58	0x3debfcf1	0.11522854
59	0x3e430664	0.19045407
60	0x3e21a1b2	0.15784338
61	0x3e3a02a3	0.18165068
62	0x3e9743ac	0.29543817
63	0x3e4076f7	0.18795381
64	0x3dd065af	0.101756446
65	0x3dd194c7	0.10233455
66	0x3cdec0db	0.02719157
67	0xbd79b8b7	-0.060967173
68	0x3bb89260	0.0056326836
69	0x3e13ec37	0.14445578
70	0xbb45414a	-0.003009873
71	0xbdaa10ea	-0.08304007
72	0x3c0f7890	0.008756772
73	0x3ca21617	0.019785924
74	0xbddc0fd3	-0.10745206
75	0x3cd9c25f	0.026581941
76	0xbba25df9	-0.00495505
77	0xbc859bf8	-0.016309723
78	0xbdaf3828	-0.08555633
79	0x3d571dbe	0.0525186
80	0x3dc1382e	0.094345436
81	0xbd413a98	-0.04717502
82	0x3d656ce8	0.056012064
83	0x3df46fe1	0.11935402
84	0x3e02884f	0.1274731
85	0xbdeb4e38	-0.114895284
86	0x3c71ee03	0.014766219
87	0xbd351766	-0.044211768
88	0xbdbbcc75	-0.091698565
89	0x3ccb16c4	0.024791129
90	0xbcc1aaec	-0.023641072
91	0x3be59722	0.007006542
92	0x3ddafa31	0.106922515
93	0x3e1dee4b	0.15422933
94	0x3d87f7bc	0.066390485
95	0xbd519bc0	-0.051173925
96	0x3db47292	0.08810915
97	0xbde17ae8	-0.11009771
98	0xbe13aad0	-0.14420629
99	0xbd933eb0	-0.07189691
100	0xbc234d2c	-0.00996713
101	0xbd6053bf	-0.054767366
102	0xba4d0a4b	-0.0007821663
103	0xbdbdc817	-0.0926668
104	0xbdef2449	-0.11676843
105	0xbcdaa0c2	-0.026687983
106	0xbdbc5b21	-0.09197069
107	0x3e2d0ab1	0.1689861
108	0x3de7a97d	0.11311624
109	0xbdb0e992	-0.086383
110	0x3d2f3ece	0.042784505
111	0x3dcefb30	0.10106504
112	0x3dcb6ac6	0.09932475
113	0xbe134515	-0.14381821
114	0x3d2bea91	0.041971747
115	0x3bc3107a	0.005952892
116	0xbd6fdc99	-0.058559988
117	0x3d74c90f	0.059762057
118	0xbd2383c5	-0.039920587
119	0xbddb3e1d	-0.107052065
120	0x3d15d8bd	0.03658365
121	0x3d6aa1da	0.05728326
122	0x3d5ca41b	0.05386744
123	0x3c865da2	0.01640207
124	0x3de9ab86	0.114096686
125	0x3d9a6525	0.07538823
126	0x3e21d06b	0.15802161
127	0x3c877965	0.016537378
128	0x3e432584	0.1905728
129	0x3deb5ea4	0.11492661
130	0x3d1fd8fa	0.039025284
131	0x3e202f62	0.15643075
132	0xbe09c658	-0.13454568
133	0xbdb911cf	-0.090366
134	0x3e0621f9	0.13098897
135	0x3e40335f	0.18769597
136	0xbe0bedf6	-0.13664994
137	0xbd489fdb	-0.048980575
138	0xbe00c320	-0.12574434
139	0xbe1791f7	-0.14801775
140	0xbc822672	-0.015887473
141	0x3c15adc7	0.00913567
142	0x3dc16334	0.094427496
143	0x3dd1e13b	0.102480374
144	0xbd7a5304	-0.061114326
145	0xbb5d5551	-0.0033772776
146	0xbdcd553e	-0.10026024
147	0xbd898c8f	-0.067162625
148	0x3e105272	0.1409395
149	0x3e6f9ca5	0.23399599
150	0xbe0c2ecb	-0.13689725
151	0xbdf8b14a	-0.1214319
152	0x3e3aa5a9	0.18227257
153	0x3c19e285	0.009392385
154	0x3d4ee553	0.05051167
155	0xbe02fe64	-0.12792355
156	0x3d7ab8aa	0.061211266
157	0xbd7222cd	-0.05911522
158	0x3e4a0187	0.19727145
159	0xbccd489a	-0.025059033
160	0xbe1a7a04	-0.15085608
161	0x3d4a5791	0.049399916
162	0xbd4f9804	-0.050682083
163	0xbda648bd	-0.081193425
164	0xbd751a92	-0.059839793
165	0xbe1ea6e1	-0.15493347
166	0x3d482c49	0.04887036
167	0x3d933d95	0.0718948
168	0x3e21a91b	0.15787165
169	0xbcaa82b3	-0.020814275
170	0x3d185ebf	0.037199732
171	0x3e096f1a	0.13421288
172	0x3df3b73b	0.11900183
173	0x3e7f513c	0.24933332
174	0x3e84b4db	0.25919232
175	0xbcd8f3e7	-0.02648349
176	0xbda2bdf8	-0.0794639
177	0xbc47c156	-0.012192091
178	0xbe4847c2	-0.19558623
179	0xbdaa984b	-0.08329829
180	0x3e1b090c	0.1514017
181	0xbd9046db	-0.070447646
182	0xbd726691	-0.059179846
183	0xbc3cfd1a	-0.0115349535
184	0xbe1588c9	-0.1460296
185	0xbe2f89b9	-0.17142381
186	0x3cc8244a	0.024431366
187	0xbcdbe8fd	-0.026844496
188	0xbdccde39	-0.10003323
189	0xbe14bcfd	-0.14525218
190	0x3e4bf9cb	0.19919507
191	0xbe7fafc3	-0.24969392
192	0x3c1b62b3	0.009483981
193	0xbd7bdb24	-0.061488286
194	0x3e42ef31	0.19036557
195	0xbc84c4a6	-0.01620705
196	0x3e8b0c40	0.27157784
197	0x3e09aba8	0.13444388
198	0xbd2de785	-0.042457122
199	0x3d93e1f8	0.072208345
200	0xbd84a04f	-0.06475889
201	0xbdd476cd	-0.10374222
202	0x3e3c6ad9	0.18400134
203	0x3c48704d	0.012233806
204	0x3de2d9f8	0.110767305
205	0x3e295330	0.1653564
206	0x3e1773db	0.14790289
207	0x3e5c3c3a	0.2150735
208	0xbd32a96a	-0.043618597
209	0x3e28f8d0	0.16501164
210	0xbcbff3fc	-0.02343177
211	0x3d01dfb8	0.031707495
212	0x3dc8e121	0.09808565
213	0x3d493c0b	0.049129527
214	0x3d4e6d42	0.050397165
215	0xbd540a56	-0.05176767
216	0xbca7fd66	-0.020506572
217	0x3dd205f3	0.10255041
218	0x3e1f68d1	0.15567328
219	0x3b8ff79e	0.004393532
220	0x3e323021	0.17401172
221	0x3e92b2e9	0.28652123
222	0x3da8e13b	0.08246084
223	0x3cbdf855	0.023189703
224	0xbc4cc70d	-0.012498629
225	0xbcae2c61	-0.021261396
226	0x3c829a00	0.015942574
227	0x3d0824ba	0.03323815
228	0x3e6b1a5a	0.22959271
229	0x3ce1e754	0.027576126
230	0x3e262a20	0.16227007
231	0x3de3d8ef	0.11125361
232	0xbcd8397b	-0.026394596
233	0x3d75924c	0.059953973
234	0x3e86aa3b	0.2630175
235	0xbc5cd269	-0.0134779
236	0xbc4876bc	-0.01223534
237	0x3dfd2627	0.123607926
238	0x3e724457	0.23658882
239	0x3e52a140	0.20569324
240	0x3e05314e	0.1300709
241	0xbc2d144a	-0.010563919
242	0x3c29dc05	0.010367398
243	0x3cd591ad	0.02607044
244	0x3e1d176c	0.15340966
245	0x3c30131e	0.010746745
246	0x3e43523b	0.19074337
247	0x3dd39158	0.103304565
248	0x3d6f48b1	0.058418933
249	0xbbe5db7e	-0.007014691
250	0x3dd88aaa	0.10573323
251	0x3dd1c011	0.10241712
252	0x3c6eeb74	0.014582504
253	0xbd874bbf	-0.06606244
254	0x3e72f299	0.23725356
255	0x3db9d726	0.090742394

lstm.weight_ih_l0_reverse f4 [256, 25]
0	0xbd9bcc06	-0.07607274
1	0x3e201e66	0.15636596
2	0xbe01256c	-0.12611932
3	0x3e2e61bc	0.1702947
4	0xbe92bd0d	-0.2865986
5	0xbd5f3d42	-0.05450178
6	0xbdee83dc	-0.11646244
7	0x3d96e734	0.07368317
8	0xbe335673	-0.17513447
9	0x3db11377	0.08646291
10	0xbdedd9ce	-0.116138086
11	0x3e755391	0.2395766
12	0xbd664494	-0.056217745
13	0xbe023609	-0.12715925
14	0xbd4be788	-0.049781352
15	0xbe3c94f0	-0.1841619
16	0x3e6979e2	0.22800401
17	0xbe8c259b	-0.2737244
18	0x3d7df5ee	0.062002115
19	0xbd8f6636	-0.07001917
20	0x3e4f388b	0.20236413
21	0x3e695dd5	0.227897
22	0x3ccce2e2	0.02501053
23	0x3c8e404b	0.017364642
24	0xbe2de9fe	-0.16983792
25	0x3d902966	0.07039146
26	0xbd752b18	-0.05985555
27	0xbc5ea6e0	-0.013589591
28	0x3dc12ded	0.09432588
29	0x3c253258	0.010082804
30	0xbdeb4007	-0.114868216
31	0x3ea11c7b	0.3146704
32	0xbd65ec72	-0.056133695
33	0xbee285b8	-0.44242644
34	0x3e45eaa3	0.19327788
35	0xbddc6efe	-0.107633576
36	0xbd8aac21	-0.06771112
37	0xbde7d462	-0.11319806
38	0x3dc21c77	0.094780855
39	0xbed9f525	-0.42569843
40	0x3ebf263e	0.37333864
41	0x3eb9ad6c	0.36265123
42	0x3d263b99	0.04058418
43	0xbd09f0ef	-0.033677038
44	0xbe0b0cdc	-0.13579124
45	0xbe13f77b	-0.14449875
46	0xbdaa0e93	-0.08303561
47	0x3db2cbe1	0.08730293
48	0x3da3ab73	0.07991686
49	0x3de2f07f	0.11081027
50	0xbd8f332b	-0.069921814
51	0x3db39758	0.08769101
52	0x3e1226e1	0.14272644
53	0x3ab80466	0.0014039397
54	0xbe4d2795	-0.2003463
55	0x3de667cd	0.11250267
56	0x3e223fd0	0.15844655
57	0xbd8574a0	-0.06516385
58	0xbdbf823c	-0.09351012
59	0x3e12eaba	0.14347354
60	0xbe8ffe57	-0.28123733
61	0x3dae689c	0.085160464
62	0xbe3c7f7c	-0.18408006
63	0x3d6d827a	0.05798576
64	0x3c4da3e6	0.012551283
65	0xbdb2cc7e	-0.0873041
66	0xbe0df5ef	-0.13863347
67	0xbe0d97b4	-0.13827401
68	0xbe922a1f	-0.2854776
69	0xbd8bd523	-0.06827762
70	0x3db5c378	0.08875173
71	0x3dc79df3	0.09746923
72	0x3d347fc3	0.044067156
73	0x3d793e39	0.060850356
74	0xbcb9fe98	-0.022704408
75	0x3d001913	0.031273913
76	0xbe51e38f	-0.20496963
77	0x3d883b5a	0.066519454
78	0x3c687051	0.014186935
79	0xbddc1e8d	-0.107480146
80	0x3e5f6152	0.21814469
81	0x3e76cb61	0.2410102
82	0x3e4182e9	0.18897595
83	0xbdf2f5d1	-0.11863292
84	0x3d9c60d9	0.0763566
85	0xbe32d744	-0.1746493
86	0xbd952f92	-0.07284464
87	0xbe1181c2	-0.14209655
88	0x3c38d720	0.011281759
89	0x3d4460cb	0.04794387
90	0xbd1bac94	-0.03800638
91	0x3c48df0b	0.012260209
92	0xbcace79c	-0.021106534
93	0xbc86c12c	-0.016449533
94	0xbd8ca92f	-0.06868207
95	0x3dc6dbe5	0.0970991
96	0xbc4372b7	-0.011929206
97	0xbe3c6c36	-0.18400654
98	0x3d3f6aab	0.046732586
99	0x3cbdd4e9	0.023172813
100	0xbd18f5b3	-0.037343692
101	0xbdae54de	-0.08512281
102	0x3cf13ad9	0.029447006
103	0x3e3e7f66	0.18603286
104	0xbe240b9e	-0.16020057
105	0xbd2a7611	-0.041616503
106	0x3d4b7c17	0.04967889
107	0xbdeaa6aa	-0.1145757
108	0xbd45e109	-0.048310313
109	0xbdd6a88e	-0.10481368
110	0xbdea8364	-0.11450842
111	0xbde0869c	-0.10963175
112	0xbdb5b690	-0.08872712
113	0xbd3d049a	-0.046146967
114	0xbd8e024f	-0.06934034
115	0x3c12d707	0.008962399
116	0x3dee836a	0.11646159
117	0x3cb8b65d	0.022547895
118	0x3e07293b	0.13199322
119	0x3db1eb8f	0.08687507
120	0x3be22362	0.0069011906
121	0xbd83503d	-0.064117886
122	0xbb66c725	-0.0035213914
123	0x3c840b0d	0.01611855
124	0xbe11ca2d	-0.1423728
125	0xb9653e11	-0.00021862263
126	0x3e42267b	0.18959992
127	0x3ceb3f0f	0.028716592
128	0x3b915454	0.0044351015
129	0xbcd607cc	-0.026126765
130	0x3e1c7ed6	0.15282759
131	0xbd6ce68a	-0.057837047
132	0xbd973a3f	-0.073841564
133	0x3d8bce9c	0.06826517
134	0x3bf0352f	0.0073305587
135	0xbd2fe618	-0.042944044
136	0x3d512caa	0.051067986
137	0x3cf26c93	0.029592788
138	0x3d856c5a	0.06514807
139	0xbdd55918	-0.10417384
140	0x3db4a35f	0.08820223
141	0x3cbc1520	0.022959292
142	0xbe242d9f	-0.16033028
143	0x3db4b97a	0.08824439
144	0x3e018e2d	0.12651892
145	0x3d78f968	0.060784727
146	0xbe07bcb9	-0.13255586
147	0x3da2fb45	0.07958082
148	0x3cf090e9	0.029365974
149	0xbd78deb4	-0.06075926
150	0xbd3c4a13	-0.04596908
151	0xbd97c44a	-0.07410486
152	0x3cbb5fb3	0.022872781
153	0xbe62e9c5	-0.22159488
154	0xbdd4d0fa	-0.103914216
155	0xbcab2cac	-0.020895325
156	0xbc136f13	-0.00899865
157	0x3df2ccd4	0.11855474
158	0xbd857790	-0.06516945
159	0xbe0d26db	-0.13784353
160	0x3e03fd25	0.12889536
161	0xbe4554ab	-0.1927058
162	0xbe0a2739	-0.13491525
163	0xbe52d6de	-0.20589778
164	0x3e5e0908	0.21683133
165	0xbd6255fe	-0.05525779
166	0xbd27f38d	-0.041003752
167	0x3daa1c6c	0.08306202
168	0xbe28edad	-0.16496916
169	0xbdc616ed	-0.096723415
170	0x3de59f8a	0.1121207
171	0xbcb6409d	-0.022247607
172	0xbe8e84f0	-0.27835798
173	0xbdbcd364	-0.09220007
174	0x3e1d99e1	0.15390731
175	0x3bf54320	0.0074848086
176	0xbd3b716d	-0.045762468
177	0xbdd3fef5	-0.103513636
178	0xbd3db557	-0.046315517
179	0xbb92ca1c	-0.0044796597
180	0x3e3d5971	0.1849115
181	0x3dac6fa6	0.08419733
182	0x3e60c0cc	0.21948546
183	0xbcce31c9	-0.025170224
184	0xbc40d750	-0.0117700845
185	0x3d683c46	0.056698106
186	0x3d745a54	0.059656456
187	0xbd4b2189	-0.04959253
188	0x3cb3398f	0.021878032
189	0x3e44ac1e	0.19206282
190	0xbe0b9cde	-0.13634059
191	0xbe035e24	-0.1282888
192	0x3df0682f	0.117386214
193	0x3d893ccd	0.0670105
194	0x3d8b9177	0.068148546
195	0x3e5623b2	0.20912054
196	0xbe024938	-0.12723243
197	0xbd0954e1	-0.033528212
198	0xbcb73d21	-0.022368016
199	0x3d61d77c	0.055137143
200	0x3e17cf3b	0.14825146
201	0xbde09ea5	-0.10967759
202	0x3e3202f2	0.17383936
203	0x3e9b7b09	0.30367306
204	0xbe32c322	-0.1745725
205	0xbd31bcd9	-0.04339299
206	0x3dc8964e	0.09794293
207	0xbd41f962	-0.04735697
208	0xbe95fc7e	-0.292942
209	0xbdbbe034	-0.09173623
210	0xbd3d015d	-0.04614388
211	0x3da2be8a	0.07946499
212	0xbd543918	-0.05181226
213	0xbe14b5a7	-0.1452242
214	0xbd29a5d0	-0.041417897
215	0x3e0552b5	0.13019831
216	0x3d785ec1	0.06063724
217	0xbdd86413	-0.10565963
218	0xbbf4d71f	-0.0074719335
219	0xbdac8bcc	-0.08425102
220	0xbddd146e	-0.10794912
221	0x3e40952b	0.18806903
222	0x3d7e5342	0.06209112
223	0x3d12bc39	0.035824034
224	0x3dbb545c	0.0914695
225	0xbd3a87d0	-0.045539677
226	0xbd42fae7	-0.04760256
227	0xbded4018	-0.115844905
228	0xbd249b4e	-0.040187173
229	0x3ce7ac17	0.028280301
230	0x3d19bd74	0.037534192
231	0x3db2c97e	0.08729838
232	0x3d577019	0.05259714
233	0x3d879f7a	0.066222146
234	0x3dba9b8f	0.09111702
235	0xbd60cae2	-0.054880984
236	0x3d2fe6a7	0.042944577
237	0xbe57b6bb	-0.210658
238	0xbd86cf7b	-0.065825425
239	0x3e2a3cca	0.16624752
240	0xbe16f7d6	-0.1474298
241	0xbdcf2e3c	-0.101162404
242	0xbdbefbb0	-0.09325349
243	0xbe24e452	-0.16102722
244	0xbcd18c6d	-0.025579656
245	0x3e286188	0.16443455
246	0xbd3f7a19	-0.0467473
247	0xbe32a52e	-0.17445824
248	0x3e0d7449	0.1381389
249	0xbe130e7d	-0.14360996
250	0x3d892c63	0.06697919
251	0x3e35b3ee	0.17744419
252	0xbe501fa8	-0.20324576
253	0xbe34e1f5	-0.17664321
254	0xbe5adc18	-0.21373022
255	0x3d4bee32	0.049787708

lstm.weight_hh_l0_reverse f4 [256, 64]
0	0x3e958e1a	0.29209977
1	0x3e05d9b0	0.13071322
2	0xbc7f7156	-0.015590986
3	0x3c9a4221	0.01883036
4	0x3d8582fe	0.065191254
5	0xbc606654	-0.013696272
6	0x3da91d1e	0.08257507
7	0x3cad1e65	0.021132657
8	0x3b83c25e	0.004020973
9	0xbb5e1ccb	-0.0033891674
10	0x3dff379d	0.12461779
11	0x3e2aeb21	0.16691257
12	0x3e397630	0.18111491
13	0x3e8a268b	0.2698253
14	0xbdfb13b6	-0.12259619
15	0x3d38da8a	0.04513029
16	0x3d547d64	0.051877394
17	0x3e1d3bbb	0.15354817
18	0x3dc90da9	0.098170586
19	0x3d7d27c7	0.061805513
20	0xbe2a8919	-0.16653861
21	0x3c121c72	0.008917915
22	0xbbee92e1	-0.007280693
23	0xbd2e6547	-0.042577054
24	0xbdf0240d	-0.11725626
25	0xbcc1e8aa	-0.023670513
26	0xbd7d5919	-0.06185255
27	0xbd73d5eb	-0.05953018
28	0xbe763b7f	-0.24046133
29	0xbb839b6f	-0.004016332
30	0x3d3606aa	0.04443995
31	0xbdb74074	-0.0894784
32	0x3dc93a9a	0.098256305
33	0xbbf984d4	-0.0076147113
34	0x3d4ae18a	0.049531497
35	0xbd1a3e70	-0.0376572
36	0xbda7b038	-0.08187908
37	0x3dac84d8	0.084237754
38	0x3c8ae18e	0.016953256
39	0xbb888d15	-0.004167209
40	0x3de49e24	0.111629754
41	0xbcef9ed6	-0.029250544
42	0xbd87856c	-0.06617245
43	0x3cfa1b75	0.03053067
44	0xbdcd83ae	-0.100348815
45	0xbe26872b	-0.162625
46	0xbe0a08e8	-0.1347996
47	0xbe018db2	-0.12651709
48	0xbe01199a	-0.12607422
49	0xbe23b0bf	-0.15985392
50	0x3d2fa418	0.0428811
51	0xbca7ad6c	-0.020468436
52	0xbd795d6f	-0.06088012
53	0xbde9326d	-0.11386571
54	0x3d5f81e4	0.054567233
55	0xbd35e22b	-0.044405144
56	0x3dcb7e98	0.09936255
57	0xbe3611f9	-0.17780294
58	0x3e4503b0	0.19239688
59	0xbe4c7631	-0.19966961
60	0xbdff5994	-0.124682575
61	0xbdb5084a	-0.08839472
62	0xbe19bfd1	-0.15014578
63	0x3d996117	0.074892215
64	0x3ea4a229	0.32154968
65	0xbe4831be	-0.19550225
66	0xbcbeb722	-0.023280684
67	0xbd1c257e	-0.038121693
68	0x3d88dc68	0.06682664
69	0xbc0d9979	-0.008642548
70	0x3d998dc1	0.074977405
71	0x3bf205d2	0.0073859477
72	0x3d30cbc5	0.04316308
73	0x3c6f75ec	0.014615517
74	0x3e0aac77	0.13542353
75	0x3dc7cce0	0.09755874
76	0x3cc0c753	0.023532545
77	0x3eab957e	0.3351249
78	0x3cf9f2d1	0.030511292
79	0xbd8fc2f1	-0.07019604
80	0xbdd437fb	-0.1036224
81	0x3e33c607	0.1755601
82	0x3cda69b4	0.026661731
83	0x3cce0dbd	0.025153035
84	0xbd9f3b8e	-0.07775031
85	0x3de6a91e	0.11262725
86	0xbd67652a	-0.056492962
87	0xbd20ec18	-0.039287657
88	0xbe3e2e12	-0.18572262
89	0xbdf54264	-0.11975554
90	0xbd5dc62d	-0.054144073
91	0x3dc88ece	0.09792863
92	0xbe6cddc5	-0.23131473
93	0x3d2ad444	0.04170634
94	0x3daba95a	0.083819106
95	0x3c9b5b7a	0.018964518
96	0x3df3a003	0.11895754
97	0xbd527bcc	-0.051387593
98	0x3ecb7986	0.39741153
99	0x3e9ef36d	0.31045094
100	0xbd972587	-0.07380205
101	0xbd5dbd68	-0.05413571
102	0x3db6ea7c	0.08931443
103	0x3d14f91f	0.036370393
104	0xbe62dad5	-0.2215379
105	0xbe1a5d28	-0.15074599
106	0x3d9016a2	0.07035567
107	0x3d4dc9aa	0.05024115
108	0xbe7386a0	-0.23781824
109	0xbe277938	-0.16354835
110	0xbe04f491	-0.1298392
111	0xbe7b1786	-0.24520692
112	0xbe029f56	-0.12756094
113	0x3caab454	0.02083794
114	0x3e2073ab	0.15669124
115	0x3da37bd9	0.079826064
116	0x3b96a722	0.0045975605
117	0x3c3d54ce	0.011555864
118	0x3da6b14c	0.081392854
119	0xbd8b4256	-0.06799762
120	0x3c459a8c	0.012060773
121	0xbe168f67	-0.14703141
122	0x3e102afb	0.14078896
123	0xbdd5655b	-0.10419723
124	0xbd6844a4	-0.056706086
125	0xbdd4636a	-0.10370524
126	0xbe0c813e	-0.13721177
127	0x3d85ff4c	0.06542835
128	0x3daeb4c6	0.085305735
129	0x3e4e92d4	0.20173198
130	0xbd0a5839	-0.033775542
131	0x3e4223f0	0.18959022
132	0xbcd0432b	-0.025422653
133	0x3e389018	0.18023717
134	0x3e4d6cb7	0.20061003
135	0x3e87d631	0.26530603
136	0xbcf6a7eb	-0.030109366
137	0xbe267014	-0.16253692
138	0x3e12296f	0.14273618
139	0x3df69fb7	0.12042182
140	0x3e4e9853	0.20175295
141	0xbc93e5fb	-0.018054
142	0xbd447da2	-0.047971375
143	0x3dd0a77a	0.101881936
144	0x3e0823c8	0.132949
145	0x3db8c363	0.09021642
146	0x3d8d3278	0.06894392
147	0x3b600169	0.0034180528
148	0xbe1f0255	-0.15528233
149	0xbd9e8258	-0.07739705
150	0x3e4a2c28	0.19743407
151	0x3bddde95	0.0067709186
152	0x3cc0a873	0.023517823
153	0xbe0724b8	-0.13197601
154	0x3ca55b85	0.020185241
155	0x3c705fe5	0.014671301
156	0x3e01c2c3	0.12671952
157	0xbe558e38	-0.20855033
158	0x3e444f2b	0.19170825
159	0x3dac06f2	0.08399762
160	0x3e3f3a37	0.18674551
161	0xbe375102	-0.17901996
162	0xbdec32dd	-0.11533139
163	0x3d6d1240	0.057878733
164	0xbb6834c8	-0.003543185
165	0x3cac0543	0.020998603
166	0x3e4d379a	0.20040742
167	0xbe0ef239	-0.13959588
168	0x3b4daefc	0.0031384816
169	0xbdf51391	-0.119666226
170	0xbde5c6e9	-0.1121958
171	0xbcf16d76	-0.02947114
172	0xbd84917d	-0.06473062
173	0x3c4edfa6	0.012626564
174	0xbd66d9c4	-0.05636002
175	0xbcf3ae20	-0.029746115
176	0xbdcfa8b9	-0.10139603
177	0xbe362ce0	-0.17790556
178	0xbc672503	-0.014107945
179	0x3db7cd13	0.08974662
180	0xbda69c5c	-0.08135292
181	0xbe434661	-0.19069816
182	0x3d8fbaf3	0.070180796
183	0x3e4ddd16	0.20103869
184	0x3cb42755	0.021991411
185	0xbe41a13d	-0.18909164
186	0x3e0ac7dd	0.13552804
187	0xbda07f8a	-0.07836826
188	0xbd8db415	-0.069191135
189	0xbd6c3baf	-0.057674106
190	0xbe49abc5	-0.19694431
191	0x3e1b9f89	0.15197577
192	0x3cd58ea7	0.026068999
193	0x3d00200a	0.031280555
194	0xbdf5f213	-0.120090626
195	0x3d6eba7c	0.058283314
196	0x3e569675	0.20955832
197	0x3e3e0644	0.18557078
198	0x3e0ea349	0.13929476
199	0x3df8f19e	0.1215546
200	0x3e0583bb	0.13038532
201	0x3a3f3fab	0.0007295559
202	0x3e0fd314	0.14045364
203	0x3d21df0c	0.039519355
204	0xbcd2d5ff	-0.025736807
205	0xbdbc5728	-0.09196311
206	0xbd91e8b8	-0.07124466
207	0x3d3eabcd	0.04655056
208	0x3dd99263	0.10623624
209	0x3e17ad85	0.14812286
210	0x3d61f0c6	0.05516126
211	0x3d6ba170	0.057527006
212	0xbc740498	-0.014893673
213	0x3c58ee73	0.0132404445
214	0x3e3ceb0d	0.1844904
215	0x3dffbd42	0.1248727
216	0x3ad6cd6d	0.0016388126
217	0xbcc22db1	-0.023703428
218	0x3d9274e9	0.07151205
219	0x3d75a6c0	0.05997348
220	0xbd59d4f7	-0.053181615
221	0xbd9f970a	-0.0779248
222	0x3deb6fd2	0.114959374
223	0x3e232705	0.15932854
224	0xbd1aae94	-0.037764147
225	0xbd21f14b	-0.039536756
226	0xbb9fad95	-0.0048729875
227	0x3e052779	0.13003339
228	0xbe340852	-0.17581299
229	0x3e0cb713	0.13741712
230	0x3d1dad8f	0.038495596
231	0xbe265921	-0.16244937
232	0x3c0cb516	0.008588096
233	0xbc119f76	-0.008888116
234	0xbd34659a	-0.044042207
235	0xbdfb019e	-0.12256168
236	0xbe58df44	-0.21178919
237	0x3c177321	0.009243757
238	0xbe1adebd	-0.1512403
239	0xbccb2d41	-0.024801852
240	0xbdc53092	-0.09628405
241	0xbe45d25e	-0.1931853
242	0xbd109b55	-0.035304386
243	0x3b00fdad	0.0019682453
244	0x3b5fa5d6	0.0034125946
245	0xbe49a091	-0.19690157
246	0xbd13eb20	-0.036112905
247	0x3da65a27	0.08122664
248	0x3e034bcd	0.12821884
249	0xbe2710de	-0.16315028
250	0x3dda5441	0.106606014
251	0xbe1b050a	-0.15138641
252	0xbe09700e	-0.13421652
253	0xbc761dd9	-0.015021765
254	0xbd48c340	-0.04901433
255	0x3d03b006	0.03215029

lstm.bias_ih_l0_reverse f4 [256]
0	0x3df7e438	0.12104076
1	0x3d02d5c2	0.031942137
2	0x3e940331	0.28908685
3	0x3e614e6f	0.22002576
4	0x3d542c2e	0.051799946
5	0x3d8b4c52	0.06801666
6	0x3e44b2ab	0.19208781
7	0x3d9a9847	0.07548576
8	0xbc482848	-0.012216635
9	0x3e5d7a22	0.21628621
10	0x3e1e6c2d	0.15470953
11	0xbd809b80	-0.06279659
12	0x3e5ddaa9	0.21665443
13	0xbcd68532	-0.02618656
14	0x3dc440af	0.0958265
15	0x3d25e2bc	0.040499434
16	0x3e597fb1	0.21240117
17	0x3dfdb521	0.12388063
18	0x3da03247	0.0782209
19	0xbab96f67	-0.001414758
20	0x3e46a3e7	0.19398461
21	0x3e6299ca	0.22128978
22	0x3e02629d	0.1273293
23	0x3e00b3ef	0.12568639
24	0x3def2e19	0.11678714
25	0xbd441ffd	-0.04788207
26	0x3d846b4d	0.064657785
27	0x3d76b65b	0.0602325
28	0x3d4de35d	0.05026566
29	0x3cfdcfa2	0.030982796
30	0x3d84d036	0.064850256
31	0x3e6e9990	0.23300767
32	0x3dc879f8	0.09788889
33	0x3e42c1af	0.19019197
34	0x3c9a383f	0.018825648
35	0x3b7d897e	0.0038686688
36	0x3e0952b5	0.13410456
37	0x3df6391d	0.12022612
38	0xbbb3ce77	-0.005487259
39	0x3d9c41fa	0.076297715
40	0xbda37cd6	-0.07982795
41	0x3e1e6ebc	0.1547193
42	0x3d07a723	0.03311838
43	0x3e2c55f8	0.1682967
44	0xbcdee3c7	-0.027208222
45	0xbd67f95f	-0.056634303
46	0x3d849cfe	0.064752564
47	0x3ce76698	0.028247163
48	0xbd804e7f	-0.06264972
49	0x3dc5652f	0.0963844
50	0x3df8132e	0.12113033
51	0x3e46312b	0.19354694
52	0x3db863d6	0.09003417
53	0x3dcfda9d	0.10149119
54	0x3e20e9fc	0.15714258
55	0x3dc614b8	0.096719205
56	0x3e246b01	0.16056444
57	0x3ca757cc	0.020427607
58	0x3e00e43a	0.12587062
59	0x3e7e7305	0.24848564
60	0xbcb521f0	-0.02211091
61	0x3dfb2b18	0.12264079
62	0x3e5431f8	0.20722187
63	0x3e138e5e	0.14409778
64	0xbda7a447	-0.0818563
65	0x3b2d6f6b	0.0026464115
66	0x3d9f38a0	0.07774472
67	0xbd0d14ec	-0.03444378
68	0x3d14e2e7	0.036349203
69	0x3df93694	0.12168613
70	0xbdc39e66	-0.095516965
71	0xbc8311c5	-0.015999684
72	0xbd5a7e92	-0.053343363
73	0x3c387e57	0.0112605905
74	0xbe0b7556	-0.13618979
75	0xbde54a48	-0.11195809
76	0x3e1ee715	0.15517838
77	0x3d391da1	0.045194272
78	0xbd9e2897	-0.07722586
79	0xbd434387	-0.04767182
80	0xbd8d0d85	-0.06887344
81	0x3e2a5931	0.16635586
82	0xbbfef8a0	-0.0077811033
83	0x3e0a2a33	0.1349266
84	0xbcdb873d	-0.026797885
85	0x3ccabc87	0.0247481
86	0x3d8bd074	0.06826869
87	0x3e1d6054	0.15368778
88	0x3de6d2ff	0.11270713
89	0x3d3fe664	0.046850577
90	0x3b9b09c9	0.004731391
91	0xbd06857c	-0.032842144
92	0xbdd28258	-0.10278767
93	0x3dcab5ae	0.09897934
94	0x3db20994	0.08693233
95	0x3d82625d	0.063664176
96	0x3de5aa98	0.11214179
97	0x3c737f27	0.014861858
98	0xbd99dbdc	-0.07512638
99	0xb8e37508	-0.00010846002
100	0x3c8aafdb	0.016929558
101	0x3c96f17e	0.0184257
102	0xbb5b6827	-0.0033478828
103	0xbd5f9671	-0.05458683
104	0xbdd130c9	-0.10214383
105	0xbbd3eb94	-0.006467292
106	0x3d9488d8	0.072526634
107	0x3dc90a2b	0.098163925
108	0x3d9b482b	0.07582124
109	0xbdebbb01	-0.115102775
110	0x3dbc337a	0.09189506
111	0x3e0ea2e4	0.13929325
112	0x3d36f5a7	0.044667866
113	0xbc9e1112	-0.01929525
114	0xbdc39754	-0.09550348
115	0x3bda4b56	0.006661813
116	0xbcc900fe	-0.024536606
117	0x3dc1597d	0.09440897
118	0x3dedee8d	0.116177656
119	0x3d0cb0b0	0.03434819
120	0x3d936e22	0.071987405
121	0x3cadef08	0.021232143
122	0xbe1720f9	-0.14758672
123	0xbdc255d3	-0.09489026
124	0xbd92c29b	-0.07166024
125	0xbd65c623	-0.05609716
126	0x3d9c28a8	0.07624942
127	0xbd8d2216	-0.06891267
128	0xbe0a7d04	-0.13524252
129	0xbe08fda9	-0.13378014
130	0xbc74046e	-0.014893634
131	0x3df6c844	0.120499164
132	0xbc85c8e6	-0.016331147
133	0x3e083a40	0.1330347
134	0xbc405ddf	-0.011741131
135	0xbcd5e0f9	-0.026108252
136	0xbe25ebf9	-0.16203298
137	0xbe025906	-0.12729272
138	0x3c13637e	0.008995889
139	0xbda5ac1e	-0.080894694
140	0x3e2916de	0.1651263
141	0xbc560868	-0.013063528
142	0xbe01c295	-0.12671883
143	0x3e2ff55d	0.17183442
144	0x3e15c16f	0.1462457
145	0x3e2a2063	0.16613917
146	0x3d3767d1	0.04477674
147	0x3dd7da96	0.10539739
148	0x3d576929	0.052590523
149	0x3bce8c3c	0.0063033383
150	0x3e6c4cba	0.23076144
151	0x3d861644	0.065472156
152	0xbe1be2a6	-0.15223178
153	0xbd306780	-0.043067455
154	0x3d058193	0.032594275
155	0x3e3d5039	0.18487634
156	0x3ddbf49c	0.10740015
157	0xbda556f9	-0.08073229
158	0x3e945b46	0.28975886
159	0x3e282f25	0.16424234
160	0x3e69bfa1	0.22827007
161	0xbdaa612c	-0.08319315
162	0x3c47f9cf	0.012205555
163	0xbd209ad7	-0.039210167
164	0xbe4c69af	-0.1996219
165	0xbc98b23a	-0.018639673
166	0x3caa0271	0.020753117
167	0xbde760b8	-0.112977445
168	0x3e6920d0	0.22766423
169	0xbda8864d	-0.08228741
170	0x3de9127e	0.1138048
171	0xbd1802c9	-0.03711203
172	0x3dba1695	0.090863384
173	0xbd6ed5cd	-0.058309365
174	0xbd77ed64	-0.060529128
175	0x3cd536c7	0.026027096
176	0xbc0848b8	-0.008318119
177	0xbe65764b	-0.22408406
178	0x3b4175f9	0.002951978
179	0x3e56cefb	0.20977394
180	0xbcfcfc19	-0.030881928
181	0xbd858d96	-0.06521146
182	0x3e45f357	0.19331108
183	0xbdb32a99	-0.08748359
184	0xbc8ff34b	-0.017572066
185	0x3d10c895	0.03534754
186	0xbc076938	-0.008264832
187	0xbdb2df16	-0.087339565
188	0x3e3d93dc	0.18513435
189	0x3d897f57	0.06713741
190	0xbdbb4a9a	-0.091450885
191	0x3d4232ae	0.047411613
192	0xbd689f02	-0.056792267
193	0xbd156488	-0.036472827
194	0x3dcf3710	0.10117924
195	0x3c2b6630	0.010461375
196	0xbd52df34	-0.051482394
197	0xbc14ee2b	-0.009089987
198	0x3de6909e	0.11258052
199	0x3dd36868	0.10322648
200	0x3d208c75	0.03919645
201	0x3d89676d	0.0670918
202	0x3e19404f	0.14965938
203	0x3da5da7e	0.08098315
204	0x3cc3c672	0.023898337
205	0xbd39640c	-0.045261428
206	0x3e141814	0.1446231
207	0x3e4c26e1	0.19936706
208	0x3d3febf6	0.04685589
209	0xbc1b1574	-0.009465564
210	0xbcecb314	-0.028893985
211	0x3e0573e4	0.1303249
212	0x3e4af19b	0.19818728
213	0xbc25350a	-0.010083446
214	0x3dcd7254	0.10031572
215	0x3d09493e	0.033517115
216	0x3d6d1cff	0.05788898
217	0x3dcfcada	0.10146113
218	0xbcb88af6	-0.0225272
219	0x3d9f300c	0.07772836
220	0x3d961a38	0.073292196
221	0x3e01e075	0.1268328
222	0x3e0d4d20	0.13798952
223	0x3e63ded8	0.22252977
224	0x3e4b714c	0.19867438
225	0xbd0227aa	-0.031776108
226	0x3d522831	0.05130786
227	0x3c527879	0.012846106
228	0x3dfa19b6	0.12211935
229	0x3e0901ed	0.13379641
230	0x3c205b7d	0.0097874375
231	0x3e043650	0.12911344
232	0x3e16e356	0.1473516
233	0x3d1f5019	0.038894746
234	0xbd401ef9	-0.046904538
235	0x3daa250c	0.083078474
236	0xbcdac1be	-0.026703712
237	0xbe05a648	-0.13051713
238	0x3dc7d5c3	0.09757569
239	0x3dc46667	0.09589844
240	0x3dff6b02	0.12471582
241	0x3da58f15	0.08083931
242	0x3db8b0ab	0.09018072
243	0x3db23dfc	0.08703229
244	0x3d210abe	0.039316885
245	0x3df9fe8f	0.12206756
246	0x3b79b388	0.0038101394
247	0x3d4dd43e	0.050251238
248	0x3d7cd122	0.061722882
249	0x3e249c20	0.16075182
250	0x3e64129a	0.22272721
251	0x3e21a027	0.1578375
252	0x3d894f33	0.06704559
253	0xbc9e40b1	-0.019317957
254	0x3e14ba36	0.14524159
255	0x3dfeeafd	0.12447164
