models/1000-SimpleLSTM_FinalLoss_1.018389134275678e-05.pt (torch_old, 96254 bytes, 6 tensors)

lstm.weight_ih_l0 f4 [256, 25]
000000 cb d6 c5 be d4 2e 6a be 84 26 3e 3e 41 4b de 3e
       -0.38640437 -0.22869426 0.1856938 0.4341679
000010 c2 ab b5 bd 1f e3 ed 3d 9e e0 4d 3e 1c 8c 8f 3d
       -0.08870651 0.116155855 0.20105216 0.070091456
000020 76 31 3f be 57 78 25 be b9 b1 4e 3e 91 8d cc 3e
       -0.18671212 -0.16159187 0.20184983 0.39951757
000030 0d 33 74 be 94 48 02 bf f5 03 93 3e 35 69 7e 3d
       -0.238476 -0.50891995 0.28713956 0.062112052
000040 02 32 97 bd 4a 3a a8 bd 4d c5 8c bc 3b 8b 8c 3d
       -0.07382585 -0.08214243 -0.017183924 0.068624936
000050 0f 9f e7 3e 5f d1 96 3e fe a3 2d 3d ee 1d 91 be
       0.4523854 0.29456612 0.042392723 -0.28343147
000060 d3 47 93 bd 85 63 9a be 80 ad 88 3e 14 b7 55 3e
       -0.07191434 -0.30154052 0.2669487 0.2087062
000070 7e 14 a6 3e a7 4b 97 be ea 39 45 bd 34 4d bd 3e
       0.3243751 -0.29549906 -0.048150934 0.36972964
000080 d5 fa 8f be 6c 32 05 3e 78 87 38 be 7f 54 24 be
       -0.28121057 0.13007516 -0.18020427 -0.16047858
000090 b3 4f 0c 3f 3a 71 04 bf 2d a5 9c be 22 93 8d 3e
       0.5480911 -0.5173527 -0.3059477 0.27651316
0000a0 6f 9b de be ec 2c 66 be 51 21 dc be 03 00 b4 3e
       -0.4347796 -0.22478074 -0.42994168 0.3515626
0000b0 9d 0a 81 3e f5 c5 56 3e 7a f2 e6 3c d4 02 2f be
       0.2520341 0.20973952 0.028191794 -0.17090923
0000c0 b6 5f de be c6 bf 9a be 2a 24 38 be 3d a3 48 3e
       -0.43432397 -0.30224437 -0.17982545 0.1959352
0000d0 84 aa 9e 3e ec d2 bf 3e c5 09 08 bf b4 1d 98 be
       0.30989468 0.37465608 -0.5313991 -0.29710162
0000e0 fe 3f 5c 3e cc 9a 5b be c3 97 3c 3e ef ed 23 be
       0.21508786 -0.21445769 0.18417268 -0.16008733
0000f0 57 59 2b bd 95 0e a0 3e bd 96 0d bf e0 a5 1b be
       -0.041833248 0.31261125 -0.55308133 -0.15199995
000100 06 7a 8f 3e 44 4f a2 be af 5a 22 be 02 b2 3f be
       0.28022784 -0.317011 -0.15854906 -0.18720248
000110 4a 4a b0 3e ba 72 7a 3e a4 ea 7f 3e af 19 3e 3e
       0.34431678 0.24457827 0.24991852 0.18564485
000120 08 bc ed be 8a 2a ea be 0f 84 eb be f7 c8 8b 3e
       -0.4643252 -0.4573558 -0.4599919 0.27301762
000130 7b 79 82 bd 40 99 b3 bd 81 c0 67 3e 3e c8 a0 3d
       -0.06370827 -0.087694645 0.22632028 0.07850693
000140 cc c5 f0 3d 63 8e af bd 59 4d 6d be 4a 6a 02 be
       0.11756477 -0.0857208 -0.23174037 -0.12735859
000150 d9 e6 ba be 9c 76 e1 3e df 62 8e be 93 89 d8 3b
       -0.36504248 0.44035804 -0.27809808 0.006608197
000160 07 cc ea 3d e5 90 b0 3e c5 49 7e 3d b3 cd 85 bd
       0.114646964 0.34485546 0.06208207 -0.06533375
000170 30 28 ab 3d 54 80 d2 3d cd 31 7d bd b2 a6 43 3e
       0.083572745 0.10278383 -0.06181507 0.19106558
000180 78 23 c5 3e 96 95 25 3d 9a ee 84 3e cf e8 a8 be
       0.38503623 0.04042586 0.2596329 -0.3299012
000190 cf f9 02 be 04 b2 d4 3d fb c4 f0 3d ad a5 64 3e
       -0.12790607 0.10385516 0.11756321 0.22328825
0001a0 e6 89 c1 be dc 15 58 be 5b 1f 26 3e 42 c6 0f be
       -0.3780052 -0.21102089 0.16222899 -0.14040473
0001b0 06 b4 2f 3e 0f 06 d8 3d 67 c0 84 be 60 f4 f2 3d
       0.17158517 0.105480306 -0.2592804 0.11863017
0001c0 1f 17 5d be ea cb 74 be 46 26 d8 bd 3f bc 24 3e
       -0.21590851 -0.23905912 -0.10554175 0.16087435
0001d0 e6 5f 7a be 67 c3 bc b9 28 06 55 3e 18 bf 1f bd
       -0.24450645 -0.0003600374 0.2080313 -0.0390006
0001e0 f3 e9 a4 3e 5d e9 32 be 6e 5d 8c be 4d a7 9c be
       0.3220974 -0.17471834 -0.2741503 -0.3059639
0001f0 74 d4 d8 3d db a4 09 bd 65 d0 11 3f aa 23 8a 3d
       0.10587397 -0.033604484 0.5695861 0.06745084
000200 fd 84 88 3e f0 06 a3 be 9d 3e c0 be 56 85 31 3e
       0.26663962 -0.3184123 -0.3754777 0.1733602
000210 c8 20 2a 3c da c5 a1 be 4f 1f e6 3d e8 07 d0 3d
       0.010383792 -0.3159626 0.112364404 0.10157758
000220 31 16 ef 3e 7c c4 91 be 9f 0f 47 bd 27 e0 37 3e
       0.46696618 -0.28470218 -0.04859888 0.17956601
000230 8a 22 7d 3e 58 05 23 3e 51 49 a1 be 1a fa 97 3e
       0.24720207 0.15920007 -0.31501248 0.29683
000240 ca b4 25 3e 31 bb 96 3e 21 b7 fe 3d 24 b9 0e be
       0.16182247 0.2943969 0.12437273 -0.13937813
000250 18 70 2f bf f2 13 a2 be 64 a1 ec be ec d6 f5 bd
       -0.68530416 -0.31655842 -0.4621688 -0.12003884
000260 cb 65 49 3f 39 55 6b 3e 35 c0 c8 be 02 f7 21 3e
       0.7867095 0.22981729 -0.39209142 0.15816882
000270 7e 16 dd bd 5b d9 d8 be 65 48 53 bd 4e 3d ef be
       -0.10795306 -0.4235333 -0.051582713 -0.4672646
000280 f4 db 97 3d 3d 65 11 be aa 56 a5 be ea 6b f6 be
       0.074149996 -0.14198776 -0.32292682 -0.48129207
000290 24 00 2f bf cf 2f 48 be 3d 62 03 be 23 d0 cc be
       -0.6835959 -0.19549488 -0.12830444 -0.40002546
0002a0 8d ab e1 3e 14 f3 87 be 54 45 f1 3e cf 40 5e 3e
       0.44076195 -0.2655264 0.47123206 0.2170441
0002b0 2f df fa 3d b8 af bb be 87 7d ab 3e d2 8f e0 be
       0.122496 -0.366575 0.33494207 -0.43859726
0002c0 a0 92 b6 3e 15 7d 1f 3e 82 8b 95 3e b7 f4 88 be
       0.3565874 0.15575059 0.29208 -0.26749203
0002d0 ca a6 0c be 87 db b5 3e 71 82 76 be a0 eb c7 be
       -0.137355 0.3551905 -0.24073197 -0.39046955
0002e0 f5 a9 ea be ca c8 b7 bb 9d 55 c5 3e 2b 3a 30 be
       -0.45832792 -0.0056086527 0.3854188 -0.1720969
0002f0 ee ca 21 bf 5e 54 9d 3e 98 c3 83 3c d1 6f 95 3d
       -0.6320027 0.3072843 0.016084477 0.07296718
000300 5b 26 b9 be 68 36 cc 3d b4 d1 b6 3d 2f d3 d9 3e
       -0.36162075 0.09971315 0.089267164 0.42543933
000310 f8 ce 5d 3e 2f e9 df 3d e4 1b 6f be 85 8b 57 be
       0.21660984 0.10933148 -0.23350483 -0.21049316
000320 ee bb 1f be a1 e6 6a bd 6e 66 ca 3e d4 70 bd 3e
       -0.15599033 -0.05734885 0.39531273 0.37000144
000330 32 30 84 be e1 ab 99 bd 7c fe d1 3e e7 14 09 3e
       -0.2581802 -0.075034864 0.4101447 0.1338688
000340 6d e5 56 3c 61 1b 4e be fa 8f 89 3e e5 41 cf bd
       0.013116223 -0.20127632 0.26867658 -0.1011999
000350 20 0e fb be a4 2c c1 be d8 5d 5f 3d 8c 13 96 be
       -0.49034214 -0.3772937 0.054532856 -0.29311788
000360 4c ac a2 3d cc 25 96 be ad 95 e0 3d c9 82 be 3e
       0.07943019 -0.29325712 0.109660484 0.37209156
000370 eb e8 23 bd 1d 72 86 bb c3 d5 de bd 56 f4 af bd
       -0.04001705 -0.004102959 -0.108806156 -0.08591525
000380 41 4e c4 be a5 e5 2e 3e 54 1b 96 3e 15 79 01 3e
       -0.38340953 0.1707979 0.29317725 0.12643845
000390 e9 e2 83 be da 55 0d 3e 02 d9 e5 3d 0a df 52 3e
       -0.25759056 0.13802281 0.112230316 0.20592895
0003a0 14 c1 6c 3e 35 d6 44 3e a0 65 83 3e 50 97 ae 3d
       0.23120528 0.19222338 0.2566347 0.08524954
0003b0 76 a4 9b be c5 ea 20 be 5c e7 68 3e 93 64 4a bc
       -0.3039891 -0.15714557 0.22744507 -0.01235308
0003c0 1e f2 cb be 5c 67 30 3e 85 a6 0d 3e e6 88 1c bd
       -0.39833158 0.17226928 0.13833053 -0.038216494
0003d0 6f fe 8a be 4b 99 ca 3d e8 f3 d5 bd c4 3b 9d bd
       -0.27147242 0.098925196 -0.10446912 -0.07677415
0003e0 11 5c 80 3e 41 d3 1d 3c 08 66 03 bf fa 29 31 3e
       0.2507024 0.009632886 -0.5132756 0.17301169
0003f0 7c 61 a8 3e 16 a2 b3 3e 09 5a bb be d5 69 6e be
       0.32886875 0.350846 -0.3659213 -0.23282559

lstm.weight_hh_l0 f4 [256, 64]
000000 ae 49 a5 3c 7d 65 6c 3e b6 74 93 be fb 4b 35 be
       0.020176735 0.2308559 -0.2879998 -0.17704765
000010 6a 5d 68 be fa 37 b2 3d ca 7b 9c be 18 c5 ad 3d
       -0.22691885 0.08702083 -0.30563194 0.08484858
000020 ca 72 53 3e 66 73 48 be b3 f8 2e 3e 42 1e 3f 3e
       0.20649257 -0.19575271 0.17087059 0.18663886
000030 4d 5f 6a 3c cb f2 ac bd d5 1b 68 be a1 71 20 be
       0.014304948 -0.084447466 -0.22666867 -0.15668346
000040 fe 70 6a 3d 6d 32 6b 3e b3 b2 b6 bd 21 8e 95 be
       0.057236664 0.22968455 -0.08920803 -0.29209998
000050 4d 6a f4 3d ef 61 b2 3d 47 75 e7 3e 38 73 b3 3d
       0.11934338 0.087100856 0.45206663 0.087622106
000060 02 98 2b be 31 03 60 3e ae 2c 90 3e 29 2c 12 3e
       -0.16757205 0.21876217 0.28159088 0.14274658
000070 05 ee ff bd 69 67 cc be f4 71 9d 3e 82 65 4d 3e
       -0.124965705 -0.39922646 0.30751002 0.20058253
000080 55 cb 46 3d 21 1b 15 be dc 46 c6 be c0 53 56 be
       0.048533756 -0.1456113 -0.38725936 -0.20930386
000090 b5 95 80 3e 8b 7f ed 3d 28 89 ba bd f9 8e 85 3d
       0.25114217 0.115965925 -0.09108192 0.065214105
0000a0 9d 74 07 be e1 df e7 3d a4 31 41 3e 79 55 67 3e
       -0.13228078 0.113219984 0.18866593 0.22591199
0000b0 06 38 6d be 7e 01 48 be c7 e3 cd 3e db d0 e3 3d
       -0.23165902 -0.19531819 0.40212843 0.111238204
0000c0 9f f1 22 bc 35 0e b5 3d e5 34 ac be ef 56 29 be
       -0.009945302 0.088406004 -0.33634105 -0.16537069
0000d0 41 90 68 3e 73 88 9e 3e 75 1e fb 3c dc 17 8c be
       0.22711278 0.30963477 0.030654171 -0.27361953
0000e0 5e 78 fa 3d 38 ef 47 3e 68 5d 74 bc 9a f5 e1 3e
       0.122299895 0.19524848 -0.014914848 0.44132692
0000f0 a8 d7 02 be 29 02 74 3e 4e 4f 88 3e c2 12 fd 3d
       -0.12777579 0.23828949 0.26623005 0.123570934
000100 c4 ea ce bd e9 02 8f 3d d1 67 a8 ba cf aa a6 bb
       -0.10103372 0.06982977 -0.0012848323 -0.00508628
000110 35 65 11 bd aa 18 91 3b e6 79 b9 3e b5 52 d9 3c
       -0.03549691 0.004427989 0.36225814 0.026528696
000120 f4 a3 1d 3e ea de a9 3a 3f 89 11 be 3a 82 9a 3d
       0.15394574 0.001296011 -0.14212511 0.0754437
000130 eb cf be 3d e7 f1 8b bd 3e 61 11 bd e2 e1 c9 bc
       0.09317001 -0.068332486 -0.035493128 -0.024643842
000140 8d 91 ee 3d 7e 7a 49 3e 2f 62 91 3d 6b ff 83 be
       0.11648855 0.19675633 0.07098805 -0.25780806
000150 53 e3 80 3d 79 c5 8b bd f0 cd ac be fe 71 24 bb
       0.06293359 -0.06824774 -0.33750868 -0.0025092359
000160 b1 a2 98 be ac 90 b3 be b9 f3 c3 3b 5b 6b ac bc
       -0.29811624 -0.35071313 0.0059799817 -0.021047285
000170 92 ef 9b bd ae 41 36 3e 91 01 c5 3d 8d f8 53 3e
       -0.07614054 0.17798492 0.096194394 0.20700283
000180 37 c7 62 3e 80 71 d5 3e 58 93 a6 3e 35 57 16 bd
       0.22146307 0.41688156 0.3253429 -0.03670426
000190 54 7a 50 3d 1a e3 ae bd 50 d8 4d be b7 5b 7b 3d
       0.05089791 -0.0853941 -0.20102048 0.061366763
0001a0 a9 18 b9 bc 2b b8 90 3e 42 56 86 3e 47 db dc 3d
       -0.022594767 0.2826551 0.26237684 0.10784011
0001b0 66 6a 7c 3d ad 67 e0 bd 0e f7 d4 bd c6 36 10 3e
       0.061624907 -0.109572746 -0.103986844 0.14083394
0001c0 df 31 2e 3d ca c4 65 3d ec 0f 21 be 38 f6 18 be
       0.04252803 0.056095876 -0.1572873 -0.14937675
0001d0 57 81 47 3c 0e 76 26 3e 53 75 c9 bc 62 a6 97 bd
       0.012176833 0.16255972 -0.024592077 -0.07404782
0001e0 9d ef 79 3d dd c9 99 3d c9 c7 0f 3d b9 5f b5 3e
       0.06101953 0.075092055 0.03510264 0.35424593
0001f0 4a f5 19 bd f0 f5 7a 3c 2e 2d 7b 3e 48 56 b3 3d
       -0.03758744 0.015317425 0.24528953 0.08756691
000200 7a c1 58 be f8 73 53 bd 40 ad 14 be 92 d8 b7 be
       -0.21167555 -0.05162427 -0.14519215 -0.35907418
000210 ad 47 44 be b8 5a ac 3d 3d 3a b3 be 2c 8f 25 be
       -0.19167967 0.08415741 -0.3500537 -0.16167897
000220 86 e2 b0 3e 95 55 ba bd e4 c8 1f 3e 57 a7 95 3e
       0.34547824 -0.09098355 0.15603977 0.29229233
000230 1c 70 9a 3e 33 16 1c bd 16 8c 9b bd dc 0f bf be
       0.30163658 -0.03810711 -0.07595079 -0.37316787
000240 70 ef 92 3e 9f 37 99 bd 72 e6 a8 be 13 24 b1 be
       0.286983 -0.07481312 -0.32988316 -0.34597835
000250 94 71 0e 3d a3 ec 45 bd 27 82 96 be 2e 49 65 3e
       0.034776285 -0.048321377 -0.29396173 0.22391197
000260 89 3d 66 be 46 3d 97 3d 8e 4c 71 3e c5 e4 0b 3e
       -0.22484411 0.07384734 0.2356436 0.13661487
000270 c2 d1 93 be 3a 41 d0 be 2b 07 bb 3e 97 7a 6a 3e
       -0.2887097 -0.40674764 0.36528906 0.22898327
000280 ff 23 a7 3c 62 53 41 bd 88 f8 63 be 82 52 3b be
       0.020402906 -0.04719866 -0.22262776 -0.18293193
000290 64 07 31 3e 22 32 7c 3e b1 4d 89 be f1 7a aa 3e
       0.17287976 0.24628499 -0.26817086 0.33296922
0002a0 df e0 b9 be 37 f6 a5 3d 52 ff c5 3d 4c 06 9f 3d
       -0.36304376 0.081036024 0.09667839 0.07764873
0002b0 4c 3b a4 be b1 7f b2 be 37 ed 44 3d c8 66 11 3d
       -0.3207649 -0.34863046 0.04807779 0.03549841
0002c0 f5 51 38 3d ce 39 70 3e 2a 32 a2 be ea 74 27 be
       0.045000035 0.2345955 -0.31678897 -0.16353193
0002d0 a6 d6 7a 3e c8 28 ed 3d e4 e4 73 3d 96 2a ed bd
       0.24495944 0.11580044 0.05954446 -0.11580388
0002e0 1c fc 82 3e ed 04 85 3e 9a 00 7a bd 3f 14 3c 3e
       0.2558297 0.2598032 -0.06103573 0.18367098
0002f0 e7 16 2b be 61 12 92 3e 06 7e a2 3e bb b1 3d 3d
       -0.16707955 0.28529647 0.31736773 0.046312075
000300 f9 b5 91 3d 39 17 57 bd f3 fa b9 bc 59 b7 7b 3d
       0.07114787 -0.05251238 -0.02270267 0.06145415
000310 a3 a8 33 be eb 17 37 3d a6 ce 31 be ef fe 81 be
       -0.17544799 0.044700544 -0.17363986 -0.2538981
000320 43 c6 88 bc f3 7b e0 be 85 41 d3 bd f1 dc b9 bc
       -0.016696101 -0.43844566 -0.10315231 -0.02268836
000330 a0 3b 8e bc 5a 47 83 3c b3 5f 98 bb 00 1b 21 be
       -0.017362416 0.016025234 -0.00465008 -0.15732956
000340 fe 26 cb bc c8 53 b0 bd 15 e8 79 3d 2b 07 9e bd
       -0.024798866 -0.0860973 0.061012346 -0.07716211
000350 48 e9 92 3d 5b b0 87 3d bf 5d 07 bf bf 9b 13 3e
       0.07173401 0.06625434 -0.5287742 0.14414881
000360 59 af 80 bd b1 61 4d 3e e5 29 49 3e 57 db b1 3d
       -0.06283445 0.20056798 0.19644888 0.08684414
000370 04 80 4a be 91 35 19 be 6e e9 00 3e 24 43 cf bd
       -0.19775397 -0.1496184 0.12589046 -0.10120228
000380 1a 54 08 bd 71 aa 9c bc 2a f7 9a 3c 64 1d bd bd
       -0.03328333 -0.019124242 0.018916685 -0.092341214
000390 7e 65 ae be 1a 84 1d 3e be be cc bd 79 87 f4 bd
       -0.34061807 0.15382424 -0.09997319 -0.11939902
0003a0 97 56 55 3d 14 44 88 bd 69 d7 98 bb 92 60 65 be
       0.05208453 -0.0665361 -0.0046643508 -0.2240012
0003b0 04 80 a8 bc b2 27 45 3c 00 5d 1e 3e 00 84 76 3d
       -0.020568855 0.01203339 0.15465164 0.06018448
0003c0 89 d0 d4 3e ca b4 35 3c 47 22 7b bd 19 b3 ce 3c
       0.4156535 0.011090467 -0.061311986 0.025231885
0003d0 4b b9 0f 3e ae e3 c5 3d 95 1b 12 be 41 ec 43 be
       0.14035527 0.09662567 -0.14268334 -0.19133092
0003e0 a0 bc 02 3e 5a dd 9e 3e 05 54 5e 3e 61 50 1d 3d
       0.12767267 0.31028253 0.21711738 0.038406733
0003f0 61 bc bf 3e eb c4 4a 3d 8b 37 98 bd 2a b1 ee 3c
       0.3744841 0.0495042 -0.07432469 0.029137213

lstm.bias_ih_l0 f4 [256]
000000 36 c8 a6 3d 30 e0 06 3f e7 0c 0b 3f 6a cd f8 3d
       0.08143656 0.5268583 0.5431656 0.121485546
000010 2e 5e 1d 3e 1a 0b 04 3e 23 e9 5f 3d 19 70 78 3e
       0.15367958 0.1289486 0.054665696 0.24261512
000020 c8 aa 6d 3e 30 fa cc 3d 74 fe 1a 3f a8 95 a3 3e
       0.23209679 0.10008657 0.60544515 0.31950116
000030 fd ac 5c 3e 0b c5 fe 3e cb 14 04 3f 5e c2 16 3e
       0.21550365 0.49759707 0.5159423 0.14722583
000040 29 b6 4b 3e f1 1e 1a 3f e1 a1 6f 3e 5c 96 ca 3e
       0.19893707 0.6020346 0.23401596 0.3956784
000050 9f 86 26 3e fe 39 96 3e 29 49 9c 3e ac 03 b3 3e
       0.16262291 0.2934112 0.30524567 0.3496374
000060 6c ac 90 3e ef 6d 65 3e 98 05 a0 3c 25 d2 66 3e
       0.28256547 0.22405218 0.019533917 0.22541101
000070 10 ea 04 3f 47 74 f8 3e 37 bd 62 3e 90 d6 8b 3e
       0.5191965 0.48526213 0.22142492 0.27312136
000080 4b e2 a6 3e f8 c9 ad 3e 79 07 64 3e 6c b6 a4 3e
       0.32594523 0.33943152 0.22268476 0.32170427
000090 60 1b b4 3e 46 d3 d1 3e 9f 31 85 3e 2d d2 f7 3d
       0.35177135 0.409815 0.2601442 0.12100635
0000a0 86 4d 67 3e 88 c5 7a 3e 2f b6 f1 3e ef cd 43 3e
       0.22588167 0.24489415 0.47209308 0.19121526
0000b0 6a 76 dd 3e 52 77 ae 3e 55 c6 5f 3e 6d 76 1c 3e
       0.43254405 0.3407541 0.21853001 0.15279551
0000c0 b5 f5 d8 3e 77 f4 ae 3e f5 1d a8 3d 75 7e d8 3e
       0.4237496 0.34170887 0.08208839 0.4228398
0000d0 68 92 68 3e 76 06 cd 3e d0 d7 88 3e 9a f2 b9 3e
       0.227121 0.40043992 0.26727152 0.36317903
0000e0 a2 0b 81 3e 82 71 9f 3e df 12 3e bc b7 d5 1f 3e
       0.25204188 0.31141287 -0.011601179 0.1560887
0000f0 ae ba e4 3e 42 68 93 3e 21 a5 ba 3e 06 96 a2 3e
       0.44673675 0.2879048 0.36454108 0.31755084
000100 7c 05 19 3d 62 eb da 3d ee 40 1b 3e 9d 12 f7 3d
       0.037358746 0.10689427 0.15161487 0.12064097
000110 0c c8 20 3d bd 45 50 3d 5b 72 a1 bd ad 21 0b 3e
       0.03925328 0.050847758 -0.0788314 0.13587065
000120 ab 12 34 bd e5 0b 81 3c 61 66 9e 3c 8c b7 dc bc
       -0.043963116 0.015752742 0.019335927 -0.02694299
000130 30 94 13 3e ae 3c 30 bb e7 d4 3d ba 3f 01 9b bc
       0.14411998 -0.0026891637 -0.0007241503 -0.018921493
000140 90 b1 8c 3d b4 73 35 3e b0 bf e1 3c fb cb 16 bd
       0.06869805 0.17719918 0.027557224 -0.036815625
000150 af fa 56 bc d9 14 8e 3d 99 70 e0 3d a3 4c d4 3d
       -0.013121291 0.0693757 0.10958976 0.1036618
000160 b0 cd e7 bd 0a 86 ea 3c 41 39 ea 3d 04 c2 4f 3b
       -0.11318529 0.028628368 0.114367016 0.0031701336
000170 5e 57 16 3d f9 bf 65 3e 12 eb 55 bd a1 30 80 3d
       0.036704414 0.22436513 -0.052226134 0.06259275
000180 44 8b 9a bd 4c e9 52 3d 05 0e 09 be 14 e8 07 b9
       -0.07546094 0.05149202 -0.13384254 -0.00012961059
000190 0d 49 1c 3e 02 24 82 3d 53 ea 27 3e 5a ae b7 3c
       0.15262242 0.06354524 0.16397981 0.022422004
0001a0 23 e4 e7 3d 7c 42 03 bd 1c 5f 9b bc 7a 42 e7 3d
       0.113228105 -0.032045826 -0.01896625 0.11291976
0001b0 61 f9 40 bd 0d e1 82 3d 4b 6c 1c 3e 70 1d 2b 3d
       -0.047112826 0.06390581 0.15275685 0.04177612
0001c0 97 d3 20 3d 78 77 0e 3e b4 c0 98 3d cb e7 53 3d
       0.039264288 0.13912761 0.0745863 0.051734727
0001d0 84 f9 92 3d 47 c0 9b bc 84 9e 0b bd 1b 4d c6 3d
       0.071764976 -0.019012583 -0.03408672 0.096826755
0001e0 1e d7 6d bd c2 ac 5e bd 85 67 74 bc 10 86 c6 bc
       -0.05806648 -0.054363973 -0.014917259 -0.024233848
0001f0 d7 75 1d 3d 9a c6 9e 3d 53 29 18 3d db 5a 12 3e
       0.03844246 0.07752724 0.037148785 0.14292471
000200 22 c0 34 3d 3d e8 1b 3d 1f a6 d3 be 9b a0 a8 bd
       0.044128545 0.038063277 -0.41337678 -0.08233758
000210 ff 65 3f bd 18 09 64 3e dd 12 7f 3e 3e 1f 48 bc
       -0.04672813 0.22269094 0.2490954 -0.01221448
000220 14 65 9c 3d 9b f6 81 bd 0d 49 47 3e 10 0c a9 3d
       0.076364666 -0.063458644 0.1946146 0.08254254
000230 86 c5 2b 3e 15 2a 82 bd 9f 6f a9 bd c3 b5 40 bd
       0.16774568 -0.06355683 -0.08273243 -0.04704834
000240 03 06 a4 3e be c3 ae 3e 85 0b 68 be a8 db 6d 3d
       0.32035837 0.34133714 -0.22660644 0.05807081
000250 c6 6a 3b 3e fc 1b 98 bc 75 6e 2b 3e 1b 70 16 3e
       0.1830245 -0.018568031 0.16741355 0.14691202
000260 d8 6a 47 be f5 2d 3f be e3 ec 3d 3e f8 3f 03 3e
       -0.19474351 -0.18669875 0.18547396 0.12817371
000270 b9 81 8e be 3e aa 46 3d 13 db 83 3e 43 62 b1 bd
       -0.27833346 0.0485022 0.25753078 -0.0866132
000280 da 50 5d 3e a2 b3 a1 3e 20 37 44 3d 8f 9b f3 be
       0.21612874 0.3158236 0.047904134 -0.4757962
000290 c1 11 cc 3e ff 39 28 3b 6e 9d 44 be 1a 84 e4 bb
       0.39857295 0.0025669334 -0.1920068 -0.0069737555
0002a0 f4 10 75 bd 73 79 15 3e da 09 e1 3d 91 c2 09 be
       -0.05983062 0.1459711 0.10988207 -0.13453127
0002b0 3f ed 8c be 74 ab 0a be c5 b0 23 3e 8e ff d6 3d
       -0.27524754 -0.13541967 0.15985401 0.10497962
0002c0 e9 0e c8 be ca e8 e9 3e d0 74 02 be 17 2a 9f be
       -0.39073876 0.45685416 -0.12739873 -0.310868
0002d0 d1 b9 b1 3d 2b 6b 86 3e 57 d3 af 3d bb a9 e0 bd
       0.0867802 0.26253638 0.08585232 -0.109698735
0002e0 97 58 70 3e fa 99 67 bd d3 51 cb 3c 8b 44 67 3e
       0.23471294 -0.056543328 0.02481929 0.22584741
0002f0 84 3f c5 be d7 86 4e 3e 22 c7 a9 3d 53 be 11 3e
       -0.3852502 0.20168625 0.08289935 0.14232759
000300 b4 29 cd 3d 98 62 63 3e a9 a3 a6 3e b6 2e 72 3e
       0.1001772 0.2220558 0.32546738 0.23650631
000310 b1 78 fa 3d 88 7a a1 3e 8d 6a ee bc 15 84 ad 3e
       0.12230051 0.31538796 -0.029103542 0.33889833
000320 40 58 a2 3e 1a 71 67 3e 8e fa 46 3e 5f 8b 9f 3e
       0.31707954 0.22601739 0.19431517 0.3116102
000330 e8 73 52 3e 6e 15 8d 3e 3b a7 94 3e 5a 95 7e 3e
       0.20552027 0.27555412 0.29033837 0.2486166
000340 71 0c e0 3e e7 ae b8 3e b4 e4 ef 3d 32 b2 6b 3e
       0.43759492 0.3607094 0.117135435 0.23017195
000350 f9 69 fd 3e 89 01 4e 3e 50 90 b3 3d e5 61 4e 3e
       0.49494913 0.20117773 0.0876776 0.20154531
000360 69 a3 e6 3d bb 4d c2 3e e0 92 0b 3d 9d d2 1f 3e
       0.11261637 0.3794993 0.034075618 0.15607686
000370 74 d2 bb 3e a4 e1 01 be 37 89 93 3e af 04 e8 3e
       0.36684 -0.12683731 0.28815624 0.45316073
000380 c8 4a 78 3e b2 7c da 3e a4 ef 6d 3e 43 7d 5d 3e
       0.24247277 0.4267326 0.23235947 0.21629815
000390 7a b1 50 3e fe 08 2f 3e b0 97 e4 3e fc dd 82 3e
       0.20380202 0.17093274 0.44646978 0.25559986
0003a0 7c a9 bf 3d 9b 22 0f 3f 47 78 c1 3e d2 b7 4a 3d
       0.093584985 0.5591218 0.37787077 0.04949171
0003b0 70 fb 7b 3e f7 c0 71 3e fa 5c 89 3e b4 eb fb 3d
       0.24607635 0.23608766 0.26828748 0.12300816
0003c0 8e 8a 44 3e de a7 44 3e 57 c9 5a 3e a5 4b 49 3e
       0.1919348 0.19204661 0.21365868 0.19657762
0003d0 90 29 7a 3e 30 5e 2c 3e d8 38 89 3e 2f ad 7a 3e
       0.24429917 0.16832805 0.2680118 0.24480127
0003e0 4a 3a 48 3e d9 dd 3a 3e 3f 68 96 3d 04 d0 47 3e
       0.19553486 0.1824869 0.07344102 0.19512945
0003f0 ef 8d 9d 3e 3d cd 81 3e 16 e1 11 3e 64 9b 87 3e
       0.3077235 0.25351897 0.1424602 0.2648574

lstm.bias_hh_l0 f4 [256]
000000 bc 6f 1e 3d 03 79 b2 3e e0 dc 0c 3f a0 17 03 3e
       0.038680777 0.3485795 0.5502453 0.12801981
000010 cc 7c 9e 3e cc 8f 9b 3e 5f f2 5a 3e 9e a7 97 3e
       0.30954587 0.30383146 0.2138152 0.2962007
000020 3f 73 eb 3e 6c 8c a4 bd 9b 5c e1 3e 3c 0e 82 3e
       0.45986363 -0.08034596 0.44015965 0.25401485
000030 3e 9f 26 3d cb 12 11 3f bc d4 9a 3e de b5 be 3e
       0.04067921 0.566693 0.30240428 0.3724813
000040 96 b4 86 3e ef 35 12 3f ce b5 81 3e 10 c4 c1 3e
       0.2630965 0.57113546 0.25334018 0.37844896
000050 09 96 25 3e 76 8e e1 3e 7e c2 08 3e 67 60 0b 3e
       0.16170515 0.44054002 0.13355443 0.13610993
000060 53 d1 37 3e c9 12 7e 3e f2 d5 a9 3d de b8 b4 3e
       0.17950945 0.24811853 0.0829276 0.35297292
000070 73 0c af 3e 1f dc 9b 3e 90 e5 9a 3e d3 9a 98 3e
       0.34189186 0.30441377 0.30253267 0.29805622
000080 cf 53 e0 3e 6a df c7 3e f5 c8 81 3d d8 27 6b 3e
       0.4381394 0.3903764 0.06337158 0.22964418
000090 f2 5c c0 3e 34 15 62 3e be 25 94 3e 75 ae c6 3d
       0.37570912 0.22078401 0.28935045 0.09701244
0000a0 f6 fe 80 3e f4 fe c6 3e ef 0b 74 3e 67 1c 9c 3e
       0.2519452 0.3886639 0.23832677 0.3049042
0000b0 06 cb d2 3e 25 aa 69 3e 42 c5 91 3e db b3 6b 3e
       0.4117052 0.22818811 0.28470808 0.23017828
0000c0 96 4e 80 3e 87 36 ed 3e 29 c1 3a 3e 59 4f af 3e
       0.25059956 0.46330664 0.18237747 0.34240225
0000d0 99 58 8d 3e fe 04 a4 3e 7c 50 84 3e 17 14 50 3e
       0.27606657 0.3203506 0.25842655 0.20320164
0000e0 79 ec 90 3e e7 4a 35 3e c0 26 a0 bd c3 80 8e 3e
       0.28305414 0.17704354 -0.07819891 0.27832612
0000f0 b6 c5 0b 3f 1f d2 cd 3e 5f fd 79 3e 44 e8 0c 3e
       0.5459856 0.40199372 0.2441306 0.13760477
000100 3d 9c 0f bd 1e ae 37 3e 3b ce 01 3e c1 82 b5 3d
       -0.03506111 0.17937514 0.12676327 0.0886283
000110 2a d3 c1 3d 56 21 08 3e 2b 15 0a be 3c c8 c3 3d
       0.094641045 0.13293967 -0.13484637 0.09559676
000120 94 f8 08 3e 30 a2 b1 3d 88 3d 1e ba 34 da 20 bc
       0.13376075 0.08673513 -0.00060363906 -0.009817649
000130 93 68 e7 3d 72 63 9f bc 24 fc 16 3e ac a3 1a 3e
       0.11299243 -0.019456599 0.14744622 0.15101498
000140 a4 04 5a 3e 92 e8 89 bd 0b de ed 3d 9c f5 f9 bc
       0.21290833 -0.067338124 0.11614617 -0.030512623
000150 2e 1b 9b 3d 4b 7e c7 bb d3 59 81 3c 54 ea 7b bc
       0.075735435 -0.0060880533 0.015789902 -0.015375692
000160 bd ce 2b 3d 15 e1 ce bd 9b 29 8a bd 70 df 08 3e
       0.041945208 -0.10101525 -0.06746217 0.13366485
000170 25 cb 8b 3d 23 7d fb 3d 62 88 80 bd ae 43 88 b9
       0.06825856 0.12279727 -0.06276013 -0.00025990367
000180 53 41 fa 3d 37 c9 db 3c f9 27 74 3d 7e de c1 3c
       0.12219491 0.026829345 0.059608433 0.023665663
000190 95 83 32 3e c4 6b 4a 3c 5d a1 43 3e 83 e9 d7 3d
       0.17433007 0.012354795 0.19104524 0.10542586
0001a0 b0 51 f3 3c 3b c7 08 3e 92 09 0d 3e 54 54 72 bd
       0.029702038 0.1335725 0.13773182 -0.059162453
0001b0 4a 21 90 3d a2 fd 89 bc eb 72 36 3e a3 92 a1 3c
       0.070375994 -0.016844574 0.17817275 0.019723242
0001c0 c6 14 c5 3d 76 97 9e 3d 31 43 11 bd 34 cc b6 3d
       0.09623103 0.07743733 -0.03546447 0.089256674
0001d0 34 7b 96 bd 37 39 02 bd 8a e8 f9 3c 01 02 1c 3d
       -0.07347718 -0.031792846 0.030506391 0.03808785
0001e0 d6 13 47 3c ba d4 bf 3d e9 ec dd 3d 23 b6 2b 3d
       0.012150725 0.09366746 0.10836203 0.041921746
0001f0 ae 71 0c 3e d2 ff c9 bd 31 8a 43 bd db 1e 15 3e
       0.1371524 -0.09863247 -0.04773921 0.14562552
000200 35 85 95 bd 59 37 9c bd 84 1c 49 be 93 a2 8e be
       -0.07300798 -0.07627744 -0.19639784 -0.2785841
000210 25 02 ea bd ec ea 4a 3e 02 88 58 3e ad 47 9f bd
       -0.1142619 0.19816178 0.21145633 -0.07777343
000220 5e 78 c7 3d 5d d1 ce bd 28 98 2f bc b3 bb 78 3e
       0.09739755 -0.100985266 -0.010717429 0.24290352
000230 84 99 f4 3d fe 95 7d bd d1 d9 e9 bd 07 6e 44 be
       0.11943343 -0.06191062 -0.11418498 -0.19182597
000240 05 cd d6 3d 76 64 46 3e b7 e3 26 be ac af fe b9
       0.10488323 0.1937426 -0.16297804 -0.0004857754
000250 ee f8 66 3e 38 b6 bb 3c 4a 51 58 bb ea cb 32 3d
       0.22555897 0.022914037 -0.0033007436 0.0436515
000260 f6 34 2b be 77 38 69 be 20 b2 0c 3d 28 f1 0d 3e
       -0.16719422 -0.22775446 0.03434956 0.13861525
000270 7f 31 10 be 82 52 4b 3e 91 5a 85 3e a7 7f 91 bc
       -0.14081381 0.19855693 0.2604566 -0.017761065
000280 50 23 f3 3d 12 1d b6 3e a8 25 40 bd 9d 8b 9f be
       0.1187197 0.35569054 -0.04691091 -0.31161204
000290 95 16 d0 3e 09 d9 14 3e 8c 12 4b be a7 cc 2b 3e
       0.4064223 0.14535917 -0.19831294 0.16777287
0002a0 c4 d6 b4 bd b9 f4 49 3e 51 aa a6 3e 6c 84 21 3d
       -0.08830026 0.1972226 0.32551816 0.039432928
0002b0 39 91 a6 be c1 74 9c be 6d 69 26 bd 14 1f 34 3e
       -0.3253267 -0.30557826 -0.040627886 0.1758998
0002c0 f3 f3 91 be 77 38 a8 3e d7 60 04 be a5 eb 96 be
       -0.2850643 0.3285558 -0.12927566 -0.29476658
0002d0 be 77 66 3e a0 83 ba 3d b0 57 f7 3c b6 20 62 be
       0.22506616 0.09107137 0.03019318 -0.2208279
0002e0 e2 e5 88 3e 32 f4 a2 3d 50 b9 f3 3d 23 ec 3b 3e
       0.26737887 0.07956733 0.1190058 0.18351798
0002f0 c5 2a 1f be bb a0 0d 3e 8b 75 12 3e a9 9a 03 3d
       -0.15543659 0.13830845 0.14302652 0.032129917
000300 fd 06 5b 3e 13 9e 8d 3e 64 bb 8c 3e dc f8 c2 3e
       0.21389385 0.27659664 0.27486718 0.3808049
000310 2e 13 32 3e f0 b3 41 3e 9f 67 77 3d 8f d5 18 3e
       0.17390129 0.18916297 0.060401555 0.14925216
000320 94 6e 93 3e 35 c9 e3 3d 0a 3a a0 3e f1 84 45 3e
       0.28795302 0.111223616 0.3129428 0.19288994
000330 88 73 52 3e 2a 96 b9 3e 4b fe 7b 3e f1 e7 b8 3e
       0.20551884 0.3624738 0.24608724 0.36114457
000340 57 1c 9a 3e 4b 7f d8 3e 4a 2c 86 3e 70 b1 42 3e
       0.30099747 0.42284617 0.26205665 0.19013
000350 45 1b f5 3e 9f 4b 66 3e 3a b4 f9 3d c9 f9 33 3e
       0.47872368 0.22489785 0.121925786 0.17575754
000360 84 ec b6 3e 90 93 42 3e ae ba 29 3d eb 91 e5 3d
       0.35727322 0.19001603 0.041437797 0.11209472
000370 6c 45 90 3e 7b 9a cf 3d 7a 39 82 3e ad 45 f2 3e
       0.28177965 0.10136887 0.25434476 0.47318783
000380 ee 8e 63 3e e8 99 d0 3e c0 fc 72 bc 7e db 8e 3e
       0.22222492 0.4074242 -0.014830768 0.27901834
000390 5a 1f ab 3e 34 b1 73 3e 52 69 cf 3e 46 eb 80 3e
       0.33422357 0.23798066 0.4051004 0.251795
0003a0 57 b4 21 3e e4 ff 0a 3f 4d 27 15 3f d4 14 05 be
       0.1579145 0.5429671 0.58263093 -0.12996227
0003b0 e3 49 87 3e 35 1c ab 3e ad 98 2c 3e 8a 25 84 3e
       0.2642356 0.33419958 0.16855116 0.2580989
0003c0 7d 70 ce 3e e0 85 92 3e a0 c3 0d 3d f8 6d 1f 3e
       0.40320197 0.28617764 0.03461039 0.15569293
0003d0 db 09 bf 3e ec 52 45 3e 3b 0f 62 3e 85 9e 11 3e
       0.37312207 0.19269913 0.22076122 0.14220627
0003e0 36 57 0a 3e 42 c5 0d 3e e6 60 ec 3c 72 88 dc bc
       0.13509831 0.13844779 0.028854799 -0.026920531
0003f0 73 85 d3 3e 93 0a 8a 3d 46 c7 59 3e 0a 81 ae 3e
       0.4131275 0.06740298 0.21267423 0.34082824

lin.weight f4 [8, 64]
000000 22 7b 7d bf c4 56 72 3e 91 7d d3 3e 26 e7 19 3f
       -0.9901601 0.23665911 0.41306737 0.6011833
000010 92 ad 93 3e 90 70 de ba de 6c 8a 3d 99 25 55 bf
       0.2884336 -0.0016970802 0.06759046 -0.83260494
000020 15 17 d7 be 9f 17 dc 3e 74 cf 11 3f d1 cd b7 be
       -0.42009798 0.4298677 0.56957173 -0.35899213
000030 6b 72 38 bf e9 6b ea be 29 c6 90 3e 22 52 4e 3d
       -0.7204959 -0.45785454 0.28276184 0.050371297
000040 4a 89 f5 be ce 7a 03 bf fa f1 22 be 06 e5 bd be
       -0.47956306 -0.5135926 -0.15912619 -0.37088794
000050 a3 c7 28 3f 79 6c 59 be 03 09 e2 be 5c ae 36 bf
       0.6592962 -0.21232785 -0.441475 -0.713598
000060 45 a6 a7 be 58 2e 84 3e d8 1a 23 be 6a ea 67 bd
       -0.3274404 0.25816607 -0.15928209 -0.05662004
000070 a1 88 14 3e 29 b2 1e 3f f6 2a 11 bf 58 a9 7f 3e
       0.14505245 0.619906 -0.5670618 0.24966943
000080 b8 0e 8e 3e 9a 0c 82 be 4a 57 df be 9c 4d 44 3e
       0.27745605 -0.2540024 -0.43621284 0.1917023
000090 cd 59 5c bf 41 bf de be c9 46 fd 3e 9f 29 28 bf
       -0.86074525 -0.4350529 0.49468067 -0.6568851
0000a0 96 0a 24 bf 89 60 78 bf 1e 0f a7 bf 68 b6 e2 be
       -0.6407865 -0.970223 -1.3051488 -0.4427979
0000b0 0a 4c 55 be bb 97 f9 bc c1 f5 e8 3e e0 1c f7 3e
       -0.20829788 -0.030467859 0.45499995 0.48264217
0000c0 70 74 39 3f 1e d0 ae be c1 1a 0e 3f be b8 e3 bd
       0.72443295 -0.34143156 0.55509573 -0.11119221
0000d0 d4 da da bd 47 e0 aa 3e ea aa 57 bf 88 0a b4 3e
       -0.106862694 0.33374235 -0.8424517 0.35164285
0000e0 6d 31 81 3d 41 4f 88 3e d7 32 54 bf 8c 46 00 3e
       0.06308255 0.26622966 -0.82890075 0.12526911
0000f0 a2 be 8d 3e 49 47 e7 be 16 e5 0c 3f 23 06 35 bf
       0.27684504 -0.45171574 0.5503706 -0.7071249
000100 2a b3 15 3f 25 fe b3 3e fe 5e c4 3e 1b 74 4e 3f
       0.5847651 0.35154834 0.38353723 0.8064591
000110 9a 3d a9 be 08 69 b7 3e 46 4a 07 be ec 7c b2 3f
       -0.3305481 0.3582232 -0.13211927 1.3944373
000120 5c d8 72 3e f3 ec 9c 3f c9 15 df be 43 01 b0 3e
       0.23715347 1.2259811 -0.43571308 0.34375963
000130 02 ed 9d be e2 96 9c 3e da 1c e1 be ec 50 4f 3f
       -0.30844885 0.30583864 -0.43967324 0.8098285
000140 2a bf d4 be 21 6d 31 be 2e 89 82 3f ed 27 37 bd
       -0.41552097 -0.17326786 1.0198114 -0.04471581
000150 b1 1e 4e bf f9 3a 0d 3e 6a 48 b1 3d 92 02 71 3e
       -0.8051558 0.13792028 0.0865639 0.23536137
000160 1f df 0e bf 47 5a 64 3f 58 e2 f0 3e 24 7f d4 3e
       -0.55809206 0.8920025 0.47047687 0.4150325
000170 55 02 2e 3f c5 59 89 be 46 df 3c bf f4 fc 10 be
       0.6797231 -0.268263 -0.7377819 -0.14158994
000180 ed e2 b1 3f ee c5 ca bf 93 38 c0 3f 42 bc 80 3f
       1.3897377 -1.5841653 1.5017265 1.0057452
000190 20 38 6d bf 52 97 70 3e 8c d9 2a be 44 2f b5 bd
       -0.92663765 0.23495224 -0.1668455 -0.08846906
0001a0 1d e4 3e 3f c3 0c 29 bf b0 8f c6 3e fb a4 83 3f
       0.74566823 -0.660351 0.387815 1.0284723
0001b0 f2 6f da 3e 5e 8f 6d 3f 3c 23 5e bf 5d f5 51 bf
       0.42663532 0.92796886 -0.86772513 -0.8201502
0001c0 bb da a2 3f 79 a9 8b be ab f4 87 be ca 32 16 3f
       1.2723001 -0.27277735 -0.26553854 0.5867125
0001d0 e9 be b1 3e f0 60 0e 3f cf 61 82 bf 66 40 d6 be
       0.34715965 0.55616665 -1.0186099 -0.41846007
0001e0 43 af 1c bf 29 fc c3 3e 23 b2 ce 3e 6d 6a 1b 3e
       -0.6120493 0.3827832 0.40370283 0.15177317
0001f0 72 3a b3 3e 86 a5 34 bf b2 cd e2 3e a3 50 5f 3e
       0.35005528 -0.7056507 0.44297558 0.21808104
000200 8e ff 91 bf f4 e2 b1 bf 2b f4 82 3e c6 11 3f 3f
       -1.1406114 -1.3897386 0.2557691 0.74636495
000210 e2 cc c4 3d bf 2d 1a bf b8 08 db be 0f ac 07 3d
       0.09609391 -0.60226053 -0.4278009 0.033123072
000220 28 87 19 bf f7 40 2e bf 43 58 74 bf 1c ce fa be
       -0.5997186 -0.6806788 -0.95447177 -0.48985374
000230 45 cc 91 3e c9 7e 23 be 21 63 2f 3f 74 49 df 3e
       0.28476158 -0.15966333 0.68510634 0.43610728
000240 b7 bf a7 bf e6 c2 22 bf 5c 6b fe bd 62 15 69 be
       -1.3105382 -0.6357864 -0.12422821 -0.22762063
000250 1b 39 a1 bf df d9 41 bf 1b 7f df 3e 7a 15 aa be
       -1.2595552 -0.7572307 0.4365166 -0.3321951
000260 b0 5c 29 bf 0f 46 03 3f f7 49 c2 3e c6 06 95 bf
       -0.66157055 0.51278776 0.37947056 -1.1642692
000270 88 0f 28 3f 6b 87 bc be e3 55 e7 be 76 4f 71 bf
       0.656487 -0.36822066 -0.45182714 -0.9426187
000280 99 32 ee be 49 bf 64 bf 7d 2d c8 be 1d a6 f2 3e
       -0.46522978 -0.8935438 -0.39097205 0.4739236
000290 d0 77 8b bf 5a c1 63 bf 4e 84 61 3f 2c c7 4c bf
       -1.0895939 -0.88966906 0.88092506 -0.7999141
0002a0 6d 66 43 3f 54 5f 6d bf 4f 70 9c bf cd c1 82 3f
       0.76328164 -0.92723584 -1.2221774 1.0215393
0002b0 93 25 02 be a0 05 f4 3e 82 28 fb be b6 2b b9 3e
       -0.12709646 0.47660542 -0.49054343 0.3616616
0002c0 86 17 18 3f b4 ca b2 be 61 1f e9 be 40 11 a2 3e
       0.59410894 -0.34920275 -0.45531753 0.31653786
0002d0 b8 10 b9 bf bd 72 05 be 72 d9 41 bf f7 89 fc 3e
       -1.4458227 -0.1303205 -0.7572242 0.4932401
0002e0 32 f9 ab be 6b c0 19 3e 67 f4 8d bf c8 1d 88 3e
       -0.33588558 0.15014808 -1.1090211 0.2658522
0002f0 0a f8 64 3f 33 a7 de 3e b8 85 6a bf 1f af e5 be
       0.8944098 0.43486938 -0.9161029 -0.4486017
000300 83 cf be 3e 3f e1 6d 3e 2f 14 89 3e 48 d5 e4 be
       0.37267694 0.23230456 0.2677321 -0.4469397
000310 2a 50 a6 be ba 7f 5d bf 56 7e c4 be a8 c5 bb be
       -0.32483035 -0.8652302 -0.38377637 -0.36674237
000320 8f 0e 27 3f 7c 45 40 3e ee a5 45 bb 29 f4 ca 3e
       0.6525659 0.18776506 -0.0030158716 0.39639404
000330 9e 8c 86 bf 2d 1f ca 3e 5c f8 3f be 31 22 a3 be
       -1.0511663 0.3947691 -0.18747085 -0.31862023
000340 99 68 82 bd 26 63 f6 be 3e 4b 0c 3e ed 83 ac 3f
       -0.06367607 -0.4812252 0.13700578 1.347776
000350 38 42 be bd fa cc 78 3e d2 3d 9c 3e c4 38 c9 3d
       -0.09289974 0.24296942 0.30515915 0.0982528
000360 fb a9 5d 3f 6a 34 10 3f db eb 8e bf 3a 49 e5 3e
       0.86587495 0.5632998 -1.1165727 0.4478243
000370 63 27 ba bd f6 8a d4 be 18 61 d7 3e 06 8c 20 be
       -0.09089544 -0.4151227 0.42066264 -0.15678415
000380 0a 81 73 bf b7 30 9b bf ff aa bd 3d d8 4c 07 be
       -0.95118773 -1.2124242 0.092611305 -0.13212907
000390 fb 5b 3e bf 67 27 5f bf a6 19 fe be 30 dd 6e 3d
       -0.743591 -0.871695 -0.49628943 0.05831641
0003a0 2b 1c 20 3f 94 12 59 be a3 83 b5 3d 76 96 52 bf
       0.6254298 -0.21198493 0.08862998 -0.82260835
0003b0 ad c2 59 3f dd f0 9d 3e 9e 7f bc 3e e3 c2 2c bf
       0.85062677 0.30847827 0.36816114 -0.67484874
0003c0 25 a4 7e be b1 de 8d be e6 40 1c bf f6 f1 0d 3f
       -0.24867304 -0.27708963 -0.6103653 0.5544733
0003d0 cf 6d e6 bd a1 11 f4 bd 97 d1 d2 bd 87 2e c9 be
       -0.11251413 -0.11917425 -0.10293882 -0.3929331
0003e0 6b 1b af bd 82 80 b5 bf 3e 00 54 be ce ab 9e 3e
       -0.085501514 -1.4179842 -0.20703217 0.30990452
0003f0 a0 5f 40 3f f9 d1 d1 3e bc 8f 07 bf 81 28 63 bf
       0.7514591 0.4098051 -0.52953696 -0.8873368

lin.bias f4 [8]
000000 c8 96 75 be f8 da a4 bc 4e 4f ab bd 93 d9 2b bd
       -0.239833 -0.020123944 -0.083647355 -0.04195554
000010 42 fd 23 be d1 27 6e bc 80 e9 99 bd fd 08 60 bc
       -0.16014579 -0.01453586 -0.0751524 -0.013674018
