models/11-BiLSTM_Loss_0.1801687417329021.pt (torch_old, 191938 bytes, 10 tensors)

lstm.weight_ih_l0 f4 [256, 25]
-0.23963061 -0.08542007 0.34428433 -0.35169658 -0.4728501 0.20526332 0.07169189 0.18644075
0.00039445228 -0.18684126 0.1975073 0.13330474 0.039328232 -0.3408045 0.37677208 0.062024478
-0.25881532 -0.09402422 0.083207145 0.20766039 0.5215741 0.6612235 -0.32968637 -0.039658256
0.24482034 -0.1989883 0.034483153 0.32828787 0.16768461 -0.48029524 -0.11448523 0.010759449
-0.05461451 0.38150424 -0.26212573 -0.3110127 0.08157915 -0.19342782 -0.6940454 -0.279509
-0.21024205 -0.507561 0.08031096 -0.10529324 0.05865079 0.2822067 0.06747463 0.13803089
0.051412527 -0.1911214 -0.12362101 -0.32172123 0.19788826 0.39206153 -0.31550157 -0.107492626
0.124231294 0.08290523 -0.06741529 -0.2027036 -0.16700907 0.40245396 -0.14317648 -0.45692948
0.36691436 -0.20781367 -0.18146859 -0.21406983 0.047606744 0.059144385 0.2810231 0.3227496
-0.23480015 -0.0090467045 -0.34414184 -0.6068872 0.24461952 0.25983444 0.61887497 -0.14268836
0.09835907 0.37733987 -0.17313826 0.14074266 0.019949062 -0.607866 0.39321345 -0.37589377
-0.33502012 -0.29683673 0.2879866 -0.4702929 0.03249442 0.022978969 -0.20647813 0.8220757
0.14287426 0.12509075 -0.057245612 0.17822479 -0.005434849 0.20600837 0.25791892 0.14348672
-0.17776373 -0.06330392 -0.08443806 -0.59358466 -0.35118946 -0.29100984 -0.5735044 0.12272086
-0.45881805 -0.13233668 0.048513375 0.1086721 0.25391254 0.18191156 0.54939365 -0.23066635
0.21081696 0.17666724 0.3028148 -0.08827377 0.0067506223 -0.31562248 -0.15081514 0.5165751
0.14459495 -0.2681959 -0.096015714 0.100067444 0.010014683 -0.088358484 -0.029812245 -0.19890775
0.13950016 -0.19270644 -0.64218295 -0.31414276 -0.09038416 -0.123647414 -0.06048587 -0.24577646
-0.03595978 0.3152883 0.2600364 -0.4371054 -0.1772713 0.051040135 -0.07640988 0.09843042
-0.016323254 0.49077028 -0.28457007 -0.3307879 -0.053572875 -0.023083998 -0.13273987 -0.28160614
-0.20928285 0.22022218 -0.29832408 -0.1410547 0.33487314 0.16235791 -0.113238916 -0.122144535
-0.11718459 0.2497492 0.17545973 0.04586794 -0.080819346 -0.20727992 -0.4758333 -0.12413939
0.28841916 0.35675266 0.12180547 -0.16782491 -0.042728417 -0.07145592 -0.01315223 0.2356028
-0.23179506 0.12845337 0.3110357 0.012230222 -0.351135 0.31066224 -0.62834114 -0.43667114
0.2190095 0.20477566 0.20144163 0.43109658 -0.030726017 -0.43934035 -0.30676317 0.09618249
-0.09567181 -0.15023047 -0.10734452 0.3230693 0.058158826 0.07906197 -0.04874832 0.4206885
0.36485216 -0.19961923 0.44142815 0.11967113 -0.30715138 -0.014034912 -0.11509454 -0.17499344
-0.48219228 0.24136473 -0.14336553 -0.04245646 -0.14493851 -0.17941993 0.13249552 -0.20554473
-0.08926184 0.18742782 -0.26838085 -0.03931083 0.019211916 -0.25947005 0.07982603 0.16752408
-0.16188714 -0.2735955 0.16932379 -0.19189443 0.12578861 -0.16402824 0.08078792 0.13012105
-0.209607 0.28684586 0.2689424 0.04591921 -0.37112844 0.22793043 0.23350324 -0.09698714
0.30051255 -0.17587066 -0.30075845 0.16367605 0.40257958 0.20378082 -0.39428008 -0.28240305
00000000: ba61 75be b8f0 aebd 0946 b03e 9311 b4be
00000010: 6919 f2be 8c30 523e 33d3 923d 53ea 3e3e
00000020: 7dce ce39 5153 3fbe 5b3f 4a3e 0a81 083e
00000030: a416 213d ed7d aebe 45e8 c03e 610d 7e3d
00000040: 7183 84be c58f c0bd 8268 aa3d eda4 543e
00000050: e185 053f f145 293f a7cc a8be b270 22bd
00000060: 2fb2 7a3e 97c3 4bbe 353e 0d3d 5915 a83e
00000070: 84b5 2b3e 42e9 f5be 3b77 eabd 6648 303c
00000080: 77b3 5fbd 8654 c33e 5835 86be 0e3d 9fbe
00000090: f812 a73d f111 46be f6ac 31bf ce1b 8fbe
000000a0: b149 57be 85ef 01bf 137a a43d fba3 d7bd
000000b0: d03b 703d 667d 903e 2430 8a3d f857 0d3e
000000c0: f195 523d 54b5 43be 032d fdbd a5b8 a4be
000000d0: 38a3 4a3e 4abc c83e 6c89 a1be 1825 dcbd
000000e0: fa6c fe3d 38ca a93d 0711 8abd 8891 4fbe
000000f0: 6d04 2bbe 720e ce3e db9c 12be a9f2 e9be
00000100: 33dc bb3e 1bcd 54be e7d2 39be 1f35 5bbe
00000110: 4aff 423d 6241 723d 42e2 8f3e 703f a53e
00000120: 736f 70be a138 14bc 5c33 b0be f65c 1bbf
00000130: 8a7d 7a3e 0509 853e 976e 1e3f e61c 12be
00000140: 7b70 c93d b132 c13e 284b 31be d81e 103e
00000150: 376c a33c 1b9d 1bbf 4653 c93e 2675 c0be
00000160: c287 abbe fcfa 97be fb72 933e 3bca f0be
00000170: de18 053d 643e bc3c 016f 53be 8e73 523f
00000180: a14d 123e ca17 003e 607a 6abd 8f80 363e
00000190: d116 b2bb dcf3 523e f30d 843e 2fee 123e
000001a0: b207 36be 7ca5 81bd dded acbd 2af5 17bf
000001b0: 1bcf b3be 3eff 94be 2fd1 12bf 1355 fb3d
000001c0: 33ea eabe 4483 07be f6b5 463d 7a8f de3d
000001d0: d300 823e 0647 3a3e 10a5 0c3f cd33 6cbe
000001e0: 67e0 573e 42e8 343e 8b0a 9b3e e1c8 b4bd
000001f0: 5334 dd3b 4599 a1be 496f 1abe 443e 043f
00000200: b310 143e f950 89be e3a3 c4bd 29f0 cc3d
00000210: a014 243c 4bf5 b4bd cf38 f4bc 79ae 4bbe
00000220: 21d9 0e3e d654 45be 1a66 24bf 52d7 a0be
00000230: 551b b9bd db3a fdbd 08c0 77bd d3ac 7bbe
00000240: 904a 13bd 786d a13e 7e23 853e 47cc dfbe
00000250: 9c86 35be 760f 513d c87c 9cbd e395 c93d
00000260: 58b8 85bc 3e46 fb3e 2bb3 91be 085d a9be
00000270: 3b6f 5bbd a71a bdbc f6ec 07be ae2e 90be
00000280: 3e4e 56be ec81 613e efbd 98be a570 10be
00000290: 7e74 ab3e 2741 263e cee9 e7bd ea26 fabd
000002a0: 79fe efbd 41be 7f3e b7ab 333e 05e0 3b3d
000002b0: 9d84 a5bd 3041 54be 6ca0 f3be cb3c febd
000002c0: adab 933e 49a8 b63e 2575 f93d 4bda 2bbe
000002d0: fe03 2fbd 7b57 92bd 737c 57bc dc41 713e
000002e0: af5b 6dbe 4889 033e 1240 9f3e 4561 483c
000002f0: f7c7 b3be 1f0f 9f3e f7da 20bf 5c93 dfbe
00000300: 0744 603e b6b0 513e b746 4e3e b1b8 dc3e
00000310: 21b5 fbbc 38f1 e0be 1010 9dbe 53fb c43d
00000320: 95ef c3bd 04d6 19be 72d7 dbbd 5769 a53e
00000330: f337 6e3d 3eeb a13d 52ac 47bd 7c64 d73e
00000340: e7cd ba3e fc68 4cbe df02 e23e 2316 f53d
00000350: f242 9dbe b0f2 65bc b0b6 ebbd 7b31 33be
00000360: e8e1 f6be 5128 773e 6ace 12be d3e6 2dbd
00000370: c36a 14be dcb9 37be e8ac 073e 517a 52be
00000380: e9ce b6bd 14ed 3f3e 3769 89be 6504 21bd
00000390: 4f62 9d3c 42d9 84be d47b a33d 6f8b 2b3e
000003a0: bec5 25be b614 8cbe 3763 2d3e f97f 44be
000003b0: bbce 003e 05f7 27be 2374 a53d 743e 053e
000003c0: 38a3 56be 76dd 923e d1b2 893e c815 3c3d
000003d0: 8c04 bebe 9866 693e 791b 6f3e 32a1 c6bd
000003e0: c8dc 993e 7017 34be 03fd 99be b29a 273e
000003f0: e91e ce3e ebab 503e 14df c9be 2297 90be

lstm.weight_hh_l0 f4 [256, 64]
-0.0336952 -0.13628961 -0.055982605 -0.12035778 0.13750964 0.26612726 -0.060732674 -0.008191616
-0.023632927 0.021986688 -0.42117503 0.17464776 0.15567271 -0.07444302 -0.019236945 -0.12338979
0.06084758 0.011742153 -0.061110117 0.055801798 0.15182751 -0.41802815 0.23065893 0.12073787
-0.19089204 -0.026132893 -0.018376844 0.018817404 0.1154718 -0.006754647 -0.100151464 0.20358287
-0.03926813 -0.015185532 0.28199244 0.046131503 -0.017895311 0.1349342 -0.053032402 0.10318658
-0.1482409 0.0356728 -0.0045282324 -0.033315312 0.0945346 -0.0025676792 -0.10608964 0.048369415
-0.18063729 -0.014864151 0.04712288 -0.15618555 0.13432197 0.1256576 0.0043929187 -0.004491856
0.005643411 -0.011915115 0.045456916 0.12247312 -0.04720828 -0.12309374 -0.0568914 -0.058101658
0.0047554662 0.1887594 -0.17684256 -0.017398149 0.1285497 0.09723559 -0.1372347 0.092079006
0.21039405 -0.030194081 -0.36195529 0.15026811 0.23705147 0.09999917 0.29907915 -0.50495225
0.11528803 -0.19879459 0.058723014 0.021615485 -0.1575098 -0.6360196 0.30915305 -0.09879097
0.03936695 0.24541388 0.22376068 0.006033401 -0.19663703 -0.032637607 -0.23684137 0.29743943
0.15496969 -0.19512917 0.23649415 0.0066951695 0.34919718 0.041492652 -0.05626396 0.018419188
0.27804217 0.207935 0.14600483 -0.14684136 -0.32701308 -0.13944706 0.084958255 0.0114464015
0.04302109 -0.19666989 -0.048776627 -0.0069601587 -0.1711032 -0.15394232 0.026512522 -0.020840963
0.02995727 0.26155257 0.13053477 -0.30543882 0.18988618 0.054427862 -0.11646763 -0.008010584
0.30249438 0.044057995 0.24579814 0.38112625 -0.15457973 0.036154836 0.22363529 0.29703262
-0.2060732 -0.082232036 -0.14565302 -0.3579105 0.03670271 -0.09668064 -0.007775261 0.121054895
-0.108352974 0.23126262 -0.28197348 -0.16155595 0.11647657 0.030340943 -0.1956858 0.300341
0.12339115 -0.24875447 -0.20375237 0.14829476 0.2429451 -0.15975477 0.3000915 -0.19734752
-0.20519485 0.08113068 -0.17599653 -0.10957826 -0.28718042 -0.35999295 0.18980798 0.23008752
0.0191183 0.2586941 0.07947988 0.10526038 0.17431243 0.23209453 0.21860713 -0.21315454
-0.1978812 0.19606943 -0.352582 0.00591385 -0.029135305 -0.096799165 -0.1899918 0.044117533
-0.21953927 0.013837419 0.29565606 -0.051524993 -0.137514 0.11053582 0.2098977 -0.13459373
0.041633096 0.30365953 0.025001759 0.21729456 0.17856017 -0.04731709 -0.14853095 0.4199667
-0.030634245 0.121733405 -0.4015504 0.24781318 -0.12670402 -0.09770044 0.046308912 -0.22208683
-0.24151243 0.037418015 -0.024068598 0.10744471 0.3348886 -0.34527564 -0.030886028 0.018194493
0.030811429 -0.16329797 -0.19213037 0.0215379 0.041582067 -0.2881853 -0.13637772 0.2430007
0.095407575 0.14836022 -0.05545423 -0.026734013 -0.26117972 0.09983515 0.031230748 0.090022355
0.0018549339 0.21699463 0.43805513 -0.06352602 -0.21272677 0.2698373 0.09801972 -0.15901324
-0.34271392 -0.18253852 -0.048347563 -0.33036783 -0.075083196 0.037531868 -0.44964504 -0.07366554
0.07455916 0.06132447 0.1840287 0.26019332 -0.078531526 0.08700218 0.045335848 -0.121929206
00000000: fa03 0abd 818f 0bbe 044e 65bd 247e f6bd
00000010: 54cf 0c3e d541 883e d3c2 78bd 2136 06bc
00000020: d799 c1bc 6d1d b43c 41a4 d7be ddd6 323e
00000030: ab68 1f3e 9575 98bd cc96 9dbc c9b3 fcbd
00000040: 503b 793d 2962 403c 9a4e 7abd 6d90 643d
00000050: ac78 1b3e c907 d6be db31 6c3e 6b45 f73d
00000060: 3479 43be a614 d6bc 098b 96bc f526 9a3c
00000070: 7b7c ec3d 1656 ddbb 361c cdbd 0778 503e
00000080: 9ed7 20bd bdcc 78bc 5061 903e 63f4 3c3d
00000090: 3099 92bc 312c 0a3e 8138 59bd 7c53 d33d
000000a0: 76cc 17be a41d 123d 9161 94bb a375 08bd
000000b0: 5b9b c13d 8246 28bb 8645 d9bd 021f 463d
000000c0: fbf8 38be c588 73bc ec03 413d 1bef 1fbe
000000d0: b38b 093e 63ac 003e 79f2 8f3b 6b30 93bb
000000e0: 5dec b83b 9d37 43bc 0831 3a3d 30d3 fa3d
000000f0: 785d 41bd 9218 fcbd f506 69bd 01fc 6dbd
00000100: bed3 9b3b 254a 413e 3716 35be 9086 8ebc
00000110: 88a2 033e 7423 c73d 4187 0cbe eb93 bc3d
00000120: 8a71 573e 9459 f7bc 3452 b9be e2df 193e
00000130: 9fbd 723e 5dcc cc3d e720 993e 8d44 01bf
00000140: 211c ec3d cf90 4bbe 8b87 703d f512 b13c
00000150: 404a 21be 2ed2 22bf 4f49 9e3e ec52 cabd
00000160: 3d3f 213d c74d 7b3e 8521 653e d6b3 c53b
00000170: 385b 49be 03af 05bd 8b86 72be fb49 983e
00000180: 60b0 1e3e f1cf 47be 862b 723e 2763 db3b
00000190: f9c9 b23e 33f4 293d 0a75 66bd d6e3 963c
000001a0: 8b5b 8e3e eaec 543e 4a82 153e 955d 16be
000001b0: 426e a7be 36cb 0ebe 98fe ad3d b089 3b3c
000001c0: e236 303d d563 49be 00ca 47bd 0b12 e4bb
000001d0: ad35 2fbe 0ea3 1dbe ca30 d93c abba aabc
000001e0: f368 f53c 38ea 853e e8aa 053e 7a62 9cbe
000001f0: 8671 423e c0ef 5e3d 9586 eebd d33e 03bc
00000200: 8be0 9a3e 2876 343d 82b2 7b3e fb22 c33e
00000210: 264a 1ebe 1817 143d a600 653e a914 983e
00000220: da04 53be 4569 a8bd 1126 15be 0c40 b7be
00000230: 9555 163d 8000 c6bd 9ec7 febb a1eb f73d
00000240: 2ae8 ddbd 1cd0 6c3e d45e 90be ec6e 25be
00000250: 458b ee3d 928d f83c dc61 48be 4cc6 993e
00000260: 80b4 fc3d 7eb9 7ebe 76a4 50be 95da 173e
00000270: 9ac6 783e c196 23be 98a5 993e 7815 4abe
00000280: 991e 52be d827 a63d 6f38 34be 916a e0bd
00000290: 5009 93be ff50 b8be 065d 423e 109c 6b3e
000002a0: fb9d 9c3c 8e73 843e 59c6 a23d c192 d73d
000002b0: f57e 323e 30aa 6d3e 8cda 5f3e 2f45 5abe
000002c0: 5fa1 4abe 6dc6 483e a185 b4be f8c8 c13b
000002d0: 2aad eebc a43e c6bd 368d 42be 96b4 343d
000002e0: e7ce 60be 58b6 623c 3b60 973e df0b 53bd
000002f0: 78d0 0cbe 9b60 e23d 6cef 563e f0d2 09be
00000300: 7787 2a3d 4379 9b3e 7dd0 cc3c 7782 5e3e
00000310: 7ad8 363e 91cf 41bd 7f18 18be e005 d73e
00000320: abf4 fabc 5d4f f93d 0498 cdbe bdc2 7d3e
00000330: b3be 01be 2b17 c8bd 6aae 3d3d bb6a 63be
00000340: 094f 77be a243 193d 822b c5bc f90b dc3d
00000350: 8576 ab3e f8c7 b0be b204 fdbc 9e0c 953c
00000360: 4068 fc3c 9537 27be d3bd 44be 4070 b03c
00000370: f551 2a3d 068d 93be 9aa6 0bbe 2dd5 783e
00000380: 0c65 c33d beeb 173e fa23 63bd 4a01 dbbc
00000390: 59b9 85be 5f76 cc3d a0d7 ff3c a45d b83d
000003a0: 4121 f33a d733 5e3e c348 e03e ee19 82bd
000003b0: 0cd5 59be 1d28 8a3e 90be c83d 5ed4 22be
000003c0: 3378 afbe 61eb 3abe 1808 46bd f925 a9be
000003d0: 38c5 99bd 04bb 193d e037 e6be f5dd 96bd
000003e0: 79b2 983d 5e2f 7b3d 0572 3c3e 0f38 853e
000003f0: 23d5 a0bd 332e b23d 15b2 393d 05b6 f9bd

lstm.bias_ih_l0 f4 [256]
0.29222578 0.4139999 0.16972989 0.19798318 0.40880266 0.11177281 0.35663554 0.14952196
0.22017778 0.0948247 0.1554554 0.18238118 -0.090585284 0.29490718 0.2522484 0.18440546
0.31672305 -0.010990375 0.24352962 0.12891102 0.3027253 -0.12974477 -0.025234425 0.17653996
0.2975036 0.20589307 0.23632407 0.17952603 0.14476347 0.3983171 0.31649587 -0.04405444
0.15960474 0.07336787 0.1151346 0.15601799 0.4665639 0.35397243 0.34226042 0.17216901
0.036544643 0.2550186 0.1367661 0.08431113 0.11981891 0.31410336 0.2456735 0.1773877
0.18978685 0.16706643 0.2632004 0.39106137 -0.25728658 0.08414104 0.2856965 0.12397519
0.5028914 -0.048899196 0.14167036 0.052043386 0.1495888 0.37891188 0.432615 0.3973832
0.16218649 0.20199095 -0.06507626 0.26054052 0.16224454 0.17181328 0.15759154 0.21309544
-0.0075590294 0.16739137 0.07799994 0.14666867 -0.037288282 -0.040029854 -0.10229076 0.062565416
0.11571162 0.100126006 0.09406123 -0.120114885 0.0124920085 0.036150478 -0.06872994 0.15893959
0.075611226 0.09922807 -0.004217408 -0.12028067 0.0012769138 0.07909586 0.094847724 -0.079519466
-0.07667941 -0.03582768 -0.023804 0.12558186 -0.07549335 0.013071738 0.13086621 -0.10514876
-0.087355725 -0.04231808 0.030563382 0.38031024 0.017887112 0.0050740684 0.16000071 0.10852675
-0.08139626 0.031147799 0.08139572 0.03838166 0.039043088 0.19966029 0.28510085 0.1177193
-0.013059215 0.010255463 -0.11080352 0.2244367 0.058254346 0.037776086 0.16591717 0.08814265
0.32333243 0.068496205 -0.07099207 0.26350936 -0.069465116 0.02019922 0.26144806 -0.07898717
-0.05560832 -0.034589227 -0.10015439 -0.007041719 -0.07888624 0.023985881 -0.0129783265 0.06747508
0.11360719 0.027369397 -0.17222565 0.014957089 0.18567692 0.31575105 -0.15755679 0.04883402
0.18358211 -0.0026022983 -0.18391149 -0.07496195 0.051017173 -0.18641154 0.13504304 -0.12702544
-0.09817044 0.1291222 -0.26039448 -0.11846029 -0.066762455 -0.30522886 0.10563347 0.121088594
0.059647385 0.08991541 0.18032786 -0.00034363187 0.06812111 0.05775935 0.18139984 -0.08070686
-0.13043365 0.006585676 -0.25174978 -0.061341614 -0.058618233 -0.01089385 0.031928334 0.10223865
0.018492341 -0.21853703 -0.03194685 -0.024742408 -0.031403784 -0.11681164 0.3576235 -0.24781072
0.30300465 0.043027822 0.10465668 0.11560766 0.1786414 0.11164128 0.21115088 0.24927999
0.21734777 0.13439727 0.23993587 0.076969095 -0.18237986 0.39392304 0.024182735 0.023295471
0.046185024 0.078148074 0.061802495 0.2839499 0.31565893 -0.11727151 -0.2548219 0.092498004
0.3365085 0.23298357 0.13828143 0.11378225 0.03673987 0.29868194 0.07129866 0.26182392
0.023994757 0.09719142 -0.11811233 0.19432639 0.54566765 0.26864532 0.38022718 0.26845324
-0.043482084 0.08585513 0.30122262 0.32257143 0.17123212 0.2260562 0.2137685 0.25639793
0.29490268 0.18316938 0.18147749 0.27014858 -0.23118474 0.12414038 0.08062561 0.441886
0.37545425 -0.09039945 -0.07109859 0.40831175 0.23448424 0.13582605 0.18908922 0.20789441
00000000: 9e9e 953e cbf7 d33e accd 2d3e 1abc 4a3e
00000010: 954e d13e 25e9 e43d ef98 b63e 491c 193e
00000020: 4976 613e 7433 c23d b32f 1f3e 22c2 3a3e
00000030: c784 b9bd 13fe 963e b426 813e c9d4 3c3e
00000040: 8629 a23e f910 34bc d45f 793e 4001 043e
00000050: cffe 9a3e d0db 04be 6db8 cebc e4c6 343e
00000060: 6452 983e a2d5 523e f0fe 713e acd5 373e
00000070: e03c 143e 38f0 cb3e bf0b a23e 6e72 34bd
00000080: 6d6f 233e e541 963d b0cb eb3d 2ec3 1f3e
00000090: 77e1 ee3e e03b b53e c23c af3e 134d 303e
000000a0: d6af 153d cc91 823e 6a0c 0c3e 50ab ac3d
000000b0: 9e63 f53d 28d2 a03e d591 7b3e 1fa5 353e
000000c0: 7c57 423e 7613 2b3e 34c2 863e 3239 c83e
000000d0: 11bb 83be 2352 ac3d d046 923e b4e6 fd3d
000000e0: 7ebd 003f 864a 48bd 0912 113e 722b 553d
000000f0: ce2d 193e bd00 c23e b77f dd3e d075 cb3e
00000100: 3714 263e b7d6 4e3e b446 85bd 9165 853e
00000110: 6f23 263e d2ef 2f3e ad5f 213e b135 5a3e
00000120: bcb1 f7bb a568 2b3e 6fbe 9f3d 5030 163e
00000130: 99bb 18bd 58f6 23bd d17d d1bd 4c22 803d
00000140: 37fa ec3d dd0e cd3d 2da3 c03d cbfe f5bd
00000150: 48ab 4c3c 8612 143d 48c2 8cbd 0fc1 223e
00000160: 0fda 9a3d 1638 cb3d 2f32 8abb b655 f6bd
00000170: 1e5e a73a 03fd a13d 863f c23d 1adb a2bd
00000180: 180a 9dbd 0cc0 12bd 9b00 c3bc 8898 003e
00000190: 429c 9abd d82a 563c cb01 063e 3c58 d7bd
000001a0: 8fe7 b2bd b955 2dbd 0f60 fa3c 06b8 c23e
000001b0: fe87 923c 5f44 a63b 3ad7 233e 4643 de3d
000001c0: 15b3 a6bd ab29 ff3c cdb2 a63d 1636 1d3d
000001d0: a5eb 1f3d bf73 4c3e bdf8 913e d116 f13d
000001e0: 51f6 55bc 8806 283c f5ec e2bd bcd2 653e
000001f0: 1c9c 6e3d 19bb 1a3d 31e6 293e 2284 b43d
00000200: d48b a53e bd47 8c3d 4a64 91bd b3ea 863e
00000210: ba43 8ebd d678 a53c 85dc 853e 06c4 a1bd
00000220: 8dc5 63bd 6fad 0dbd bf1d cdbd 38be e6bb
00000230: 1c8f a1bd 0a7e c43c 0ca3 54bc 6030 8a3d
00000240: e3aa e83d c935 e03c ec5b 30be 940e 753c
00000250: 1722 3e3e 1faa a13e 9156 21be 2e06 483d
00000260: f3fc 3b3e 528b 2abb 4b53 3cbe a785 99bd
00000270: 62f7 503d abe2 3ebe b948 0a3e f512 02be
00000280: 950d c9bd 9c38 043e 6d52 85be 4f9b f2bd
00000290: c1ba 88bd f546 9cbe 5c56 d83d 4cfd f73d
000002a0: d150 743d 9225 b83d dea7 383e 7d29 b4b9
000002b0: 1583 8b3d 1195 6c3d e1c0 393e a349 a5bd
000002c0: 6690 05be a8cc d73b 59e5 80be 5841 7bbd
000002d0: ac19 70bd 1e7c 32bc 49c7 023d 7f62 d13d
000002e0: 407d 973c 2cc8 5fbe b3da 02bd 97b0 cabc
000002f0: 41a1 00bd f13a efbd 6d1a b73e 18c2 7dbe
00000300: 6d23 9b3e f13d 303d 3e56 d63d b5c3 ec3d
00000310: c5ed 363e 2fa4 e43d f037 583e 4143 7f3e
00000320: 6a90 5e3e 709f 093e c0b1 753e f9a1 9d3d
00000330: c9c1 3abe 48b0 c93e df1a c63c 25d6 be3c
00000340: 822c 3d3d 190c a03d 9d24 7d3d e261 913e
00000350: 0c9e a13e 0c2c f0bd 0478 82be 986f bd3d
00000360: d84a ac3e 3f93 6e3e a699 0d3e ab06 e93d
00000370: 8c7c 163d d7ec 983e 0805 923d c90d 863e
00000380: a790 c43c 4c0c c73d e1e4 f1bd 7ffd 463e
00000390: e0b0 0b3f e18b 893e 23ad c23e b472 893e
000003a0: 451a 32bd d0d4 af3d da39 9a3e 1528 a53e
000003b0: 7957 2f3e 477b 673e 21e6 5a3e 9746 833e
000003c0: 7cfd 963e c190 3b3e 3cd5 393e ea50 8a3e
000003d0: b1bb 6cbe 503d fe3d 0a1f a53d e23e e23e
000003e0: 8a3b c03e 5923 b9bd 239c 91bd 3d0e d13e
000003f0: a31c 703e fc15 0b3e 9ba0 413e 46e2 543e

lstm.bias_hh_l0 f4 [256]
0.3474738 0.37976262 0.285614 0.1838817 0.36064467 0.25797558 0.35452464 0.122961394
0.1661792 0.007951081 0.071872875 0.2276375 -0.0021114629 0.14910708 0.2560619 0.25457034
0.2141331 0.14575274 0.2535674 0.30414435 0.31182608 -0.078547455 -0.0460683 0.18598759
0.30550653 0.19436595 0.19887206 0.14637631 0.10325344 0.21613236 0.2503772 0.05561945
0.17796434 0.30316052 0.051769577 0.07786637 0.47267935 0.3304553 0.49953827 0.3780148
-0.09952445 0.12431874 0.32850757 0.12349113 0.13432875 0.17527778 0.47422335 0.3366562
0.1053553 0.028027007 0.24180101 0.50503707 -0.12872726 0.05986392 0.22877353 0.22665659
0.49135008 -0.012922383 0.13175912 0.21308987 0.25565305 0.38286802 0.46459273 0.36158872
0.13500191 0.19072308 0.043679886 0.07834965 0.0945774 0.2697743 0.037621867 0.09283123
0.020137258 0.13272579 -0.042032473 0.05943741 -0.010143632 -0.016838944 -0.1185777 0.079973884
0.28585273 -0.0012797744 0.027924832 0.09719267 0.1285669 -0.084762394 0.055894177 0.040179383
-0.084077515 0.03755883 0.027798805 -0.024401963 0.1265671 0.159823 0.142204 -0.011686254
0.115765184 -0.115350485 -0.11635177 -0.015861683 0.0058620954 0.031244198 0.012595001 -0.117345154
-0.10271642 -0.02894643 -0.14161317 0.42727542 0.19701286 -0.08215967 0.11015224 0.07695381
0.044294443 -0.023602042 0.03612851 -0.007209799 -0.033145335 0.22953086 0.21461238 0.01689337
0.037776638 0.07009079 0.026341358 0.118540436 0.102345295 0.02073439 0.2371249 0.07042101
0.21023236 0.08306637 0.025185136 0.27491733 -0.21381517 -0.0015801593 0.16738969 0.118133456
-0.17009117 -0.022034202 -0.09708207 -0.19946538 -0.060732573 -0.0068031354 0.07964898 0.054521903
-0.03861928 0.04943191 -0.09437946 -0.096959434 0.15666999 0.35291228 -0.17111243 -0.08562383
0.26144704 0.020004308 0.0490647 -0.14829014 0.097909585 -0.09712325 0.27798888 -0.042536013
-0.144483 0.018504588 -0.1297894 -0.030256402 -0.018782957 -0.2849392 0.025410911 0.031065637
0.23600923 0.005652582 -0.009170285 0.10966832 0.17931883 0.27916598 0.19836728 -0.12992324
-0.08514712 0.06751864 -0.25244182 -0.027640997 0.14528298 -0.10161766 -0.053982873 0.036373913
-0.027457077 -0.21642497 0.015177562 0.030779438 -0.110402845 -0.107008316 0.29155967 -0.30497876
0.18639645 0.042874996 0.26150328 0.013470501 0.33813784 0.25284126 0.087337136 0.34617096
0.065166235 -0.010216919 0.2325328 -0.048647013 -0.046860274 0.34496903 0.2194399 0.1254707
-3.8011072e-05 0.23226677 0.085589975 0.1683506 0.32410216 -0.080895364 -0.076623365 0.01681523
0.14421234 0.22008924 0.29197004 0.06803351 0.26775935 0.28796276 0.11746724 0.112264045
0.043291923 0.09414692 -0.026893198 0.25192738 0.58347213 0.099988244 0.2884299 0.28181088
-0.043517064 0.17666572 0.48287302 0.2126698 0.10570074 0.27668068 0.45212296 0.33601263
0.2662704 0.12231879 0.16584057 0.28726757 -0.043896247 0.17465408 0.14967367 0.4776194
0.34861368 -0.13508263 0.0022936242 0.40996566 0.17017503 0.00586389 0.38306317 0.20713538
00000000: 16e8 b13e 3f70 c23e 003c 923e 7c4b 3c3e
00000010: 6ba6 b83e 6015 843e 4184 b53e 2fd3 fb3d
00000020: e12a 2a3e 4045 023c 1632 933d ce19 693e
00000030: 7860 0abb 87af 183e 8c1a 833e 0b57 823e
00000040: b545 5b3e 3540 153e 96d3 813e cfb8 9b3e
00000050: aba7 9f3e 7ddd a0bd 1db2 3cbd 8873 3e3e
00000060: 5a6b 9c3e de07 473e 1ea5 4b3e ace3 153e
00000070: 8a76 d33d cd51 5d3e 7131 803e 38d1 633d
00000080: 493c 363e db37 9b3e 560c 543d 6778 9f3d
00000090: 0703 f23e 7031 a93e 7bc3 ff3e 288b c13e
000000a0: 7ad3 cbbd d39a fe3d 2532 a83e ebe8 fc3d
000000b0: 7a8d 093e 057c 333e 67cd f23e 345e ac3e
000000c0: 85c4 d73d e598 e53c af9a 773e 1c4a 013f
000000d0: 14d1 03be df33 753d 9c43 6a3e aa18 683e
000000e0: 3d92 fb3e 67b8 53bc ddeb 063e 3b34 5a3e
000000f0: f5e4 823e 4707 c43e 19df ed3e 2822 b93e
00000100: f13d 0a3e e94c 433e aee9 323d c875 a03d
00000110: ccb1 c13d db1f 8a3e 6319 1a3d 4d1e be3d
00000120: e4f6 a43c 45e9 073e 3e2a 2cbd a474 733d
00000130: 7a31 26bc d3f1 89bc ddd8 f2bd 59c9 a33d
00000140: 4a5b 923e 1abe a7ba 9ec2 e43c f30c c73d
00000150: 0ba7 033e e897 adbd 4bf1 643d 2393 243d
00000160: d530 acbd 4ad7 193d 52ba e33c a0e6 c7bc
00000170: ce9a 013e a4a8 233e ed9d 113e b477 3fbc
00000180: 4c16 ed3d e03c ecbd d649 eebd 5cf0 81bc
00000190: d216 c03b d5f3 ff3c 435b 4e3c a852 f0bd
000001a0: fd5c d2bd 1021 edbc 0b03 11be d8c3 da3e
000001b0: bdbd 493e 5443 a8bd 7f97 e13d f699 9d3d
000001c0: 176e 353d 1259 c1bc 7dfb 133d 2d40 ecbb
000001d0: 67c3 07bd 230a 6b3e 59c3 5b3e f763 8a3c
000001e0: adbb 1a3d c38b 8f3d d5c9 d73c 54c5 f23d
000001f0: 699a d13d 2bdb a93c dfd0 723e e438 903d
00000200: 2747 573e b31e aa3d 0f51 ce3c f7c1 8c3e
00000210: 5df2 5abe 591d cfba 3468 2b3e f4ef f13d
00000220: 612c 2ebe 1281 b4bc f7d2 c6bd a740 4cbe
00000230: b8c2 78bd d6ec debb 011f a33d 5c52 5f3d
00000240: 402f 1ebd 1d79 4a3d 054a c1bd ab92 c6bd
00000250: 196e 203e ebb0 b43e 1938 2fbe 8c5b afbd
00000260: 63dc 853e 13e0 a33c 11f8 483d 5fd9 17be
00000270: d284 c83d 8ee8 c6bd 8f54 8e3e 3e3a 2ebd
00000280: 5af3 13be ef96 973c 83e7 04be 46dc f7bc
00000290: b7de 99bc 8de3 91be 8b2a d03c 5d7d fe3c
000002a0: 67ac 713e 4b39 b93b f73e 16bc c999 e03d
000002b0: 5b9f 373e d8ee 8e3e cb20 4b3e 990a 05be
000002c0: 9d61 aebd 3647 8a3d 0e40 81be 5f6f e2bc
000002d0: 10c5 143e eb1c d0bd 251d 5dbd d0fc 143d
000002e0: aaed e0bc 829e 5dbe 4fab 783c 2925 fc3c
000002f0: e31a e2bd 2d27 dbbd 4f47 953e 2d26 9cbe
00000300: b6de 3e3e b19d 2f3d c2e3 853e 60b3 5c3c
00000310: 6720 ad3e 6974 813e d0dd b23d 523d b13e
00000320: e075 853d dd64 27bc 141d 6e3e 1742 47bd
00000330: 8ff0 3fbd c89f b03e dab4 603e 647b 003e
00000340: 146e 1fb8 57d7 6d3e cc49 af3d 1a64 2c3e
00000350: b8f0 a53e 78ac a5bd b6ec 9cbd 18c0 893c
00000360: 66ac 133e 135f 613e 197d 953e 2755 8b3d
00000370: c117 893e db6f 933e aa92 f03d b1ea e53d
00000380: df52 313d 1ad0 c03d 204f dcbc a0fc 803e
00000390: 6e5e 153f a3c6 cc3d 15ad 933e 8449 903e
000003a0: f33e 32bd dce7 343e 223b f73e 1dc6 593e
000003b0: a179 d83d 17a9 8d3e a97c e73e d909 ac3e
000003c0: 9854 883e 4682 fa3d 1cd2 293e bc14 933e
000003d0: 8dcc 33bd 85d8 323e 0e44 193e 888a f43e
000003e0: 7e7d b23e 1a53 0abe a150 163b 05e7 d13e
000003f0: 5d42 2e3e e025 c03b db20 c43e 4c1b 543e

lstm.weight_ih_l0_reverse f4 [256, 25]
-0.10722897 0.25587124 -0.21877831 0.47796932 -0.87084293 -0.24950607 0.2537601 0.170886
-0.32038274 0.38324708 -0.4082179 0.7155178 -0.1298378 -0.09383904 -0.42883512 -0.3328366
0.2049287 -0.8144322 -0.06695915 0.09391757 0.17550424 0.5230282 -0.5268176 -0.22005463
-0.5642188 -0.08299165 -0.13482183 -0.06498141 0.23080252 0.07449841 -0.3174775 0.14427032
-0.07535572 -0.56836444 0.12981576 0.051435366 -0.09208033 -0.4548515 0.2448353 -0.30184504
0.37243223 0.6394835 0.07028601 -0.07991894 -0.14382982 -0.23792276 -0.07053788 0.12769452
-0.16997275 0.07577533 0.0794356 0.12434481 0.091892086 0.019933265 -0.36070147 0.2296632
0.7226855 -0.036668405 -0.27782425 0.22158796 -0.67343813 0.3089059 -0.48897424 0.15796359
-0.5149292 -0.28335184 -0.14027771 0.01964205 -0.5858321 -0.52136034 -0.03590546 -0.06341959
0.16768667 0.52709687 -0.28016484 0.2620753 -0.56862587 0.034721375 0.0992597 -0.08318046
0.43428013 0.69579166 0.41239175 -0.24395698 0.15079081 -0.3615332 0.0957046 -0.15851703
-0.37518227 -0.18598449 0.44879758 0.07577057 -0.23318402 -0.108002186 0.27835667 0.24294734
0.30627945 -0.1059513 0.31956923 0.09382566 -0.15762897 -0.2638207 0.28888056 0.33103353
-0.5899577 0.023293076 -0.055323776 -0.22295628 -0.09282351 -0.38037264 -0.036010746 0.0218274
-0.08514996 -0.44718552 0.013310062 -0.035728008 0.16167392 0.15548997 0.22328934 0.21342775
0.15043266 0.25574368 -0.045866143 0.008165993 -0.2615456 -0.065983556 0.27929506 0.20065886
0.043157306 0.060059037 -0.014011368 -0.14083326 -0.10581375 0.1777944 -0.07726443 0.2335825
0.034919962 -0.032581635 0.032282174 -0.09812224 -0.015509842 0.13053688 -0.17534956 0.05757895
0.35613793 0.19739008 -0.33613142 -0.08621593 -0.22959492 -0.12194298 0.110753365 -0.27488473
0.08268398 -0.3112598 -0.49437624 0.04197397 0.24118736 0.5999294 -0.18177421 -0.08832797
0.27313685 -0.21104135 -0.16312051 -0.6876766 0.30217797 0.05701782 -0.08732861 0.07308763
-0.36200207 0.14708444 0.55407023 0.3937552 -0.38862813 0.16484149 0.17533623 0.111540794
0.0053059794 -0.05714842 -0.23979506 -0.49699676 0.28349698 0.27569634 0.42999092 -0.23393011
-0.16230638 -0.05447389 0.0077213403 -0.29258302 0.038917057 0.5940761 -0.33081132 -0.42040473
0.14398292 -0.20235622 -0.24499899 0.27847663 -0.2003475 -0.011447256 0.15117803 0.14247377
0.18693013 -0.14221966 0.2127425 0.012166636 -0.38201252 -0.14999263 0.14308056 -0.17066282
-0.44914472 -0.15406796 0.092433564 0.16199195 -0.012737827 -0.108954206 -0.25344667 0.22694111
-0.07804723 -0.29007605 0.0033437796 -0.051025853 -0.42753896 0.17006782 0.23319007 -0.047306854
0.17192736 -0.19962153 0.052309692 -0.33756608 0.103754066 -0.37532142 0.27790704 0.0391744
0.26509315 0.19542107 0.19210948 -0.38854763 0.21129863 -0.5731639 0.012098241 0.5530845
-0.50566685 -0.26369393 -0.32525232 -0.22538066 -0.05737517 0.57262003 0.060957815 -0.35597456
0.3369974 -0.32371613 0.48759276 0.35577756 -0.2924399 -0.26040965 -0.6819269 0.2057868
00000000: dd9a dbbd 8e01 833e 6c07 60be 65b8 f43e
00000010: 90ef 5ebf 857e 7fbe d8ec 813e bdfc 2e3e
00000020: 3509 a4be f638 c43e f001 d1be 2d2c 373f
00000030: 33f4 04be af2e c0bd 4790 dbbe 8f69 aabe
00000040: d4d8 513e a17e 50bf e121 89bd db57 c03d
00000050: 62b7 333e 2de5 053f 85dd 06bf 0056 61be
00000060: a570 10bf 87f7 a9bd bc0e 0abe f914 85bd
00000070: 7f57 6c3e 9f92 983d 698c a2be 99bb 133e
00000080: 1a54 9abd 5580 11bf 6cee 043e e4ad 523d
00000090: 9d94 bcbd 4ce2 e8be 1bb6 7a3e 6f8b 9abe
000000a0: 70af be3e 31b5 233f 1df2 8f3d 8bac a3bd
000000b0: 2048 13be 06a2 73be 2a76 90bd 5ac2 023e
000000c0: 560d 2ebe 1930 9b3d 22af a23d 7ea8 fe3d
000000d0: eb31 bc3d 164b a33c ddad b8be d42c 6b3e
000000e0: eb01 393f 9c31 16bd fb3e 8ebe f4e7 623e
000000f0: 7166 2cbf ea28 9e3e d55a fabe 35c1 213e
00000100: 66d2 03bf 7e13 91be f6a4 0fbe 5de8 a03c
00000110: 18f9 15bf df77 05bf 9b11 13bd 21e2 81bd
00000120: 0eb6 2b3e d2ef 063f c471 8fbe bc2e 863e
00000130: 7791 11bf 0038 0e3d ab48 cb3d 845a aabd
00000140: f759 de3e 671f 323f 0325 d33e dccf 79be
00000150: e868 1a3e e11a b9be c600 c43d 4a52 22be
00000160: e417 c0be b872 3ebe ccc8 e53e 9a2d 9b3d
00000170: cbc7 6ebe 4030 ddbd c484 8e3e 30c7 783e
00000180: a9d0 9c3e fffc d8bd 949e a33e ab27 c03d
00000190: 7d69 21be 8213 87be 27e8 933e 3a7d a93e
000001a0: 7807 17bf 1fd1 be3c 2f9b 62bd a74e 64be
000001b0: 411a bebd 34c0 c2be 0180 13bd 60cf b23c
000001c0: 1a63 aebd 80f5 e4be 7212 5a3c 8857 12bd
000001d0: d98d 253e c338 1f3e f6a5 643e ce8c 5a3e
000001e0: 050b 1a3e d6f0 823e 23de 3bbd a8ca 053c
000001f0: 4ee9 85be 6322 87bd c3ff 8e3e 8479 4d3e
00000200: b7c5 303d 7700 763d f08f 65bc 9836 10be
00000210: e1b4 d8bd bc0f 363e d03c 9ebd 4030 6f3e
00000220: 3c08 0f3d 5274 05bd 503a 043d 50f4 c8bd
00000230: fe1c 7ebc 76ab 053e d68e 33be e8d7 6b3d
00000240: b657 b63e a020 4a3e 6b19 acbe fa91 b0bd
00000250: ee1a 6bbe 3ebd f9bd a9d2 e23d b1bd 8cbe
00000260: 3856 a93d 725d 9fbe e21e fdbe e6ec 2b3d
00000270: d2f9 763e f994 193f 0523 3abe 4be5 b4bd
00000280: 98d8 8b3e 391b 58be 1009 27be 930b 30bf
00000290: 12b7 9a3e 858b 693d 58d9 b2bd f8ae 953d
000002a0: 5658 b9be 4e9d 163e 8cd7 0d3f 489a c93e
000002b0: 44fa c6be 35cc 283e 578b 333e 806f e43d
000002c0: c8dd ad3b 7614 6abd d68c 75be 5c76 febe
000002d0: 8426 913e 1228 8d3e c527 dc3e 608b 6fbe
000002e0: a533 26be 0420 5fbd 4c03 fd3b 71cd 95be
000002f0: 7e67 1f3d 5f15 183f 1a60 a9be 4a3f d7be
00000300: 4270 133e 7836 4fbe 04e1 7abe 7d94 8e3e
00000310: e527 4dbe 468d 3bbc 6ace 1a3e a5e4 113e
00000320: 9d6a 3f3e 08a2 11be 2bd9 593e 9256 473c
00000330: 2597 c3be ab97 19be b683 123e 3cc2 2ebe
00000340: 4cf6 e5be fec3 1dbe cf4d bd3d 38e1 253e
00000350: 52b2 50bc 6223 dfbd c3c3 81be 4063 683e
00000360: 3ad7 9fbd d984 94be 5023 5b3b 7c00 51bd
00000370: 63e6 dabe 4226 2e3e 61c9 6e3e d5c4 41bd
00000380: ba0d 303e 9669 4cbe b042 563d 76d5 acbe
00000390: 037d d43d 212a c0be d549 8e3e 5675 203d
000003a0: 4aba 873e 761c 483e 59b8 443e b7ef c6be
000003b0: ab5e 583e dfba 12bf b337 463c f296 0d3f
000003c0: 6273 01bf e402 87be 7987 a6be 30ca 66be
000003d0: 3a02 6bbd 3a97 123f e7ae 793d 4c42 b6be
000003e0: ec8a ac3e 1fbe a5be c2a5 f93e 7a28 b63e
000003f0: afba 95be 6a54 85be c392 2ebf c6b9 523e

lstm.weight_hh_l0_reverse f4 [256, 64]
0.41721246 0.3582622 0.08442402 0.12086677 0.041157488 -0.03199235 0.22853181 -0.059525806
0.0488898 0.050081525 -0.039393045 0.14905539 0.21633767 0.26998833 -5.9371876e-05 -0.061298806
0.019372612 0.22275744 0.04657981 -0.089764625 -0.18973547 0.21066187 -0.03833455 -0.12045791
-0.2603874 0.063885204 -0.1337841 -0.057043366 -0.5180954 0.121338844 0.024850976 -0.106679745
0.15796664 0.06623477 0.08948805 -0.03705189 -0.0063235546 0.13008775 0.039522752 -0.03310699
-0.046009056 -0.057788596 -0.1313051 0.016050007 -0.30378166 -0.036150064 -0.105315685 -0.19720152
-0.15575491 -0.11734962 0.12020432 -0.17118707 0.050492834 -0.14218976 0.051250715 -0.12441345
-0.06434581 -0.4608136 -0.036346063 -0.10946883 -0.16906488 -0.14774969 -0.054563977 0.12659517
0.35969204 -0.05949075 -0.03422226 0.06783294 0.324847 0.035831176 0.13329716 0.0785511
0.19550662 -0.0034118502 0.18676431 -0.009866802 0.042583577 0.03779938 -0.02916377 -0.04620078
0.009587746 0.4919808 0.015950257 0.112968676 -0.11424717 -0.08197662 -0.059498798 -0.033967074
-0.2508644 0.08225273 0.050549068 0.1158212 -0.42137638 -0.012923936 0.09007055 0.1866163
0.19967552 -0.13388108 0.3158357 0.22955161 -0.12039632 0.059421677 0.119666114 -0.113827184
-0.21021105 -0.1575132 0.15768233 0.025197383 -0.34505188 0.05651141 -0.13505454 -0.48352
-0.039783318 -0.020823712 0.02355033 0.10153959 0.04443791 -0.095501356 0.0703648 0.054456327
0.15163906 -0.35371873 0.22367586 -0.14035158 -0.13273852 -0.2731898 -0.23610443 0.19066255
-0.10582271 0.2221564 0.04562968 0.054460537 -0.14225748 0.20765643 0.00062916864 0.10384627
-0.3748302 -0.11088996 -0.026824946 0.2385661 0.17095621 0.03157549 0.10225601 0.012756175
0.13916907 -0.14734471 0.08342398 -0.17971283 -0.0011721507 0.119747154 0.13070662 -0.032523412
0.26801124 -0.17840624 -0.11249595 -0.043642227 0.44241458 -0.017064145 0.17342615 -0.14588316
0.0052566393 -0.020174043 -0.0050704833 0.12462984 0.10098362 -0.12921134 0.094992235 0.17556927
-0.079250544 -0.10577363 -0.16180861 0.052828662 0.20837161 -0.0039738887 -0.030556204 0.28904608
-0.17641954 -0.08024096 -0.05344619 0.013801128 -0.062651046 -0.027550211 0.019085076 0.07664792
-0.24488796 0.07187961 -0.09185752 0.018137187 0.26767614 0.021372389 -0.09349546 -0.12069139
0.032209784 0.2923547 -0.093944065 0.013341438 0.09613263 -0.025929723 0.32057205 0.08432784
0.12766957 0.04856691 0.12540147 0.0010533221 -0.031500116 -0.13534386 0.06632163 -0.02281917
0.07880123 -0.15246242 -0.029838363 -0.08750842 -0.038365856 0.13180916 0.11844882 -0.042404525
-0.009663803 -0.067872405 0.16475727 -0.05200095 0.14539656 0.10950517 0.023406029 0.09169218
-0.09371969 0.13639735 -0.08738983 -0.057135306 -0.10706597 -0.0033839466 0.005193457 -0.036903266
0.010393541 0.11744438 -0.1597472 -0.21851543 -0.10429677 -0.15446207 0.01916256 0.24527021
0.0025602828 -0.18414813 -0.0563229 -0.10170285 0.16651104 -0.01896278 -0.13618182 0.10064582
0.007380852 0.009232947 0.14375208 -0.1598762 -0.21660286 -0.10694558 0.105726704 -0.20794192
00000000: df9c d53e 256e b73e 80e6 ac3d ff88 f73d
00000010: c194 283d 690a 03bd 3e04 6a3e 55d1 73bd
00000020: ac40 483d 4922 4d3d 9a5a 21bd faa1 183e
00000030: 9f87 5d3e e93b 8a3e 1106 79b8 7514 7bbd
00000040: 50b3 9e3c 871a 643e 79ca 3e3d 84d6 b7bd
00000050: 044a 42be bfb7 573e b004 1dbd a3b2 f6bd
00000060: 7f51 85be 3fd6 823d b3fe 08be 4ea6 69bd
00000070: e6a1 04bf 8080 f83d 4694 cb3c e97a dabd
00000080: 02c2 213e 18a6 873d 8345 b73d b9c3 17bd
00000090: d235 cfbb b935 053e 9ce2 213d 329b 07bd
000000a0: fe73 3cbd bcb3 6cbd d874 06be 4e7b 833c
000000b0: 4589 9bbe 1712 14bd c0af d7bd 32ef 49be
000000c0: 377e 1fbe ff54 f0bd af2d f63d aa4b 2fbe
000000d0: 93d1 4e3d 319a 11be 45ec 513d 7bcc febd
000000e0: bcc7 83bd c3ef ebbe 9cdf 14bd 3231 e0bd
000000f0: 581f 2dbe b24b 17be 7a7e 5fbd 2aa2 013e
00000100: 8e29 b83e 93ac 73bd a42c 0cbd ffeb 8a3d
00000110: 5952 a63e b6c3 123d 0d7f 083e 66df a03d
00000120: e332 483e 5999 5fbb 253f 3f3e 5ea8 21bc
00000130: 1e6c 2e3d 86d3 1a3d dce8 eebc 073d 3dbd
00000140: ec15 1d3c e8e4 fb3e 1daa 823c 1f5c e73d
00000150: 6cfa e9bd 5ce3 a7bd 03b5 73bd 0f21 0bbd
00000160: 4c71 80be 1f74 a83d 8a0c 4f3d aa33 ed3d
00000170: a5be d7be ebbe 53bc e976 b83d 5818 3f3e
00000180: bd77 4c3e 1f18 09be 38b5 a13e 940f 6b3e
00000190: 5992 f6bd 2564 733d 8213 f53d 3a1e e9bd
000001a0: 9141 57be 244b 21be 7a77 213e be6a ce3c
000001b0: a4aa b0be 8278 673d bd4b 0abe ef8f f7be
000001c0: d5f3 22bd 7d96 aabc 9fec c03c fdf3 cf3d
000001d0: 8704 363d 3796 c3bd 6c1b 903d 990d 5f3d
000001e0: 4547 1b3e 9f1a b5be 490b 653e 53b8 0fbe
000001f0: 9bec 07be 89df 8bbe 5cc5 71be 0b3d 433e
00000200: 94b9 d8bd f87c 633e 30e6 3a3d 0312 5f3d
00000210: f2ab 11be e3a3 543e cbee 243a 5aad d43d
00000220: bee9 bfbe 461a e3bd fdbf dbbc ac4a 743e
00000230: 250f 2f3e 4d55 013d 996b d13d 47ff 503c
00000240: 5682 0e3e 88e1 16be 31da aa3d a406 38be
00000250: daa2 99ba ff3d f53d f5d7 053e 4537 05bd
00000260: c538 893e 20b0 36be 4764 e6bd 31c2 32bd
00000270: 2a84 e23e 1bca 8bbc a096 313e 6562 15be
00000280: e33f ac3b 0944 a5bc 4c26 a6bb ee3d ff3d
00000290: 80d0 ce3d fa4f 04be 4a8b c23d 6ec8 333e
000002a0: 1c4e a2bd d89f d8bd 28b1 25be de62 583d
000002b0: 5e5f 553e 6537 82bb 0151 fabc d9fd 933e
000002c0: 53a7 34be 5f55 a4bd 64ea 5abd 201e 623c
000002d0: 314f 80bd fbb0 e1bc 4e58 9c3c 96f9 9c3d
000002e0: e9c3 7abe 9e35 933d cc1f bcbd 7094 943c
000002f0: d90c 893e 2615 af3c 8c7a bfbd 0c2d f7bd
00000300: 68ee 033d 84af 953e bf65 c0bd 0c96 5a3c
00000310: 2fe1 c43d 926a d4bc 0522 a43e 13b4 ac3d
00000320: d0bb 023e 19ee 463d 3e69 003e a00f 8a3a
00000330: 4406 01bd 9597 0abe a2d3 873d 45ef babc
00000340: 8a62 a13d 1c1f 1cbe 956f f4bc 9d37 b3bd
00000350: 8425 1dbd fbf8 063e 4c95 f23d 5eb0 2dbd
00000360: ed54 1ebc b000 8bbd 21b6 283e f3fe 54bd
00000370: d6e2 143e 3f44 e03d 00be bf3c 1cc9 bb3d
00000380: 1cf0 bfbd bfab 0b3e 70f9 b2bd b606 6abd
00000390: 6745 dbbd 34c5 5dbb e02d aa3b e127 17bd
000003a0: ac49 2a3c ae86 f03d c594 23be 82c2 5fbe
000003b0: 8c99 d5bd 4e2b 1ebe cdfa 9c3c 1d28 7b3e
000003c0: 6bca 273b 5491 3cbe d7b2 66bd 9549 d0bd
000003d0: df81 2a3e d557 9bbc 3f73 0bbe 651f ce3d
000003e0: 13db f13b c945 173c bf33 133e 96b6 23be
000003f0: 24cd 5dbe 4906 dbbd 3e87 d83d baee 54be

lstm.bias_ih_l0_reverse f4 [256]
0.13019247 0.0075556613 0.34383017 0.16675085 0.06577434 0.12557141 0.21897244 0.21910189
-0.15048708 0.72681606 0.13404498 -0.20700775 0.34656355 -0.049385574 0.1182505 0.10464996
0.27208757 0.13721561 0.3309892 0.07555716 0.17885727 0.2834146 0.21543741 0.27844253
0.18853028 0.07389975 -0.13902876 0.20148946 0.123985745 0.22113273 0.23922934 0.15661076
0.18572643 0.3668732 0.044142745 -0.044300523 0.42163515 0.21148974 0.040290367 0.10110211
-0.24077432 0.20172925 0.010829636 0.5353372 0.093811624 -0.17838883 0.15797915 0.03354664
-0.19107269 0.18580692 0.32184243 0.43997553 0.1516142 0.13594033 0.34455124 0.010935373
0.13150534 0.04329927 0.065104246 0.17297009 -0.07129496 0.035785865 0.42771456 0.19118856
-0.14501975 0.043868795 0.025324231 -0.025791004 0.009175818 0.087610096 -0.116480626 -0.03297415
-0.09147075 -0.025161764 -0.19757153 -0.09890288 0.10619557 0.0316969 -0.09566806 -0.052581258
-0.12676969 0.28365043 -0.07007314 0.08206032 -0.06774359 -0.015273132 0.06681521 0.10153333
0.116727926 -0.027195038 0.053558007 -0.09812164 -0.12677354 0.11103049 0.09240588 0.056063246
0.11852838 0.11657091 -0.08058584 -0.025067009 0.010148302 -0.022427713 0.0017040165 -0.079064794
0.0023432611 -0.013352074 0.13643768 0.01642949 0.052312013 -0.09609585 0.06699239 0.1743011
0.03264431 -0.021647157 -0.0435313 0.053157076 -0.012165279 0.09065414 0.1458863 0.030056763
0.089682944 0.028641768 -0.20394951 -0.11547819 -0.021862056 -0.042832825 0.12045664 -0.10764776
-0.18000452 -0.31665733 0.030849023 0.13583843 -0.08269535 0.16887541 -0.057267852 -0.013864175
-0.22563198 -0.5545571 -0.031309612 -0.10001835 0.26528502 -0.0720178 -0.19381611 0.14501698
0.17968805 0.16529131 0.27053985 0.08595597 0.092097275 0.03802812 0.5189587 0.36818305
-0.11016315 -0.05206012 0.11633945 0.41047105 0.18928343 -0.20721011 0.57624763 0.17479573
0.25682297 -0.22411434 -0.07054687 -0.08012766 -0.5774298 -0.04508267 0.24222149 -0.0817069
0.44649994 -0.19873504 0.21623303 -0.092589185 0.11620997 0.0030925972 -0.09702935 0.08368858
0.011983479 -0.45893922 0.036954027 0.36345685 -0.1268089 -0.08094283 0.41063678 -0.037444428
-0.063177824 0.11238813 -0.09184563 -0.024207272 0.29036355 0.082611345 -0.19971508 0.027601669
-0.0849038 -0.19374806 0.38128313 0.11432522 -0.009204809 0.012615136 0.2113168 0.21956538
-0.03311165 0.16549629 0.27560785 0.097362556 0.18393417 -0.09456978 0.25918895 0.326773
0.1186655 -0.007981743 0.037767358 0.1699558 0.38274857 0.14630015 0.19970587 0.08030601
0.13018078 0.2294045 -0.12457166 0.14227195 0.20065524 0.25404763 0.21335605 0.29185328
0.2558776 0.05675269 0.030935308 -0.017942866 0.24370015 0.22075908 0.06842233 0.14221483
-0.002343181 0.076448284 0.086572446 0.26942533 0.060945902 -0.27048582 0.13508947 0.13829237
0.07123344 0.1948428 0.23331144 0.20497788 0.087288566 0.1254134 0.03451564 0.018302275
0.12510464 0.25650835 0.49824014 0.3861665 0.05610344 0.09596688 0.24969712 0.09692586
00000000: 2d51 053e 7b95 f73b 820a b03e bcc0 2a3e
00000010: b2b4 863d cb95 003e 503a 603e 3f5c 603e
00000020: 4919 1abe 9e10 3a3f 1643 093e d7f9 53be
00000030: c770 b13e 8748 4abd 512d f23d b852 d63d
00000040: 104f 8b3e 4082 0c3e 6b77 a93e b6bd 9a3d
00000050: 5c26 373e b81b 913e a09b 5c3e 0590 8e3e
00000060: 150e 413e c158 973d 8e5d 0ebe 4153 4e3e
00000070: 3dec fd3d 9e70 623e 89f8 743e 925e 203e
00000080: 122f 3e3e ced6 bb3e 06cf 343d 7774 35bd
00000090: 90e0 d73e c490 583e 8307 253d a00e cf3d
000000a0: 8b8d 76be 1d92 4e3e c96e 313c dc0b 093f
000000b0: 4f20 c03d 90ab 36be 49c5 213e 3468 093d
000000c0: 8fa8 43be 2b44 3e3e 88c8 a43e 7944 e13e
000000d0: c140 1b3e f133 0b3e 0569 b03e 472a 333c
000000e0: 56a9 063e 935a 313d 6055 853d 121f 313e
000000f0: 1803 92bd 3394 123d 67fd da3e efc6 433e
00000100: 0f80 14be c4af 333d c374 cf3c a847 d3bc
00000110: 2c56 163c ec6c b33d 658d eebd e70f 07bd
00000120: 0455 bbbd 0b20 cebc 3150 4abe 988d cabd
00000130: 107d d93d 9cd4 013d 9eed c3bd 725f 57bd
00000140: eacf 01be a13a 913e 8282 8fbd 3e0f a83d
00000150: 27bd 8abd 293c 7abc 6ad6 883d b5f0 cf3d
00000160: 0d0f ef3d 21c8 debc a45f 5b3d 00f4 c8bd
00000170: ecd0 01be f463 e33d 4b3f bd3d 93a2 653d
00000180: 02bf f23d bbbc ee3d 300a a5bd 5459 cdbc
00000190: 1045 263c 53ba b7bc 4e59 df3a b9ec a1bd
000001a0: 6691 193b a8c2 5abc 52b6 0b3e 2397 863c
000001b0: 1f45 563d e7cd c4bd 4e33 893d fd7b 323e
000001c0: 0ab6 053d 6155 b1bc e04d 32bd 3cbb 593d
000001d0: e150 47bc e1a8 b93d 3863 153e 9a39 f63c
000001e0: b1ab b73d 24a2 ea3c 24d8 50be d47f ecbd
000001f0: 0e18 b3bc 7971 2fbd f9b1 f63d 6e76 dcbd
00000200: 1b53 38be e920 a2be 17b7 fc3c 3b19 0b3e
00000210: 2e5c a9bd aded 2c3e b291 6abd 9126 63bc
00000220: 120c 67be 74f7 0dbf 823e 00bd 6cd6 ccbd
00000230: 70d3 873e 117e 93bd bb77 46be 557f 143e
00000240: 2500 383e 2042 293e 3384 8a3e af09 b03d
00000250: 7f9d bc3d 60c3 1b3d 7ada 043f 7d82 bc3e
00000260: 389d e1bd fe3c 55bd 6143 ee3d 4329 d23e
00000270: 84d3 413e e32e 54be f784 133f a7fd 323e
00000280: 4d7e 833e 3b7e 65be e17a 90bd f819 a4bd
00000290: 70d2 13bf 9ba8 38bd e908 783e f255 a7bd
000002a0: a49b e43e 3381 4bbe 316c 5d3e 669f bdbd
000002b0: 7eff ed3d 2cad 4a3b 53b7 c6bd eb64 ab3d
000002c0: 5b56 443c 15fa eabe 1b5d 173d 0417 ba3e
000002d0: 31da 01be 5bc5 a5bd fc3e d23e 545f 19bd
000002e0: 6063 81bd bf2b e63d 9019 bcbd 544e c6bc
000002f0: 88aa 943e 2330 a93d 1c82 4cbe e51c e23c
00000300: 0be2 adbd e465 46be 8b37 c33e 5723 ea3d
00000310: c4cf 16bc b7af 4e3c 6e63 583e bfd5 603e
00000320: 15a0 07bd dc77 293e 791c 8d3e 0566 c73d
00000330: 3d59 3c3e cdad c1bd 6ab4 843e ca4e a73e
00000340: e606 f33d dbc5 02bc f2b1 1a3d e508 2e3e
00000350: 9ff7 c33e b5cf 153e b27f 4c3e 7a77 a43d
00000360: 1c4e 053e 03e9 6a3e 6d1f ffbd bdaf 113e
00000370: 9178 4d3e 8812 823e 027a 5a3e cb6d 953e
00000380: 6402 833e 8275 683d 0b6c fd3c ebfc 92bc
00000390: 888c 793e ab0e 623e 0221 8c3d c4a0 113e
000003a0: 0e90 19bb eb90 9c3d e54c b13d 1ef2 893e
000003b0: 69a2 793d 1e7d 8abe e554 0a3e 849c 0d3e
000003c0: d6e2 913d df84 473e 32e9 6e3e b9e5 513e
000003d0: 59c4 b23d 5f6c 003e 4660 0d3d a7ee 953c
000003e0: 6e1b 003e 1055 833e 5519 ff3e 9eb7 c53e
000003f0: b8cc 653d 498a c43d 9ab0 7f3e 1181 c63d

lstm.bias_hh_l0_reverse f4 [256]
0.029123215 -0.0026472032 0.23103611 0.027706442 0.06819101 0.025076803 0.16845736 0.18629105
-0.09781426 0.7792592 0.16513067 -0.06659271 0.2612534 -0.022917066 0.20362 0.14153574
0.18087666 -0.052793376 0.35487047 0.01974898 0.10903769 0.11433423 0.1759929 0.31864586
-0.0007000134 0.26033312 -0.2742094 0.13784195 0.12980208 0.28284934 0.40539372 -0.0060253665
0.12671913 0.26585722 0.13395958 0.033442978 0.49869272 0.06303848 0.18306494 0.019387491
-0.046778303 0.01792669 0.005764772 0.4908499 0.31744447 -0.1828405 0.321273 0.075780205
0.018232165 0.20258947 0.27980614 0.47573748 0.2616392 0.15188035 0.3162993 0.032056633
0.04558054 0.09772325 0.11252381 0.21616194 0.014978556 -0.0007922137 0.33748278 -0.011396361
-0.17411809 -0.030489802 -0.10385531 0.04854316 -0.014329512 -0.0939669 -0.081878565 0.101444915
-0.08312908 -0.036832504 -0.09382265 -0.010539723 -0.091319785 -0.057675947 -0.0017351531 -0.044246376
0.0143672675 0.14103462 0.08183126 -0.14512545 -0.1606392 0.02415533 -0.09302765 0.10349595
0.056029674 -0.15846226 0.10960521 0.036429536 0.042867076 0.054505374 -0.018864445 0.0771685
-0.102826476 0.1876868 -0.14946839 -0.07918961 0.17323755 -0.104561895 -0.0865981 -0.12624247
0.11697018 0.007887088 0.14613205 -0.028217506 -0.030587373 0.0047088317 -0.109245315 0.13100155
-0.10025404 0.06829613 -0.0477821 0.061267126 0.011937686 0.09372448 0.12569067 -0.11228671
0.06630834 0.025639184 -0.13345435 0.07239397 -0.0050275493 -0.031198354 -0.038327042 -0.010013976
-0.09912552 -0.22163907 -0.08927771 -0.0103057055 0.06723721 0.26701316 -0.07311404 0.19605084
-0.06670148 -0.54220897 0.048435807 0.011518062 0.25871646 -0.00368291 -0.13034719 0.09315688
0.22854193 0.114051566 0.41755936 0.061836038 -0.048458815 0.007530895 0.52334905 0.5334836
-0.0908234 -0.09049094 0.14415537 0.3338361 0.14406559 -0.30493283 0.42805257 0.17986186
0.04314236 -0.26736477 -0.1546678 -0.08015095 -0.43380585 0.13691413 0.37180024 -0.04940833
0.5054056 -0.35235953 0.30893278 -0.15200163 -0.074708566 0.04760459 -0.26641887 -0.06480042
0.15104453 -0.52960414 0.09680374 0.19121037 -0.26208284 -0.059946578 0.22447632 0.14531785
-0.11300817 0.034180865 0.03944817 -0.12571983 0.16040477 -0.105371766 -0.103683166 -0.008743886
-0.082538195 -0.037627142 0.45125744 0.0973024 0.16409042 0.057592 0.093359925 0.2076375
-0.25329792 0.1101494 0.12773673 -0.0071024178 0.14268045 0.038180355 0.14028823 0.16474321
0.014357378 -0.034594137 0.09839151 0.12181577 0.14447494 0.3531339 0.13667557 0.10030195
0.059607636 0.24516474 -0.14221033 0.11332479 0.2770836 0.32584834 0.22807074 0.07018875
0.25730503 0.06310507 -0.050524995 0.019196628 0.14934164 0.095536225 0.11469254 0.13748091
-0.08325633 0.20225795 0.19796897 0.3170069 0.14114584 -0.107276134 0.08966776 0.07786268
-0.04426523 0.16939868 0.24891624 0.2371531 0.06929537 0.114130944 0.19689277 0.06878254
0.15078938 0.12234115 0.44490162 0.42705828 0.055982962 0.10255239 0.16138956 -0.059778105
00000000: cf93 ee3c b37c 2dbb bb94 6c3e 9ff8 e23c
00000010: baa7 8b3d de6d cd3c 1680 2c3e 15c3 3e3e
00000020: d852 c8bd 887d 473f 0418 293e c261 88bd
00000030: 01c3 853e 92bc bbbc c381 503e bfee 103e
00000040: bb37 393e de3d 58bd 95b1 b53e 9dc8 a13c
00000050: 274f df3d 1128 ea3d 7c37 343e 8d25 a33e
00000060: 1b81 37ba 624a 853e 2d65 8cbe 7126 0d3e
00000070: d6ea 043e a1d1 903e c48f cf3e 7070 c5bb
00000080: a9c2 013e 701e 883e b32c 093e 81fb 083d
00000090: a754 ff3e 521a 813d 6075 3b3e 84d2 9e3c
000000a0: 9b9a 3fbd feda 923c 6ae6 bc3b ae50 fb3e
000000b0: 1588 a23e 8a3a 3bbe e57d a43e a732 9b3d
000000c0: 9f5b 953c 9d73 4f3e c042 8f3e dd93 f33e
000000d0: 93f5 853e 8686 1b3e fbf1 a13e d14d 033d
000000e0: a9b2 3a3d 2123 c83d e272 e63d 8e59 5d3e
000000f0: 9e68 753c 90ac 4fba 8bca ac3e cdb7 3abc
00000100: 034c 32be c0c5 f9bc 18b2 d4bd 31d5 463d
00000110: 54c6 6abc b871 c0bd f3af a7bd 5ac2 cf3d
00000120: 943f aabd aedd 16bd 1726 c0bd cdae 2cbc
00000130: de05 bbbd 9d3d 6cbd 146e e3ba b03b 35bd
00000140: b064 6b3c 616b 103e 2697 a73d c49b 14be
00000150: 9a7e 24be 66e1 c53c 4885 bebd aff5 d33d
00000160: 5f7f 653d ee43 22be b278 e03d 2337 153d
00000170: 6395 2f3d 0741 5f3d 9c89 9abc 850a 9e3d
00000180: b096 d2bd f830 403e 3e0e 19be 2a2e a2bd
00000190: 2f65 313e 8c24 d6bd 585a b1bd b545 01be
000001a0: 108e ef3d d838 013c a4a3 153e 6628 e7bc
000001b0: 5f92 fabc 8b4c 9a3b 02bc dfbd 4525 063e
000001c0: fd51 cdbd d7de 8b3d 2ab7 43bd 3df3 7a3d
000001d0: 4996 433c 9ff2 bf3d 0eb5 003e 93f6 e5bd
000001e0: abcc 873d 4409 d23c 42a8 08be 4a43 943d
000001f0: 24be a4bb b193 ffbc d1fc 1cbd a911 24bc
00000200: 5202 cbbd 5af5 62be 3bd7 b6bd 43d9 28bc
00000210: aab3 893d f3b5 883e d0bc 95bd 8dc1 483e
00000220: c99a 88bd 35ce 0abf a064 463d 41b6 3c3c
00000230: 7c76 843e fa5c 71bb bc79 05be 09c9 be3d
00000240: e506 6a3e de93 e93d 57ca d53e c947 7d3d
00000250: c07c 46bd bac5 f63b 34fa 053f 6292 083f
00000260: 9e01 babd 5053 b9bd 779d 133e 91ec aa3e
00000270: ee85 133e 2820 9cbe b529 db3e b52d 383e
00000280: 0bb6 303d 09e4 88be 3c61 1ebe 2e26 a4bd
00000290: cd1b debe 3833 0c3e 9a5c be3e 6460 4abd
000002a0: 4362 013f 7868 b4be 702c 9e3e 51a6 1bbe
000002b0: ce00 99bd 08fd 423d 0e68 88be 15b6 84bd
000002c0: 6bab 1a3e 2394 07bf 0a41 c63d a7cc 433e
000002d0: b92f 86be 8b8a 75bd 1fdd 653e 34ce 143e
000002e0: d470 e7bd 3c01 0c3d 6894 213d b3bc 00be
000002f0: 2641 243e 27cd d7bd d757 d4bd 8442 0fbc
00000300: c909 a9bd eb1e 1abd 370b e73e 7b46 c73d
00000310: 5207 283e 97e5 6b3d 7d33 bf3d ed9e 543e
00000320: 44b0 81be 0296 e13d 6bcd 023e 66bb e8bb
00000330: d31a 123e 0163 1c3d b8a7 0f3e 72b2 283e
00000340: 353b 6b3c 95b2 0dbd 7d81 c93d 8c7a f93d
00000350: 3df1 133e f7cd b43e aef4 0b3e 1c6b cd3d
00000360: 2327 743d 770c 7b3e 969f 11be d416 e83d
00000370: e7dd 8d3e 98d5 a63e 608b 693e 1fbf 8f3d
00000380: 7cbd 833e 3b3d 813d 4cf3 4ebd 3f42 9d3c
00000390: 04ed 183e 7fa8 c33d ece3 ea3d ccc7 0c3e
000003a0: 4b82 aabd b51c 4f3e 61b8 4a3e ba4e a23e
000003b0: 8988 103e 97b3 dbbd bba3 b73d 7876 9f3d
000003c0: 754f 35bd d976 2d3e e6e3 7e3e 43d8 723e
000003d0: bbea 8d3d 7cbd e93d 429e 493e dcdd 8c3d
000003e0: 8868 1a3e ff8d fa3d 25ca e33e 62a7 da3e
000003f0: 644e 653d fd06 d23d 4e43 253e e3d9 74bd
