models/21-BiLSTM_Loss_0.15430419193649092.pt (torch_old, 191938 bytes, 10 tensors)

lstm.weight_ih_l0 f4 [256, 25]
-0.35181668 -0.14283676 0.38838893 -0.3609332 -0.65144265 0.35506058 0.07575157 0.15847212
-0.07638071 -0.024910934 0.25479007 0.19597155 0.06709129 -0.39610392 0.24309105 0.15090847
-0.38007292 -0.048276145 0.07204744 0.3175515 0.47322226 0.7926948 -0.4068236 -0.022339037
0.3547031 -0.14369228 -0.080537766 0.42796162 0.1253669 -0.5173991 -0.15102035 -0.034256045
0.021235371 0.47657254 -0.47021806 -0.32383057 0.016537987 -0.21029034 -0.80348265 -0.25093582
-0.2947927 -0.6557733 0.20848927 -0.050178554 0.043215804 0.31085843 -0.14002907 0.08908359
0.055229276 -0.39506477 -0.16464692 -0.5416137 0.20895818 0.5661878 -0.11839458 -0.21226688
0.33327937 0.03653212 -0.25963032 -0.32647234 -0.026612895 0.40734917 -0.18788113 -0.4240327
0.49398965 -0.39195704 -0.331636 -0.2580545 0.0027788067 -0.1374278 0.28433084 0.3353574
-0.32892162 -0.11616854 -0.2944194 -0.55400276 0.18381281 0.27304178 0.60577464 -0.28640047
0.058097158 0.67298186 -0.23968129 -0.06284322 0.030891754 -0.6458655 0.5542135 -0.41770846
-0.6861433 -0.30666628 0.38026747 -0.51012206 -0.08404431 0.07471978 -0.40231135 0.92165184
0.21693006 0.0779732 -0.021674845 0.029888583 0.16730644 0.30969045 0.32027394 0.44761556
-0.21118078 -0.06146933 -0.10978469 -0.54756904 -0.5510085 -0.42949674 -0.46276423 0.16042447
-0.4926888 -0.042839706 -0.060874093 -0.09200469 0.089660265 0.20925747 0.5816708 -0.3054488
0.29577786 0.24399275 0.50953597 -0.08364506 -0.12273379 -0.2874437 -0.21738984 0.5574684
0.14629269 -0.25723842 0.11075029 0.100300305 -0.05278837 -0.2029717 -0.00445947 -0.24558651
0.0016372515 -0.20153911 -0.85044825 -0.43882027 0.014153455 -0.20117624 -0.04271259 -0.23628798
-0.004055318 0.40927884 0.21075553 -0.43430623 -0.19833961 0.2447579 -0.19489945 0.32508254
-0.027988715 0.45175165 -0.23804978 -0.63068306 -0.11283858 -0.089024246 0.013321928 -0.40528733
-0.34837893 0.38528293 -0.24707605 -0.18877512 0.4661631 0.2618728 -0.12299859 -0.11023715
0.012607583 0.35699826 0.16407873 -0.07406517 -0.029642127 -0.4477626 -0.5720478 -0.13021527
0.3984677 0.4869858 0.095040165 -0.2740904 -0.039069857 -0.09491901 0.05933802 0.1306921
-0.2443888 0.20076038 0.22130007 -0.021404253 -0.44548985 0.34130567 -0.6619466 -0.4432563
0.24397394 0.30405632 0.2568192 0.55443776 -0.030246243 -0.64961684 -0.3724202 0.13007562
-0.21180937 -0.21921873 -0.06399876 0.2903582 -0.021409303 0.088432595 -0.1026822 0.5029734
0.37885135 -0.2435729 0.6312788 0.20321627 -0.32279643 -0.13552047 -0.19756912 -0.109602325
-0.43787822 0.31343478 -0.23649198 0.0277148 -0.18839617 -0.12684985 0.12609175 -0.20955946
0.0076310695 0.17157617 -0.28082722 -0.12813826 -0.020530831 -0.31917232 0.052399453 0.32492268
-0.1405924 -0.5069479 0.23160255 -0.12674116 0.15097596 -0.19126676 0.17476767 0.088370465
-0.13649426 0.43255636 0.28854808 -0.00011149886 -0.44170493 0.18518919 0.13290988 -0.14563063
0.29519698 -0.21192996 -0.3046486 0.35577464 0.4136893 0.17583753 -0.38304013 -0.29310697
00000000: 5121 b4be cd43 12be eada c63e 3dcc b8be
00000010: f2c4 26bf 80ca b53e a423 9b3d 8446 223e
00000020: 7d6d 9cbd 0412 ccbc d873 823e c4ac 483e
00000030: 2967 893d 22ce cabe dcec 783e c087 1a3e
00000040: eb98 c2be 35bd 45bd 9c8d 933d 1c96 a23e
00000050: 304a f23e 0cee 4a3f 2f4b d0be 5b00 b7bc
00000060: a59b b53e 1224 13be fcf0 a4bd c91d db3e
00000070: 2e60 003e 4474 04bf 14a5 1abe 1150 0cbd
00000080: cdf5 ad3c 5101 f43e 6cc0 f0be 1fcd a5be
00000090: ac7a 873c 5a56 57be 0ab1 4dbf a97a 80be
000000a0: 12ef 96be c2e0 27bf 367e 553e 0788 4dbd
000000b0: 0e03 313d d628 9f3e c863 0fbe 7571 b63d
000000c0: 1838 623d ee45 cabe 3499 28be 32a7 0abf
000000d0: 22f9 553e aff1 103f dc78 f2bd 7d5c 59be
000000e0: 98a3 aa3e b4a2 153d 44ee 84be 6227 a7be
000000f0: 4903 dabc 1290 d03e e963 40be d01a d9be
00000100: 36ec fc3e 98ae c8be 32cc a9be b81f 84be
00000110: a41c 363b e0b9 0cbe d093 913e f7b3 ab3e
00000120: 6a68 a8be c6e9 edbd 24be 96be 20d3 0dbf
00000130: 6d39 3c3e 22cc 8b3e 0c14 1b3f 15a3 92be
00000140: 49f7 6d3d 8a48 2c3f 036f 75be f2b3 80bd
00000150: b410 fd3c 7157 25bf f0e0 0d3f e2dd d5be
00000160: 16a7 2fbf 5d03 9dbe 6bb2 c23e 5c97 02bf
00000170: 6c1f acbd af06 993d c1fb cdbe 60f1 6b3f
00000180: ea22 5e3e 6ab0 9f3d 728f b1bc e7d8 f43c
00000190: 6152 2b3e bf8f 9e3e f2fa a33e de2d e53e
000001a0: c63f 58be 44c7 7bbd ccd6 e0bd 7c2d 0cbf
000001b0: e50e 0dbf ffe6 dbbe 6fef ecbe 5046 243e
000001c0: b541 fcbe b078 2fbd 1d57 79bd f46c bcbd
000001d0: cd9f b73d 9747 563e 61e8 143f c963 9cbe
000001e0: 3270 973e 3cd9 793e f370 023f 1a4e abbd
000001f0: da5b fbbd d22b 93be 719b 5ebe 40b6 0e3f
00000200: c0cd 153e c1b4 83be 0cd1 e23d 3f6a cd3d
00000210: 9e38 58bd d0d7 4fbe bf20 92bb 087b 7bbe
00000220: 0b99 d63a 4560 4ebe fab6 59bf 0dad e0be
00000230: e5e3 673c 2501 4ebe 66f3 2ebd 7af5 71be
00000240: 79e2 84bb ff8c d13e 4cd0 573e 635d debe
00000250: 8a19 4bbe d1a1 7a3e b993 47be 3871 a63e
00000260: 9748 e5bc fe4b e73e 52c3 73be 7274 21bf
00000270: ea17 e7bd 5852 b6bd 3744 5a3c d281 cfbe
00000280: b95e b2be ce43 c53e 8101 7dbe 444e 41be
00000290: eeac ee3e 3114 863e afe6 fbbd 04c4 e1bd
000002a0: 0990 4e3c 7ac8 b63e 4104 283e 7baf 97bd
000002b0: 0cd4 f2bc 2441 e5be ba71 12bf 2757 05be
000002c0: f503 cc3e 3456 f93e 6ba4 c23d 9455 8cbe
000002d0: b707 20bd e664 c2bd 6c0c 733d 26d4 053e
000002e0: 0f41 7abe 2194 4d3e 7c9c 623e f957 afbc
000002f0: 3f17 e4be 9ebf ae3e 5575 29bf 7df2 e2be
00000300: 4ed4 793e 45ad 9b3e ce7d 833e a2ef 0d3f
00000310: f8c6 f7bc 4a4d 26bf dcad bebe 8b32 053e
00000320: 8ee4 58be e07a 60be c811 83bd d4a9 943e
00000330: 9062 afbc 261c b53d 0c4b d2bd ddc2 003f
00000340: cef8 c13e 2d6b 79be 7d9b 213f ed17 503e
00000350: 9345 a5be e1c5 0abe 8f4f 4abe 2f77 e0bd
00000360: 9331 e0be 867a a03e f42a 72be 260a e33c
00000370: edea 40be ede4 01be 321e 013e c196 56be
00000380: 0d0e fa3b aab1 2f3e 96c8 8fbe ad36 03be
00000390: 4630 a8bc 8e6a a3be cfa0 563d 445c a63e
000003a0: 74f7 0fbe 56c7 01bf 3829 6d3e 6fc8 01be
000003b0: 7199 1a3e 6fdb 43be 4cf6 323e 93fb b43d
000003c0: 27c5 0bbe 0778 dd3e 93bc 933e 7fd4 e9b8
000003d0: 2627 e2be 3ca2 3d3e 8719 083e 3220 15be
000003e0: 0f24 973e 2b04 59be e7fa 9bbe 1828 b63e
000003f0: 15cf d33e c10e 343e d61d c4be 1e12 96be

lstm.weight_hh_l0 f4 [256, 64]
-0.032844998 -0.16983739 -0.13008472 -0.179031 0.14718169 0.3117256 -0.032658756 -0.0015329617
-0.055329215 0.052949198 -0.5313425 0.1633491 0.21234627 -0.05807285 -0.026282866 -0.12317461
0.08694852 -0.0868968 -0.11801296 0.07535546 0.23847173 -0.47465405 0.42553917 0.25077242
-0.25271392 -0.031715237 -0.033573452 0.059581082 0.11080089 -0.056016758 -0.17111665 0.24248098
-0.054208063 -0.004237036 0.39679074 0.04130858 -0.039087947 0.214808 -0.023804562 0.16297996
-0.11706957 0.016834948 -0.022672491 -0.02767651 0.18602428 0.07043064 -0.14194411 0.07174037
-0.23907366 -0.003833377 0.049173996 -0.1942145 0.17418085 0.15478438 0.039735857 -0.06747598
-0.018876784 -0.14775375 -0.08268253 0.077767 -0.03996532 -0.15667002 -0.068110295 -0.06410733
-0.0096144695 0.26840407 -0.1761604 -0.054081358 0.19199538 0.0980377 -0.18071826 0.051149454
0.33978018 -0.04463854 -0.3142748 0.21635324 0.42507368 0.11175584 0.38819423 -0.57391703
0.079219654 -0.33165938 0.18714163 -0.112789534 -0.18884943 -0.8109099 0.5549642 -0.08056473
0.08020316 0.3577732 0.21433015 -0.044110965 -0.22736661 -0.0017784864 -0.3029516 0.3228956
0.1710753 -0.2543689 0.1441391 0.0584705 0.33556262 0.10969822 -0.11409007 0.010602325
0.34282753 0.14551342 0.21097346 -0.1927533 -0.43876383 -0.16021398 0.15780069 -0.11969844
0.07764239 -0.26490173 -0.03702609 -0.0082141915 -0.3390254 -0.175535 0.05147797 0.04650194
-0.02768706 0.5760337 0.26169777 -0.3270833 0.20192446 0.10744591 -0.19652873 0.022076312
0.24985053 -0.0375983 0.3610955 0.31358838 -0.3067919 0.008582558 0.27230975 0.33996245
-0.33927593 0.05411185 -0.122340746 -0.49280232 0.049318407 -0.031715263 -0.029827826 0.20704496
-0.053678155 0.2835042 -0.26801962 -0.29169366 0.068814136 0.11296858 -0.24522927 0.36683032
0.033962104 -0.24546762 -0.19602942 0.2070469 0.3049176 -0.21951222 0.23072478 -0.324528
-0.13730767 -0.0126225 -0.03550735 0.0006508777 -0.23296256 -0.26113757 0.12346596 0.21437779
-0.13353261 0.30680302 -0.044244606 0.05310463 0.08176934 0.059762966 0.121112876 -0.1780074
-0.12633803 0.28070754 -0.31690162 0.12309065 0.097829744 -0.030993585 -0.09877116 0.098034546
-0.1168118 -0.025478039 0.19997945 -0.25513017 -0.040964887 0.15563552 0.15853313 -0.10669877
-0.079712406 0.3536511 -0.087607786 0.11219033 0.25068402 -0.024496183 -0.24359477 0.53576
-0.01425295 0.2504583 -0.48590547 0.42419404 -0.2431456 -0.013823432 -0.025915552 -0.2672427
-0.32425255 -0.028641675 -0.010048425 0.100221604 0.31604528 -0.3527276 -0.014018187 -0.11294782
-0.1742649 -0.16863273 -0.117571145 -0.026058802 0.020616023 -0.38102973 -0.1164913 0.34467188
0.13676925 0.08970847 0.022959793 0.03349405 -0.34967855 0.116784304 0.020434652 -0.03141939
0.08121801 0.21101935 0.50028235 -0.14390168 -0.36380678 0.38975385 -0.070110396 -0.31583142
-0.2940208 -0.2078268 -0.005850471 -0.39330858 0.14890619 0.13310991 -0.59165186 -0.05501772
0.1537348 -0.03642711 0.12854317 0.45612183 -0.06243975 0.22594814 -0.038670808 -0.06366751
00000000: 7a88 06bd dae9 2dbe ee34 05be e753 37be
00000010: ccb6 163e 7f9a 9f3e 30c5 05bd a9ed c8ba
00000020: e3a0 62bd 42e1 583d 1006 08bf fd44 273e
00000030: 4d71 593e ccdd 6dbd 2a4f d7bc f842 fcbd
00000040: 1112 b23d f3f6 b1bd c7b0 f1bd f753 9a3d
00000050: ef31 743e db05 f3be 45e0 d93e 3e65 803e
00000060: b863 81be d6e7 01bd 5184 09bd 4b0b 743d
00000070: 94eb e23d d471 65bd 3439 2fbe ef4c 783e
00000080: 4609 5ebd d6d6 8abb 2828 cb3e 3033 293d
00000090: af1a 20bd a1f6 5b3e c901 c3bc 38e4 263e
000000a0: 2cc2 efbd 72e9 893c a9bb b9bc d9b9 e2bc
000000b0: 267d 3e3e f03d 903d cc59 11be 9dec 923d
000000c0: bacf 74be 6539 7bbb ac6a 493d 2ae0 46be
000000d0: 775c 323e cc7f 1e3e 11c2 223d d930 8abd
000000e0: 7ca3 9abc c24c 17be 7555 a9bd 4e44 9f3d
000000f0: adb2 23bd 1b6e 20be 697d 8bbd b44a 83bd
00000100: 0286 1dbc 426c 893e 6463 34be 6a84 5dbd
00000110: 709a 443e fdc7 c83d 350e 39be 1782 513d
00000120: abf7 ad3e e7d6 36bd a0e8 a0be b48b 5d3e
00000130: 42a3 d93e 3fe0 e43d 65c1 c63e 3aec 12bf
00000140: ea3d a23d 42cf a9be 0ea2 3f3e 33fe e6bd
00000150: bf61 41be cb97 4fbf 2212 0e3f 1fff a4bd
00000160: 8e41 a43d 0d2e b73e 5d79 5b3e b3ad 34bd
00000170: cbd2 68be 1a1c e9ba 791c 9bbe 9252 a53e
00000180: 5d2e 2f3e a43c 82be 3399 133e c37e 6f3d
00000190: ddce ab3e 76a9 e03d 0ea8 e9bd 60b5 2d3c
000001a0: 1787 af3e 7801 153e 6d09 583e 1f61 45be
000001b0: a7a5 e0be 220f 24be 8196 213e 7524 f5bd
000001c0: f902 9f3d 33a1 87be aba8 17bd d194 06bc
000001d0: bd94 adbe 72bf 33be 90da 523d d178 3e3d
000001e0: f9cf e2bc f276 133f 40fd 853e 7677 a7be
000001f0: 49c5 4e3e 9a0c dc3d d43e 49be 62d9 b43c
00000200: d1d8 7f3e ad00 1abd 82e1 b83e a88e a03e
00000210: d413 9dbe db9d 0c3c 2f6c 8b3e 8f0f ae3e
00000220: 93b5 adbe 63a4 5d3d c98d fabd 9650 fcbe
00000230: 1902 4a3d dde7 01bd 7c59 f4bc 9803 543e
00000240: a0dd 5bbd 7627 913e de39 89be df58 95be
00000250: 6dee 8c3d 125c e73d 621d 7bbe 2fd1 bb3e
00000260: d91b 0b3d dd5b 7bbe f0bb 48be 1a04 543e
00000270: 291e 9c3e d0c7 60be 1e43 6c3e 8928 a6be
00000280: 629a 0cbe 9ace 4ebc 2870 11bd aa9f 2a3a
00000290: bd8d 6ebe d3b3 85be b9db fc3d da85 5b3e
000002a0: c6bc 08be 4915 9d3e d539 35bd 3e84 593d
000002b0: af76 a73d 03ca 743d 070a f83d 9247 36be
000002c0: c25e 01be e6b8 8f3e ee40 a2be f316 fc3d
000002d0: f65a c83d 42e6 fdbc 8948 cabd 56c6 c83d
000002e0: 063b efbd 52b7 d0bc 6ac7 4c3e 6ca0 82be
000002f0: ccca 27bd eb5e 1f3e 8256 223e e284 dabd
00000300: 4240 a3bd c211 b53e b66b b3bd 0bc4 e53d
00000310: a859 803e 38ac c8bc e870 79be 9127 093f
00000320: 3585 69bc 123c 803e 9ac8 f8be f62f d93e
00000330: 29fb 78be ad7b 62bc da4c d4bc 09d4 88be
00000340: 6e04 a6be f2a1 eabc 26a2 24bc fc40 cd3d
00000350: b0d0 a13e b698 b4be 8aac 65bc 3051 e7bd
00000360: 7f72 32be 0fae 2cbe 24c9 f0bd 4579 d5bc
00000370: efe2 a83c 5416 c3be fe92 eebd d578 b03e
00000380: 3d0d 0c3e 13b9 b73d 2d16 bc3c 0f31 093d
00000390: 1109 b3be 9c2c ef3d 9266 a73c 9eb1 00bd
000003a0: a155 a63d 7515 583e 8112 003f f65a 13be
000003b0: e244 babe d18d c73e 0a96 8fbd a8b4 a1be
000003c0: e589 96be 8cd0 54be 4fb5 bfbb be5f c9be
000003d0: dd7a 183e f74d 083e 7f76 17bf 435a 61bd
000003e0: a86c 1d3e 9834 15bd d2a0 033e cd88 e93e
000003f0: d3c0 7fbd f35e 673e 4865 1ebd 1d64 82bd

lstm.bias_ih_l0 f4 [256]
0.31985357 0.41607943 0.13470063 0.1730009 0.36203176 0.12463156 0.37501675 0.22288881
0.1843495 0.09427142 0.15200888 0.15472348 -0.10639814 0.3125274 0.26497927 0.19636132
0.31111065 0.021466253 0.34681427 0.13149655 0.2993295 -0.15953538 -0.13434039 0.15141411
0.3106389 0.25783086 0.19822079 0.19744657 0.17536503 0.3738177 0.30148712 -0.05517355
0.20754676 0.084416926 0.06607043 0.16769329 0.53574836 0.4096826 0.31387508 0.21885528
0.0537761 0.28746495 0.13707238 0.09942572 0.12174056 0.3978897 0.35800374 0.15157872
0.20833278 0.18833326 0.25178123 0.39683822 -0.29155418 0.070496775 0.25870687 0.16509531
0.50649613 -0.1300792 0.0938985 0.0529342 0.15524621 0.30816296 0.38231978 0.41233608
0.15446977 0.17297643 -0.02368881 0.3223977 0.17082553 0.14211185 0.19620883 0.26768917
0.014473517 0.182473 0.10443727 0.15488309 -0.024712492 -0.03827807 -0.07252509 0.08849336
-0.029016305 0.12550116 0.04401352 -0.10936944 0.009471201 0.05069546 -0.051239625 0.1741062
0.09504311 0.08948407 0.01714318 -0.11705268 0.022455461 0.106251866 0.12609829 -0.09430946
-0.08446489 -0.02838715 0.008998502 0.12701398 -0.050070457 0.060812566 0.1643388 -0.0890904
-0.08264842 -0.04563417 0.03835151 0.33025244 0.01850613 0.018963521 0.1865517 0.079315305
-0.053830296 0.048433725 0.060787093 0.061954025 0.07768178 0.22337687 0.1253166 0.10329081
0.02368649 -0.005984678 -0.12895048 0.2450271 0.08021615 -0.0046493723 0.19465464 0.09539229
0.30612314 0.055426393 -0.087553315 0.28967434 -0.06602409 0.025829276 0.2243499 -0.08282721
-0.08154483 -0.039257087 -0.10571406 -0.020153526 -0.09929721 0.02626276 -0.021878826 0.040159024
0.13487078 0.037174113 -0.15355217 -0.011427756 0.19201322 0.34339368 -0.16451773 0.06892505
0.21259974 -0.004370662 -0.1863067 -0.096706584 0.03467662 -0.16380215 0.15006255 -0.15080291
-0.101507924 0.11248056 -0.27604833 -0.12181109 -0.071284994 -0.3611144 0.107914746 0.15678158
0.07109122 0.1285823 0.17694144 0.007146975 0.08546335 0.05574283 0.13914283 -0.11392768
-0.14895703 0.014575282 -0.25645453 -0.062193714 -0.06685112 -0.030076392 0.027543185 0.10854511
0.03890508 -0.24039276 -0.0368599 -0.022880115 -0.03740297 -0.112441525 0.3698582 -0.21944828
0.35351083 0.07191808 0.1462702 0.097969815 0.14630535 0.13727471 0.25128722 0.2739341
0.2416288 0.1944609 0.21840805 0.036032837 -0.19241254 0.3899651 0.027195951 -0.0049664397
0.082962885 0.10017278 0.117131 0.33644724 0.3651772 -0.16218682 -0.25429744 0.1542216
0.35817507 0.28439304 0.15821093 0.12824495 0.05592525 0.2622244 0.044094376 0.1824101
0.06787044 0.16980846 -0.12654649 0.23937464 0.6056835 0.23235703 0.43157864 0.3153757
-0.027228097 0.124490686 0.3392245 0.35579365 0.15907204 0.263631 0.28306374 0.2093171
0.32919884 0.2371424 0.2147207 0.31972408 -0.3144588 0.13445039 0.020776544 0.49276072
0.44751903 -0.16617493 -0.058015537 0.35848126 0.27116716 0.1402621 0.16864279 0.2206663
00000000: d9c3 a33e 5d08 d53e f6ee 093e 2627 313e
00000010: 3a5c b93e d53e ff3d 3202 c03e f73c 643e
00000020: 1ec6 3c3e 6011 c13d 37a8 1b3e d56f 1e3e
00000030: 45e7 d9bd 9703 a03e 5dab 873e f112 493e
00000040: e549 9f3e ffd9 af3c a491 b13e 08a7 063e
00000050: b741 993e 3e5d 23be 8790 09be 4d0c 1b3e
00000060: 100c 9f3e 6802 843e 64fa 4a3e 6f2f 4a3e
00000070: e492 333e 0965 bf3e 855c 9a3e a9fd 61bd
00000080: 2387 543e c8e2 ac3d ef4f 873d cab7 2b3e
00000090: ce26 093f ebc1 d13e 3cb4 a03e 991b 603e
000000a0: 5444 5c3d 9b2e 933e b45c 0c3e b69f cb3d
000000b0: 1d53 f93d 33b8 cb3e 444c b73e 7437 1b3e
000000c0: 3055 553e 6fda 403e 78e9 803e 612e cb3e
000000d0: 9746 95be 9d60 903d 3a75 843e bf0e 293e
000000e0: bba9 013f 7b33 05be db4d c03d 88d1 583d
000000f0: ddf8 1e3e 89c7 9d3e 6bbf c33e b71d d33e
00000100: 532d 1e3e bc20 313e 090f c2bc 5011 a53e
00000110: e3ec 2e3e c585 113e f8ea 483e 8e0e 893e
00000120: 5522 6d3c 34da 3a3e 35e3 d53d ac99 1e3e
00000130: da71 cabc 77c9 1cbd 0988 94bd 023c b53d
00000140: 9ab3 edbc 6083 003e 8547 343d 16fd dfbd
00000150: 192d 1b3c 0ba6 4f3d a4e0 51bd e548 323e
00000160: f6a5 c23d 6d43 b73d db6f 8c3c 51b9 efbd
00000170: 84f4 b73c 949a d93d e91f 013e 5125 c1bd
00000180: eefb acbd 2b8c e8bc 746e 133c f40f 023e
00000190: ae16 4dbd 9916 793d 6e48 283e 0775 b6bd
000001a0: 9343 a9bd e5ea 3abd 7916 1d3d d916 a93e
000001b0: 2b9a 973c 6359 9b3c 6907 3f3e 1070 a23d
000001c0: 287d 5cbd 7162 463d e3fb 783d 81c3 7d3d
000001d0: a017 9f3d e8bc 643e ff52 003e 228a d33d
000001e0: 2b0a c23c 1e1b c4bb 980b 04be 62e8 7a3e
000001f0: 5d48 a43d c359 98bb 8c53 473e 085d c33d
00000200: 2cbc 9c3e c906 633d 274f b3bd 3250 943e
00000210: a337 87bd eb97 d33c fbbb 653e 50a1 a9bd
00000220: fa00 a7bd 0acc 20bd 9d80 d8bd 0219 a5bc
00000230: 565c cbbd 0025 d73c 393b b3bc ca7d 243d
00000240: 911b 0a3e e243 183d c83c 1dbe 7c3b 3bbc
00000250: 1d9f 443e 4cd1 af3e 5677 28be 9428 8d3d
00000260: bfb3 593e c537 8fbb 2fc7 3ebe 1a0e c6bd
00000270: 1209 0e3d c0bb 27be ffa9 193e 146c 1abe
00000280: 63e3 cfbd 355c e63d 3556 8dbe 1878 f9bd
00000290: defd 91bd fde3 b8be 6802 dd3d 5a8b 203e
000002a0: 4698 913d 14ab 033e 2330 353e 2c31 ea3b
000002b0: 6907 af3d 9852 643d 757b 0e3e ea52 e9bd
000002c0: 3188 18be 2acd 6e3c 024e 83be d6be 7ebd
000002d0: 3de9 88bd c462 f6bc 3fa2 e13c e64c de3d
000002e0: ef5a 1f3d 8529 76be 68fa 16bd 146f bbbc
000002f0: db33 19bd be47 e6bd 0e5e bd3e 0db7 60be
00000300: 5fff b43e c949 933d dbc7 153e 66a4 c83d
00000310: 12d1 153e be91 0c3e b8a8 803e 1741 8c3e
00000320: 8a6d 773e c220 473e 5ca6 5f3e 2b97 133d
00000330: cb07 45be 81a9 c73e 0bca de3c 84bd a2bb
00000340: 72e8 a93d 6327 cd3d 61e2 ef3d d042 ac3e
00000350: 82f8 ba3e 4d14 26be 4633 82be 44ec 1d3e
00000360: b962 b73e f79b 913e 0c02 223e a552 033e
00000370: e011 653d 4742 863e 4e9c 343d b7c9 3a3e
00000380: a8ff 8a3d 45e2 2d3e 6795 01be a01e 753e
00000390: 130e 1b3f 00ef 6d3e e0f7 dc3e ec78 a13e
000003a0: 750d dfbc f9f4 fe3d d5ae ad3e 962a b63e
000003b0: c8e3 223e a4fa 863e bbed 903e 3957 563e
000003c0: c08c a83e 75d5 723e bedf 5b3e e0b2 a33e
000003d0: be00 a1be 5dad 093e 9233 aa3c 224b fc3e
000003e0: 3721 e53e c329 2abe b3a1 6dbd db8a b73e
000003f0: 6cd6 8a3e dea0 0f3e b2b0 2c3e 59f6 613e

lstm.bias_hh_l0 f4 [256]
0.3751016 0.38184217 0.25057793 0.15889943 0.31387377 0.2708353 0.37290585 0.1963289
0.13035086 0.0073967916 0.06842706 0.1999798 -0.01792495 0.16672504 0.2687932 0.26653436
0.20852342 0.17820907 0.35685194 0.30673295 0.30843028 -0.10833802 -0.15517463 0.16086175
0.31864184 0.24630491 0.16076878 0.16429685 0.1338535 0.19164142 0.23536783 0.044500615
0.22590636 0.31420788 0.0027059002 0.08954105 0.5418637 0.38616547 0.47115266 0.42471218
-0.08229499 0.15675695 0.32881692 0.13860452 0.13624643 0.25907457 0.5865461 0.31084734
0.12389952 0.049292784 0.23039053 0.51081806 -0.16300488 0.04621928 0.2017853 0.267782
0.49496222 -0.094101526 0.083985575 0.21398301 0.26131156 0.3121191 0.4142975 0.37654158
0.12728633 0.16170856 0.08506478 0.14020565 0.103161864 0.24007483 0.076239735 0.14743043
0.042170063 0.14780748 -0.0155976005 0.067650005 0.0024316858 -0.015088011 -0.08881221 0.10590184
0.1411265 0.02409567 -0.02212338 0.10793811 0.12554567 -0.070217066 0.07338357 0.05534666
-0.06464575 0.027815372 0.049158514 -0.021174463 0.14774562 0.18698005 0.1734561 -0.026476627
0.1079797 -0.107910186 -0.08354868 -0.014425857 0.03128476 0.078985825 0.04606374 -0.10128679
-0.09800912 -0.03226248 -0.13382407 0.37721762 0.19763412 -0.06827054 0.13670601 0.04774247
0.071859755 -0.0063163857 0.015520813 0.01636125 0.005493585 0.2532473 0.054836396 0.002466218
0.07452203 0.053851154 0.008195172 0.13912871 0.124306716 -0.021690806 0.26586553 0.07767065
0.19302696 0.06999663 0.008625284 0.3010823 -0.21037798 0.004049855 0.13029353 0.11429341
-0.1960256 -0.026701795 -0.10264174 -0.21257849 -0.0811435 -0.004525965 0.0707468 0.027206412
-0.01735583 0.05923634 -0.07570623 -0.1233418 0.16300629 0.3805549 -0.17807338 -0.06553231
0.29046667 0.01823592 0.046671696 -0.17003492 0.08156959 -0.07451133 0.29300502 -0.0663168
-0.14782189 0.0018646871 -0.14544465 -0.033605732 -0.0233037 -0.34082475 0.027693959 0.06675821
0.24745652 0.04432 -0.01255607 0.11716045 0.1966628 0.27714798 0.15611027 -0.16314127
-0.103672236 0.075507715 -0.25714636 -0.028493516 0.1370469 -0.120800324 -0.05836842 0.04268082
-0.007044418 -0.2382807 0.010264416 0.032641742 -0.116403 -0.1026382 0.30379438 -0.27660915
0.23690142 0.07176525 0.30312115 -0.0041674348 0.30580366 0.27846932 0.1274764 0.370827
0.08944667 0.049847454 0.21100497 -0.08958312 -0.056891773 0.34101108 0.22245626 0.09721069
0.03673956 0.25429028 0.14091551 0.22085255 0.37362045 -0.12581122 -0.07609732 0.078541584
0.16588782 0.2714943 0.3119018 0.08249613 0.28693512 0.25150502 0.09026333 0.032848537
0.08716823 0.16676362 -0.035326205 0.2969809 0.643488 0.063701674 0.33978134 0.32873333
-0.027263096 0.21530421 0.5208838 0.24589154 0.09354151 0.3142603 0.52142006 0.28892758
0.30056655 0.17629094 0.19908378 0.33684307 -0.12716925 0.18496512 0.08982382 0.5284929
0.42067847 -0.21085633 0.015376817 0.36013517 0.20685196 0.010297251 0.36261782 0.21990727
00000000: 510d c03e d180 c33e c04b 803e 88b6 223e
00000010: 10b4 a03e edaa 8a3e 84ed be3e 710a 493e
00000020: b27a 053e c960 f23b 7d23 8c3d 81c7 4c3e
00000030: 58d7 92bc f8b9 2a3e 439f 893e 3177 883e
00000040: 2a87 553e 707c 363e 4cb5 b63e 1a0c 9d3e
00000050: 93ea 9d3e 53e0 ddbd 19e6 1ebe f1b8 243e
00000060: 0625 a33e 5b37 7c3e 92a0 243e 6f3d 283e
00000070: e410 093e a63d 443e 4404 713e 4746 363d
00000080: ff53 673e dbdf a03e 7955 313b 4c61 b73d
00000090: 94b7 0a3f 7bb7 c53e ec3a f13e e073 d93e
000000a0: 478a a8bd e584 203e b15a a83e 58ee 0d3e
000000b0: 2f84 0b3e 6ca5 843e e327 163f 6227 9f3e
000000c0: 08bf fd3d 3be7 493d 7feb 6b3e f9c4 023f
000000d0: c0ea 26be 6e50 3d3d cea0 4e3e b91a 893e
000000e0: b06b fd3e 4db8 c0bd a100 ac3d 5d1e 5b3e
000000f0: a1ca 853e 13ce 9f3e cd1e d43e 0fca c03e
00000100: 5957 023e ee96 253e 7236 ae3d 1292 0f3e
00000110: 8746 d33d 2dd6 753e 9423 9c3d 01f8 163e
00000120: 84ba 2c3d d85a 173e 148d 7fbc 168c 8a3d
00000130: eb5c 1f3b b433 77bc 2de3 b5bd 10e3 d83d
00000140: 7783 103e 4864 c53c 173c b5bc a80e dd3d
00000150: 0b8f 003e f7cd 8fbd 204a 963d 2eb3 623d
00000160: fe64 84bd 10dd e33c 705a 493d 1176 adbc
00000170: a14a 173e b377 3f3e 7a9e 313e 83e5 d8bc
00000180: 7624 dd3d 0400 ddbd 921b abbd 6e5a 6cbc
00000190: 7324 003d 52c3 a13d 55ad 3c3d 736f cfbd
000001a0: 01b9 c8bd aa25 04bd 2d09 09be ab22 c13e
000001b0: 9960 4a3e 6dd1 8bbd a9fc 0b3e 9c8d 433d
000001c0: 352b 933d aff9 cebb 024b 7e3c 0708 863c
000001d0: 8803 b43b a1a9 813e 219c 603d 46a0 213b
000001e0: 029f 983d 0793 5c3d 0b45 063c c277 0e3e
000001f0: 8594 fe3d ebb0 b1bc 871f 883e ca11 9f3d
00000200: dca8 453e 655a 8f3d 1051 0d3c 7627 9a3e
00000210: 536d 57be a5b4 843b ab6b 053e aa12 ea3d
00000220: efba 48be b9bd dabc d535 d2bd 2dae 59be
00000230: 902e a6bd 8c4e 94bb b3e3 903d fbdf de3c
00000240: d02d 8ebc cea1 723d de0b 9bbd a09a fcbd
00000250: 1feb 263e 18d8 c23e de58 36be ce35 86bd
00000260: 0cb8 943e 7f63 953c d22a 3f3d a21d 2ebe
00000270: f50d a73d 6599 98bd c104 963e 1ad1 87bd
00000280: 9f5e 17be 8468 f43a 71ef 14be 2aa6 09bd
00000290: 67e7 bebc 9580 aebe 71de e23c 87b8 883d
000002a0: 3e65 7d3e e388 353d fab7 4dbc d1f1 ef3d
000002b0: f961 493e 57e6 8d3e 5fdb 1f3e 810e 27be
000002c0: 1c52 d4bd caa3 9a3d b0a8 83be 3c6b e9bc
000002d0: 0656 0c3e 2966 f7bd b913 6fbd 15d2 2e3d
000002e0: dcd4 e6bb dbff 73be 152c 283c 59b3 053d
000002f0: b264 eebd fa33 d2bd f08a 9b3e b79f 8dbe
00000300: 4996 723e a9f9 923d b232 9b3e fa8e 88bb
00000310: 4c92 9c3e 8893 8e3e 2c89 023e 09dd bd3e
00000320: d12f b73d d82c 4c3d b011 583e 5b77 b7bd
00000330: 5907 69bd 0199 ae3e 93cb 633e 6616 c73d
00000340: 397c 163d 5632 823e 284c 103e 2c27 623e
00000350: 2e4b bf3e a8d4 00be e9d8 9bbd 69da a03d
00000360: 7fde 293e 4d01 8b3e 98b1 9f3e bbf3 a83d
00000370: 29e9 923e 44c5 803e fbdb b83d 308c 063d
00000380: 4285 b23d 15c4 2a3e 36b2 10bd e10d 983e
00000390: a1bb 243f 0676 823d d2f7 ad3e bc4f a83e
000003a0: db56 dfbc b578 5c3e a458 053f feca 7b3e
000003b0: b192 bf3d bae6 a03e c97b 053f 51ee 933e
000003c0: dce3 993e 9d85 343e 9edc 4b3e b276 ac3e
000003d0: a838 02be 7f67 3d3e 8df5 b73d 504b 073f
000003e0: 2b63 d73e b9ea 57be 0cef 7b3c a363 b83e
000003f0: 00d1 533e cdb5 283c 0ba9 b93e 5f2f 613e

lstm.weight_ih_l0_reverse f4 [256, 25]
-0.09466418 0.2491811 -0.26965597 0.5683251 -0.9190906 -0.24862438 0.3571855 0.12857974
-0.2995097 0.517755 -0.53326577 0.8269912 -0.12732366 -0.08432592 -0.417519 -0.37970737
0.19918944 -0.9080404 -0.041689575 0.31966472 0.12399531 0.56459737 -0.7101986 -0.35123265
-0.70939994 -0.06643049 -0.22193675 -0.19407308 0.20484048 0.11567071 -0.31321377 0.15592594
-0.07504208 -0.538363 0.1529652 0.1041997 -0.12327863 -0.5615134 0.31441823 -0.15340935
0.4193488 0.7093182 -0.08789552 -0.17695245 -0.13096514 -0.34224653 -0.121725515 0.09625391
-0.25467315 0.0830194 0.022944162 0.20357254 0.09774337 -0.0053381813 -0.28323942 0.29818946
0.85812 -0.01109662 -0.44171545 0.2711037 -0.7245647 0.26146638 -0.61396855 0.16936561
-0.71299505 -0.31108138 0.11878442 0.08196445 -0.5345654 -0.76563656 -0.079155274 -0.06924658
0.17832747 0.594068 -0.25251016 0.15461284 -0.6347826 0.13657257 0.3580423 0.004281464
0.4181295 0.6210033 0.3436866 -0.12850763 0.13981727 -0.60214436 -0.025943538 -0.069232404
-0.62281775 -0.42792022 0.6755093 0.29698098 -0.1786836 0.099208206 0.6141111 0.3611366
0.41605344 -0.038827926 0.45503104 0.09343537 -0.18720907 -0.28551832 0.22834666 0.46698976
-0.6437753 0.03294348 -0.11782616 -0.2781079 -0.14125124 -0.3838415 -0.019604139 0.08962148
-0.06473354 -0.44297808 -0.07330048 -0.008419738 0.2284957 0.21637103 0.23707043 0.19077079
0.22915167 0.33605495 -0.057320774 0.0041369074 -0.3753347 -0.09009253 0.2633158 0.28127235
0.034722466 0.20838013 -0.12793645 -0.15562634 -0.122570425 0.22581328 -0.17075299 0.36045516
0.032121312 -0.057002068 0.037971154 -0.03669855 0.005388797 0.11936719 -0.12844867 -0.060605526
0.4496616 0.1803339 -0.46357688 -0.1855367 -0.298666 -0.14830546 0.11542172 -0.45853475
0.10204727 -0.18735248 -0.44580358 0.011000265 0.4804518 0.7272571 -0.22662476 0.02302053
0.4356536 -0.24354225 -0.21292646 -0.78825176 0.20989676 0.08103624 -0.07368776 0.21540105
-0.4125425 0.09279495 0.589737 0.58434814 -0.266356 0.24697487 0.17046106 0.15296496
-0.195795 0.120738484 -0.3666803 -0.67149216 0.24765371 0.3631275 0.44687435 -0.42151842
-0.29478016 0.07870069 -0.16201088 -0.32723218 0.023490788 0.7978212 -0.27867362 -0.46244308
0.25356174 -0.2804256 -0.28327075 0.10425248 -0.25250858 -0.1123583 0.19341429 0.2900459
0.27461055 -0.16727269 0.22108062 -0.23222645 -0.47651875 -0.16821831 0.14839365 -0.15254407
-0.48170206 -0.1579144 0.1799056 0.16317914 -0.0016173455 -0.08811989 -0.3202653 0.24998714
-0.1517053 -0.43581012 -0.010914694 -0.050957605 -0.48623383 0.10497481 0.27210242 -0.011533499
0.19152997 -0.21778724 0.06385288 -0.40984485 0.21989998 -0.4742006 0.29788312 -0.024601992
0.22820997 0.29222253 0.16234535 -0.40215605 0.25648174 -0.5559481 -0.041208122 0.6075388
-0.49714866 -0.23335986 -0.20351589 -0.14209601 -0.04963239 0.5775524 0.17503124 -0.41723675
0.33075383 -0.42036235 0.6450166 0.50377095 -0.3004041 -0.13400374 -0.7506447 0.18075427
00000000: 4bdf c1bd 5529 7f3e 5910 8abe c17d 113f
00000010: 8649 6bbf 6497 7ebe 05e1 b63e 68aa 033e
00000020: 5659 99be 978b 043f 1b84 08bf b2b5 533f
00000030: 2261 02be 11b3 acbd 0dc5 d5be 0169 c2be
00000040: 51f8 4b3e 5675 68bf b0c2 2abd 18ab a33e
00000050: 41f1 fd3d 7489 103f 93cf 35bf c4d4 b3be
00000060: 3c9b 35bf b50c 88bd 6343 63be 18bb 46be
00000070: b4c1 513e c4e4 ec3d 8e5d a0be 0dab 1f3e
00000080: a9af 99bd 28d2 09bf e9a2 1c3e a766 d53d
00000090: 8279 fcbd 58bf 0fbf 6dfb a03e 5717 1dbe
000000a0: e3b4 d63e e195 353f 9102 b4bd 0633 35be
000000b0: ba1b 06be f03a afbe 3a4b f9bd c520 c53d
000000c0: 8564 82be 1306 aa3d 65f5 bb3c 5275 503e
000000d0: ad2d c83d e9eb aebb c204 91be 4aac 983e
000000e0: c1ad 5b3f 99ce 35bc 8728 e2be 1bce 8a3e
000000f0: 127d 39bf ecde 853e 0b2d 1dbf 2e6e 2d3e
00000100: d886 36bf 0f46 9fbe 3f45 f33d fadc a73d
00000110: 47d9 08bf c200 44bf 291c a2bd 27d1 8dbd
00000120: 7a9b 363e d714 183f 0349 81be d452 1e3e
00000130: 1d81 22bf aed9 0b3e 5251 b73e 864b 8c3b
00000140: 1215 d63e 13fa 1e3f b1f7 af3e 8197 03be
00000150: 422c 0f3e 2226 1abf 8b87 d4bc b8c9 8dbd
00000160: fc70 1fbf 5c18 dbbe 2dee 2c3f e40d 983e
00000170: d5f8 36be ac2d cb3d 6336 1d3f e5e6 b83e
00000180: f504 d53e 080a 1fbd d4f9 e83e 0b5b bf3d
00000190: bcb3 3fbe 752f 92be b5d3 693e 4819 ef3e
000001a0: 75ce 24bf beef 063d d74e f1bd 2964 8ebe
000001b0: 2aa4 10be e086 c4be dc98 a0bc 778b b73d
000001c0: 0593 84bd 06ce e2be 901e 96bd f1f2 09bc
000001d0: c7fa 693e 5e90 5d3e 97c2 723e 6b59 433e
000001e0: bca6 6a3e 650f ac3e 30c9 6abd e58e 873b
000001f0: df2b c0be 6f82 b8bd 54d1 863e ee02 903e
00000200: 2539 0e3d 9a61 553e c601 03be 835c 1fbe
00000210: 3406 fbbd 993b 673e dfd9 2ebe 948d b83e
00000220: a391 033d 007b 69bd a487 1b3d 3851 16bd
00000230: 8194 b03b c976 f43d 0c88 03be 803d 78bd
00000240: 0c3a e63e 73a9 383e f359 edbe 55fd 3dbe
00000250: c0ea 98be 63dd 17be 3962 ec3d 11c5 eabe
00000260: 29fe d03d 54d9 3fbe 5e40 e4be 753a 343c
00000270: c7fd f53e 852d 3a3f 5210 68be 8d95 bc3c
00000280: fd0d df3e 2463 79be 6509 5abe deca 49bf
00000290: 2def 563e 54f6 a53d 9ce9 96bd 1892 5c3e
000002a0: c538 d3be 470b be3d 01f9 163f d797 153f
000002b0: d05f 88be fbe6 7c3e 588d 2e3e d9a2 1c3e
000002c0: 7c7e 48be bd45 f73d 85bd bbbe e9e6 2bbf
000002d0: ef98 7d3e d9eb b93e b7cc e43e 43d1 d7be
000002e0: 6ded 96be d42d a13d 2ee6 25be fa8a a7be
000002f0: c16f c03c 033e 4c3f 4fae 8ebe 57c5 ecbe
00000300: d8d2 813e f293 8fbe dd08 91be 5382 d53d
00000310: ce48 81be 1c1c e6bd 650e 463e e580 943e
00000320: c199 8c3e 8849 2bbe f562 623e c5cc 6dbe
00000330: 44fa f3be 6c41 2cbe 81f4 173e 8334 1cbe
00000340: a7a1 f6be 50b4 21be 2c39 383e 6f18 273e
00000350: 1cfd d3ba 3378 b4bd d0f9 a3be a1fc 7f3e
00000360: a258 1bbe 8122 dfbe 8bd3 32bc ecb8 50bd
00000370: a4f3 f8be 08fd d63d 0251 8b3e 00f7 3cbc
00000380: 6f20 443e 9e03 5fbe 4cc5 823d 2fd7 d1be
00000390: 762d 613e 6cca f2be 2384 983e 1e8a c9bc
000003a0: e0af 693e 319e 953e dc3d 263e 66e7 cdbe
000003b0: 9351 833e 9d52 0ebf d9c9 28bd aa87 1b3f
000003c0: 458a febe e3f5 6ebe 7866 50be 9e81 11be
000003d0: 554b 4bbd 79da 133f 643b 333e 0ea0 d5be
000003e0: 9158 a93e bc39 d7be cf1f 253f 22f7 003f
000003f0: 91ce 99be 4738 09be 402a 40bf a617 393e

lstm.weight_hh_l0_reverse f4 [256, 64]
0.41986984 0.6127413 0.12337626 0.13332708 -0.06395019 -0.092083655 0.372958 -0.01733035
0.093745194 0.038496554 -0.100107186 0.016187245 0.2181904 0.34354994 -0.03909394 0.04187432
0.08140516 0.18276137 0.053354003 -0.06690944 -0.1865584 0.29454032 0.0020498035 -0.104566574
-0.25972673 0.16989943 -0.28349087 0.00401281 -0.48488432 0.19106816 0.0596261 -0.059152793
0.18152113 0.11734472 0.111947976 -0.06307415 0.009144555 0.10204875 0.10116192 -0.14587857
-0.17922667 -0.034660388 -0.20931931 0.010187024 -0.37085876 -0.12206515 -0.05124426 -0.12048884
-0.050713774 -0.122409 0.093586735 -0.22258373 0.13682191 -0.12466697 0.11096105 -0.15647213
-0.23550428 -0.5515186 -0.06916613 0.033080004 -0.15278849 -0.087052554 -0.025233172 0.1242775
0.32668424 0.070850216 -0.0395976 0.027219836 0.34926933 0.022471158 0.08919438 0.066872925
0.2067688 0.01995053 0.14385149 0.017565418 0.009530181 -0.042152453 0.009002082 -0.08829325
0.050135445 0.71780634 -0.0033213878 0.06599738 -0.12514314 -0.114428364 -0.07262353 -0.057302523
-0.20515929 0.18610497 0.15413012 0.09434219 -0.5075559 -0.072417974 0.059121925 0.21248125
0.20592327 -0.16613472 0.3594681 0.30498996 -0.11245887 0.08073076 0.10669366 -0.18348491
-0.12486341 -0.1344215 0.26710945 0.098702684 -0.3064892 0.073695585 -0.13257997 -0.6168157
-0.0872661 0.008887454 -0.002930077 0.11502942 0.07398718 -0.16188355 0.036572322 0.072886325
0.21691278 -0.45859522 0.25117192 -0.14121771 -0.20870608 -0.20299372 -0.3573891 0.2021615
-0.19010629 0.2210231 0.10935688 0.11924036 -0.057823062 0.26011413 -0.007674255 0.18660949
-0.41041338 -0.1123418 0.0026261453 0.2621943 0.2083282 -0.04592946 0.100398496 0.02983846
0.17737865 -0.16732164 0.05771763 -0.14140911 0.09505771 0.12425733 0.07825943 -0.014927445
0.3451274 -0.2225505 -0.108221285 -0.006445546 0.5538891 0.037840527 0.22773099 -0.1932667
-0.0125754075 -0.029214745 -0.056562085 0.08468511 0.11025306 -0.11791524 0.09274569 0.22630422
-0.05331695 -0.1007633 -0.1705017 0.036929328 0.17697272 0.10234521 -0.034163818 0.41822675
-0.10237072 -0.073318474 -0.059749205 0.03693241 -0.095208295 0.0066088336 0.017001638 0.008741745
-0.28354096 0.14419451 -0.1301204 -0.0056910496 0.4451537 -0.13402763 -0.09435453 -0.06279826
-0.054524787 0.42863765 -0.10490775 0.044088762 0.3161957 0.025460357 0.45692754 0.16265474
0.11345186 0.0026004978 0.20273702 -0.021590246 0.063893825 -0.04303227 0.06991529 0.01708603
0.19759685 -0.21320689 0.031826362 -0.11953241 -0.103312455 0.17405102 0.18415362 -0.052056216
-0.009348507 -0.18366063 0.29654178 -0.06486145 0.1414364 0.15209402 0.055699244 0.058795348
-0.06259201 0.18697642 -0.13698651 -0.1739725 -0.12843256 -0.0070698066 0.08577343 -0.032663573
0.044649087 0.026076736 -0.14965105 -0.31986362 -0.0579599 -0.1611852 0.025965951 0.45556146
0.09293374 -0.28116402 -0.012814894 -0.0689686 0.14860032 -0.038634565 -0.083598025 0.15559714
-0.03321192 0.014506758 0.18033412 -0.23621544 -0.2606647 -0.11241728 0.10158786 -0.39358178
00000000: 2ef9 d63e 9ddc 1c3f b1ac fc3d e586 083e
00000010: 51f8 82bd 5b96 bcbd 5af4 be3e 61f8 8dbc
00000020: 7bfd bf3d 90ae 1d3d ff04 cdbd 1d9b 843c
00000030: 4e6d 5f3e c7e5 af3e f820 20bd 6884 2b3d
00000040: c0b7 a63d cc25 3b3e ba89 5a3d d107 89bd
00000050: 2a09 3fbe fdcd 963e ff55 063b 0027 d6bd
00000060: e7fa 84be 1efa 2d3e b725 91be e47d 833b
00000070: c242 f8be 5fa7 433e 7f3a 743d 334a 72bd
00000080: ade0 393e 6e52 f03d fb44 e53d 052d 81bd
00000090: 0bd3 153c effe d03d fb2d cf3d 3161 15be
000000a0: 3287 37be 0df8 0dbd cd57 56be 7ae7 263c
000000b0: 33e1 bdbe 4bfd f9bd 80e5 51bd dac2 f6bd
000000c0: 3fb9 4fbd 92b1 fabd 67aa bf3d fdec 63be
000000d0: 0b1b 0c3e 6551 ffbd 8c3f e33d 3b3a 20be
000000e0: 0928 71be 5330 0dbf f9a6 8dbd e67e 073d
000000f0: 9674 1cbe 9c48 b2bd ccb5 cebc 3485 fe3d
00000100: 2843 a73e eb19 913d 1831 22bd 22fc de3c
00000110: 6ed3 b23e 6f15 b83c 8bab b63d acf4 883d
00000120: 33bb 533e 4b6f a33c ce4d 133e 5ae5 8f3c
00000130: 7a24 1c3c 0da8 2cbd 787d 133c 17d3 b4bd
00000140: d35a 4d3d 28c2 373f a4ab 59bb a229 873d
00000150: 8625 00be 6b59 eabd a5bb 94bd 0db6 6abd
00000160: 4715 52be 4d92 3e3e 49d4 1d3e 7a36 c13d
00000170: 2fef 01bf e04f 94bd d529 723d af94 593e
00000180: 8ddd 523e 381f 2abe 340c b83e a527 9c3e
00000190: d650 e6bd 2b56 a53d 3582 da3d 78e3 3bbe
000001a0: 63b8 ffbd caa5 09be 92c2 883e a224 ca3d
000001b0: 27ec 9cbe b6ed 963d 0bc3 07be a2e7 1dbf
000001c0: 92b8 b2bd af9c 113c 8906 40bb 8b94 eb3d
000001d0: 9786 973d cdc4 25be dccc 153d 6d45 953d
000001e0: 621e 5e3e fecc eabe 9b99 803e 609b 10be
000001f0: 0cb7 55be 96dd 4fbe b4fb b6be 6d03 4f3e
00000200: 39ab 42be e153 623e 80f6 df3d 4a34 f43d
00000210: e0d7 6cbd ae2d 853e 5178 fbbb 8f16 3f3e
00000220: b421 d2be 7513 e6bd 681b 2c3b 553e 863e
00000230: fd53 553e 8820 3cbd ba9d cd3d c96f f43c
00000240: c0a2 353e 5d56 2bbe 5269 6c3d 8dcd 10be
00000250: 9ead c23d a17a fe3d 7b46 a03d 3e92 74bc
00000260: 8ab4 b03e 47e4 63be 1fa3 ddbd 2935 d3bb
00000270: adcb 0d3f abfe 1a3d 5032 693e b5e7 45be
00000280: 1509 4ebc c353 efbc a5ad 67bd 636f ad3d
00000290: 5bcc e13d 8c7d f1bd 74f1 bd3d 4bbc 673e
000002a0: e062 5abd fd5c cebd ff97 2ebe 3543 173d
000002b0: 5638 353e 5e9a d13d 5cef 0bbd d121 d63e
000002c0: bda7 d1bd ff27 96bd 95bb 74bd 7046 173d
000002d0: 91fc c2bd ea8e d83b 0547 8b3c 8939 0f3c
000002e0: 482c 91be baa7 133e 483e 05be fc7b babb
000002f0: 30eb e33e 8a3e 09be f33c c1bd 609c 80bd
00000300: 6255 5fbd 6576 db3e e0d9 d6bd 6b96 343d
00000310: 67e4 a13e 3d92 d03c 68f2 e93e f78e 263e
00000320: 7359 e83d 1d6d 2a3b 4b9a 4f3e 07de b0bc
00000330: c4da 823d 9b42 30bd bf2f 8f3d 01f8 8b3c
00000340: d456 4a3e e852 5abe 5c5c 023d 68cd f4bd
00000350: 7b95 d3bd 6e3a 323e c492 3c3e e638 55bd
00000360: 7b2a 19bc 8811 3cbe 53d4 973e 14d6 84bd
00000370: b4d4 103e 89be 1b3e e424 643d 64d3 703d
00000380: 3d30 80bd bf76 3f3e 3146 0cbe d925 32be
00000390: d383 03be d6a9 e7bb fba9 af3d 3dca 05bd
000003a0: f6e1 363d e19e d53c 203e 19be 2ac5 a3be
000003b0: 5c67 6dbd bc0d 25be 8cb6 d43c 5a3f e93e
000003c0: 0b54 be3d bbf4 8fbe 90f5 51bc 693f 8dbd
000003d0: af2a 183e 473f 1ebd 7135 abbd db54 1f3e
000003e0: 3909 08bd c1ad 6d3c 82a9 383e 76e2 71be
000003f0: d875 85be 083b e6bd 4c0d d03d 8d83 c9be

lstm.bias_ih_l0_reverse f4 [256]
0.13879101 -0.021098753 0.36037228 0.18060727 0.035428375 0.16106051 0.19401492 0.16718397
-0.15949449 0.77330494 0.12936391 -0.279991 0.399422 -0.012985296 0.07753024 0.09117872
0.28862748 0.1488616 0.35649806 0.055534195 0.14282906 0.29294032 0.21096301 0.312049
0.22881448 0.122872695 -0.16099383 0.25139984 0.12029533 0.20513254 0.28864723 0.1640196
0.1949726 0.258546 0.015683027 -0.04048982 0.38542765 0.21794435 0.05307131 0.065183066
-0.27153292 0.21706817 -0.024354756 0.4577697 0.10059668 -0.18015788 0.19537745 0.031531043
-0.19862136 0.18670377 0.28535557 0.34579104 0.2092185 0.09113926 0.37508097 -0.007122352
0.073679015 0.067005135 0.06333244 0.15750852 -0.09192746 0.03434425 0.48441258 0.17913963
-0.16221356 0.06576022 0.030830404 0.00244931 0.041435424 0.06977596 -0.09769732 -0.031330604
-0.08222819 -0.022571685 -0.20949432 -0.083814174 0.12369605 0.07200752 -0.083409816 -0.038924072
-0.109377176 0.28981626 -0.09807707 0.07565327 -0.057962425 -0.009925452 0.08086463 0.093945555
0.14405689 -0.03434733 0.08393524 -0.1126036 -0.12909757 0.14892457 0.060517248 0.061239965
0.15321465 0.15472956 -0.07362853 -0.051761225 -0.010224513 -0.015104994 0.029229349 -0.07311077
0.020670008 -0.0013746186 0.15615746 0.022503715 0.06191223 -0.1148308 0.09021424 0.21176465
0.017835513 0.0034969354 -0.013842276 0.08753912 0.0065969583 0.13051286 0.1693248 0.03238871
0.098235674 0.055918533 -0.22938883 -0.11652931 -0.012747878 -0.0334805 0.1237063 -0.12087529
-0.18864962 -0.34620202 0.042158592 0.12143173 -0.09033364 0.1278533 -0.08961211 -0.0017899906
-0.2451927 -0.49409753 -0.047769193 -0.09987743 0.26677716 -0.08513279 -0.19995457 0.13929237
0.18125387 0.17039435 0.25820345 0.06937693 0.087219454 0.04616696 0.44469875 0.30516037
-0.1033287 -0.034461718 0.12244055 0.35217685 0.2239418 -0.25083303 0.49538147 0.17200713
0.25608802 -0.24952082 -0.08122277 -0.08914364 -0.59705245 -0.05037753 0.24131432 -0.07937723
0.4752156 -0.16841859 0.23046334 -0.084339865 0.115236655 0.019037202 -0.115547016 0.09160771
0.014922678 -0.4303423 0.03871976 0.40896973 -0.121479385 -0.073861346 0.42115113 -0.03569318
-0.09102338 0.11486247 -0.11361416 -0.0064374055 0.3142568 0.08286755 -0.22455297 0.03257889
-0.0676473 -0.22097346 0.42426947 0.11644069 -0.017991807 0.03672187 0.21851443 0.25599056
-0.06382402 0.17549089 0.30136266 0.09534502 0.2572164 -0.08934344 0.26394835 0.39663616
0.14815436 0.015258596 0.044244263 0.19604923 0.40703613 0.18514787 0.23509178 0.1020564
0.16406226 0.2732111 -0.121262714 0.16453554 0.26506206 0.27180395 0.22132753 0.33165562
0.2659898 0.052770935 0.034481473 -0.02863293 0.25824952 0.21659978 0.05577349 0.15090637
0.014212977 0.09417932 0.115766145 0.32811034 0.111308604 -0.2669051 0.1530024 0.1841325
0.08054276 0.21701482 0.2789775 0.20025928 0.11180255 0.17585401 0.04783871 -0.018063126
0.1321248 0.3053485 0.54107744 0.43535465 0.062209845 0.14273976 0.25211453 0.102916844
00000000: 3b1f 0e3e 4bd7 acbc b782 b83e 1df1 383e
00000010: 581d 113d 0ced 243e d9ab 463e 4632 2b3e
00000020: 8652 23be 50f7 453f f977 043e fb5a 8fbe
00000030: 0a81 cc3e 47c0 54bc 2dc8 9e3d e9bb ba3d
00000040: fbc6 933e 2d6f 183e ea86 b63e d377 633d
00000050: c841 123e 46fc 953e b006 583e e3c4 9f3e
00000060: 584e 6a3e aea4 fb3d 91db 24be 7bb7 803e
00000070: 665d f63d 440e 523e 92c9 933e c1f4 273e
00000080: e6a6 473e 2460 843e b179 803c a7d8 25bd
00000090: c656 c53e ce2c 5f3e 4d61 593d b37e 853d
000000a0: 5d06 8bbe 1e47 5e3e a083 c7bc ca60 ea3e
000000b0: a205 ce3d 4f7b 38be 0711 483e b226 013d
000000c0: 6663 4bbe 462f 3f3e 201a 923e 860b b13e
000000d0: 603d 563e 38a7 ba3d 9d0a c03e 9e62 e9bb
000000e0: 06e5 963d fd39 893d 70b4 813d ea49 213e
000000f0: 7744 bcbd 8eac 0c3d ed04 f83e 6170 373e
00000100: 501b 26be 4bad 863d 0b90 fc3c 9a84 203b
00000110: 31b8 293d b3e6 8e3d 8815 c8bd 8554 00bd
00000120: 4167 a8bd 41e8 b8bc ae85 56be c4a6 abbd
00000130: 5b54 fd3d ae78 933d c4d2 aabd d96e 1fbd
00000140: 2401 e0bd cc62 943e a2dc c8bd 1af0 9a3d
00000150: 026a 6dbd 5d9e 22bc 5b9c a53d 8766 c03d
00000160: a683 133e c9af 0cbd 3de6 ab3d b79c e6bd
00000170: 2732 04be af7f 183e efe0 773d c2d6 7a3d
00000180: 4de4 1c3e 6d71 1e3e 8eca 96bd 9403 54bd
00000190: b784 27bc f07a 77bc 6372 ef3c 19bb 95bd
000001a0: 2654 a93c 8c2c b4ba bee7 1f3e b659 b83c
000001b0: ae97 7d3d 692c ebbd 3ec2 b83d d5d8 583e
000001c0: c81b 923c d72c 653b b7ca 62bc b647 b33d
000001d0: 4c2b d83b 2aa5 053e 7b63 2d3e 06aa 043d
000001e0: c92f c93d d50a 653d e8e4 6abe eba6 eebd
000001f0: 7adc 50bc d922 09bd bb59 fd3d 778d f7bd
00000200: 5e2d 41be 6441 b1be 7dae 2c3d 33b1 f83d
00000210: d800 b9bd faeb 023e 8e86 b7bd 1e9e eaba
00000220: cc13 7bbe 5afa fcbe a1a9 43bd 8a8c ccbd
00000230: 0497 883e 1a5a aebd e4c0 4cbe a9a2 0e3e
00000240: 9d9a 393e db7b 2e3e 3e33 843e 7e15 8e3d
00000250: 1da0 b23d 9119 3d3d 8eaf e33e fb3d 9c3e
00000260: ff9d d3bd bb27 0dbd 1cc2 fa3d 8650 b43e
00000270: 0051 653e 306d 80be a4a2 fd3e a322 303e
00000280: f81d 833e 6382 7fbe 2058 a6bd f190 b6bd
00000290: 6ed8 18bf ab58 4ebd 1a1b 773e 8790 a2bd
000002a0: 764f f33e ec75 2cbe 95fe 6b3e 61ba acbd
000002b0: 3201 ec3d e8f3 9b3c eaa3 ecbd d39c bb3d
000002c0: 3f7e 743c d355 dcbe 9c98 1e3d 7b64 d13e
000002d0: 2fca f8bd 9e44 97bd 1fa1 d73e 0333 12bd
000002e0: 776a babd 043d eb3d 8aae e8bd dff0 d2bb
000002f0: 44e6 a03e 76b6 a93d 37f1 65be 7171 053d
00000300: ab8a 8abd de46 62be d939 d93e 7578 ee3d
00000310: 8e63 93bc ac69 163d 3fc2 5f3e 3211 833e
00000320: 2bb6 82bd e2b3 333e 354c 9a3e 4044 c33d
00000330: deb1 833e b2f9 b6bd 3d24 873e e513 cb3e
00000340: c7b5 173e 31ff 793c 7939 353d 21c1 483e
00000350: 0a67 d03e 6797 3d3e e6bb 703e f202 d13d
00000360: f0ff 273e 53e2 8b3e 9658 f8bd 017c 283e
00000370: 37b6 873e e329 8b3e afa3 623e c4ce a93e
00000380: d12f 883e 5626 583d 723c 0d3d 9b8f eabc
00000390: 4839 843e 55cc 5d3e be72 643d 3387 1a3e
000003a0: 8cdd 683c 16e1 c03d cd16 ed3d 14fe a73e
000003b0: c4f5 e33d c9a7 88be a9ac 1c3e 3b8d 3c3e
000003c0: 9af3 a43d 2239 5e3e 24d6 8e3e c510 4d3e
000003d0: bcf8 e43d 1313 343e 86f2 433d 1ff9 93bc
000003e0: b94b 073e a356 9c3e 0d84 0a3f cee6 de3e
000003f0: c0cf 7e3d 5f2a 123e 2815 813e 11c6 d23d

lstm.bias_hh_l0_reverse f4 [256]
0.037725378 -0.031301524 0.24758328 0.04156286 0.03784491 0.060566396 0.14349984 0.13437313
-0.10682385 0.8257481 0.16044964 -0.13958329 0.31411183 0.013482771 0.16289742 0.12806205
0.1974218 -0.041149423 0.38037932 -0.00027374428 0.07300958 0.12386035 0.1715185 0.35225233
0.039581295 0.30930704 -0.29617545 0.18775295 0.12611382 0.26684573 0.45481104 0.0013830899
0.13596529 0.15753274 0.10550049 0.037253898 0.4624852 0.06949069 0.19584775 -0.016531257
-0.077539206 0.033264946 -0.029419404 0.4132886 0.3242362 -0.18460955 0.35866928 0.073765785
0.010685874 0.20348632 0.24332087 0.381553 0.31924224 0.107077256 0.34682903 0.013998981
-0.012245503 0.12142953 0.11075254 0.20070037 -0.005653976 -0.0022341933 0.3941808 -0.023446217
-0.1913119 -0.0085991165 -0.098348506 0.07678248 0.017930109 -0.111801036 -0.06309505 0.10308685
-0.07388652 -0.034241993 -0.10574472 0.004549717 -0.07381949 -0.017365728 0.010524483 -0.030588849
0.03176013 0.14720109 0.05382808 -0.15153456 -0.15085766 0.029503046 -0.07897823 0.09590817
0.08335726 -0.16561323 0.13998777 0.021948103 0.040541284 0.092399605 -0.05075251 0.0823445
-0.06814304 0.22584675 -0.14251174 -0.105881505 0.15286358 -0.09723824 -0.059074458 -0.12028837
0.13529675 0.019864583 0.16585183 -0.022143386 -0.020986954 -0.014027659 -0.086023465 0.1684651
-0.11506153 0.09344108 -0.018093 0.095648736 0.030699965 0.13358274 0.14912878 -0.10995216
0.07486094 0.052916054 -0.15889367 0.071342625 0.004086751 -0.021847066 -0.035076838 -0.023242969
-0.107769065 -0.25118443 -0.07796734 -0.024712298 0.05959896 0.2259961 -0.10545915 0.20812005
-0.08626369 -0.48175216 0.03197583 0.011659418 0.26020813 -0.016800022 -0.13648546 0.0874343
0.23010774 0.119155996 0.40522295 0.04525785 -0.05334015 0.015668849 0.44908917 0.4704605
-0.08398894 -0.07289084 0.15025909 0.2755419 0.17872396 -0.34855843 0.3471815 0.17707326
0.042412084 -0.29276857 -0.1653443 -0.08916693 -0.45342606 0.13162164 0.37090105 -0.047079165
0.53412056 -0.3220388 0.32316115 -0.14375623 -0.07568188 0.06354938 -0.2849345 -0.056882553
0.1539829 -0.5010109 0.09856849 0.23672041 -0.2567552 -0.05286419 0.23498929 0.14706728
-0.14085527 0.036656115 0.017680854 -0.10794766 0.18430156 -0.10511556 -0.12851681 -0.0037665004
-0.0652817 -0.06485378 0.49424377 0.09941787 0.15530188 0.08169793 0.10055848 0.24405897
-0.2839974 0.12014051 0.15349004 -0.009120207 0.21596213 0.043408085 0.14505182 0.23461105
0.04384577 -0.01135354 0.10486703 0.14790975 0.16876121 0.3919854 0.17206147 0.122052655
0.09348779 0.28897175 -0.13889977 0.13558988 0.34149936 0.3436047 0.23604222 0.10999397
0.26741722 0.059124514 -0.04697922 0.0085076755 0.16389163 0.09137728 0.10204317 0.14617245
-0.06669927 0.21998675 0.22716403 0.3756919 0.19150324 -0.10369106 0.10758228 0.12370418
-0.03495494 0.1915707 0.29457873 0.2324345 0.09380935 0.16457109 0.21021765 0.032417823
0.15780927 0.17117976 0.48774552 0.47624642 0.06208949 0.1493253 0.16380404 -0.053787783
00000000: ed85 1a3d 0736 00bd 7986 7d3e d13d 2a3d
00000010: 4403 1b3d 7814 783d 9ff1 123e 1c99 093e
00000020: 76c6 dabd 3a64 533f e94c 243e ecee 0ebe
00000030: 44d3 a03e d7e6 5c3c 95ce 263e b322 033e
00000040: f128 4a3e 4c8c 28bd 14c1 c23e 5685 8fb9
00000050: 0c86 953d 7faa fd3d 8ca2 2f3e 6b5a b43e
00000060: ff1f 223d 7e5d 9e3e 4fa4 97be 4f42 403e
00000070: fb23 013e 01a0 883e fedc e83e cc48 b53a
00000080: 7c3a 0b3e 4350 213e a410 d83d 8b97 183d
00000090: dcca ec3e 2351 8e3d 508c 483e 8f6c 87bc
000000a0: e0cc 9ebd d340 083d f600 f1bc 909a d33e
000000b0: 4a02 a63e 490a 3dbe 80a3 b73e 8412 973d
000000c0: ce13 2f3c b85e 503e 1b29 793e ea5a c33e
000000d0: b873 a33e 524b db3d 9393 b13e fb5b 653c
000000e0: 5da1 48bc 0cb0 f83d 3ad2 e23d 6684 4d3e
000000f0: fd44 b9bb 8b6b 12bb 11d2 c93e 4812 c0bc
00000100: 44e7 43be 4fe3 0cbc f16a c9bd 2240 9d3d
00000110: 2ae2 923c f1f7 e4bd fa37 81bd 331f d33d
00000120: d151 97bd 5541 0cbd b090 d8bd cb15 953b
00000130: ac2e 97bd 9242 8ebc e26e 2c3c 7795 fabc
00000140: e916 023d e2bb 163e d57a 5c3d e02b 1bbe
00000150: 6e7a 1abe 5fb0 f13c 57bf a1bd 816b c43d
00000160: 36b7 aa3d 8496 29be f458 0f3e 82cc b33c
00000170: 9e0e 263d 013c bd3d dde1 4fbd 3ca4 a83d
00000180: 948e 8bbd 5f44 673e 99ee 11be 67d8 d8bd
00000190: 4588 1c3e d824 c7bd 0ff8 71bd c059 f6bd
000001a0: 3b8b 0a3e 0dbb a23c 10d5 293e 0c66 b5bc
000001b0: d5ec abbc 44d4 65bc 122d b0bd 1d82 2c3e
000001c0: 61a5 ebbd 095e bf3d c537 94bc 7ce3 c33d
000001d0: 7e7e fb3c eac9 083e 37b5 183e 992e e1bd
000001e0: b150 993d 81be 583d 06b5 22be 151c 923d
000001f0: 27ea 853b 9ef8 b2bc bbac 0fbd 0a68 bebc
00000200: 07b6 dcbd 3f9b 80be 57ad 9fbd 7271 cabc
00000210: 0a1e 743d 866b 673e f8fa d7bd 6c1d 553e
00000220: 04ab b0bd 38a8 f6be 17f9 023d 2507 3f3c
00000230: 003a 853e 33a0 89bc d8c2 0bbe c110 b33d
00000240: 5da1 6b3e 0f08 f43d 6279 cf3e 4c60 393d
00000250: 337b 5abd f55b 803c 04ef e53e 33e0 f03e
00000260: 6502 acbd cb47 95bd 85dd 193e d413 8d3e
00000270: 6a03 373e 4076 b2be c6c1 b13e b152 353e
00000280: 4bb8 2d3d c3e5 95be 0450 29be 279d b6bd
00000290: 7627 e8be d3c7 063e bee6 bd3e 15d6 40bd
000002a0: 20bc 083f 45e2 a4be 6175 a53e d534 13be
000002b0: 1aff 9abd 2d26 823d efe2 91be aefd 68bd
000002c0: b1ad 1d3e 4042 00bf 47de c93d d666 723e
000002d0: 6b75 83be 1f88 58bd 08a1 703e ce98 163e
000002e0: 5d3c 10be b924 163d 70d7 903c aa13 ddbd
000002f0: 8cb9 3c3e d446 d7bd e999 03be 64d7 76bb
00000300: 69b2 85bd 0fd2 84bd 850d fd3e 999b cb3d
00000310: 7507 1f3e 3f51 a73d 9bf1 cd3d 98ea 793e
00000320: 1b68 91be 3a0c f63d 7e2c 1d3e ec6c 15bc
00000330: 2d25 5d3e adcc 313d 7788 143e e13d 703e
00000340: 9f97 333d 3304 3abc 87c4 d63d a775 173e
00000350: bdcf 2c3e 4fb2 c83e e230 303e bef6 f93d
00000360: 8776 bf3d 1bf4 933e be3b 0ebe 13d8 0a3e
00000370: 01d9 ae3e f5ec af3e 0db5 713e 8544 e13d
00000380: e9ea 883e 8c2c 723d 486d 40bd c763 0b3c
00000390: 35d3 273e 0324 bb3d 02fc d03d 3bae 153e
000003a0: a099 88bd 3544 613e b09d 683e b05a c03e
000003b0: 6d19 443e fa5b d4bd 1954 dc3d 9e58 fd3d
000003c0: e92c 0fbd 1c2b 443e 06d3 963e 4f03 6e3e
000003d0: 1e1f c03d 5385 283e 4c43 573e 8dc8 043d
000003e0: c198 213e bf49 2f3e c8b9 f93e 92d6 f33e
000003f0: 8d51 7e3d bbe8 183e 3fbc 273e 9450 5cbd
