models/31-BiLSTM_Loss_0.1387677234002888.pt (torch_old, 191938 bytes, 10 tensors)

lstm.weight_ih_l0 f4 [256, 25]
000000 11 80 df be 5c 02 15 be 0c b6 ee 3e cc 76 bf be
       -0.43652394 -0.14551681 0.46623266 -0.37395322
000010 7f b1 47 bf 9f 8c ff 3e f3 1c 6f 3d ca 36 0f 3e
       -0.7800521 0.49911973 0.058377218 0.13985744
000020 56 d7 00 be 6f f1 34 3d a8 90 a1 3e 29 3f 5d 3e
       -0.12582144 0.04417556 0.31555676 0.21606125
000030 71 71 a1 3d 7c a2 b3 be 4f fb 80 3e ce bb 51 3e
       0.07882965 -0.35084903 0.25191733 0.20481798
000040 26 0b d8 be a6 0a 3d 3c 16 5a cf bc c8 87 db 3e
       -0.42196006 0.011538183 -0.025311511 0.4287703
000050 d1 05 b9 3e ac 58 67 3f b0 a4 da be 90 7a 63 3c
       0.3613725 0.9036968 -0.42703772 0.013884202
000060 91 1d f7 3e 66 8b f4 bc f2 50 80 bd 3e 86 09 3f
       0.48264745 -0.029851627 -0.06265439 0.5372046
000070 bf a3 38 bc e8 a0 02 bf 1c ee de bd f2 fb 4d bd
       -0.011269509 -0.51026773 -0.108852595 -0.050289102
000080 19 42 20 3d dd ee 00 3f ed 8b 0d bf b6 6d 84 be
       0.039125536 0.50364476 -0.55291635 -0.25864953
000090 9e da f7 bc 63 39 7b be 51 24 47 bf 0e 56 4d be
       -0.030255612 -0.2453361 -0.7778979 -0.20052359
0000a0 b3 5e 8b be 77 64 3b bf 7b 3b ae 3e 53 38 21 bc
       -0.27220687 -0.7320017 0.34029755 -0.009840089
0000b0 00 8b f4 bc d7 e3 bd 3e 3f ac 8a be de 59 92 3d
       -0.029851437 0.3708789 -0.27084538 0.07146047
0000c0 50 99 30 3d 44 4e ec be 72 8f 73 be 7c df 20 bf
       0.04311496 -0.46153462 -0.23785189 -0.6284101
0000d0 91 53 6d 3e a8 19 39 3f ca 7b 33 3d bd c3 c3 be
       0.2317641 0.72304773 0.043819226 -0.38235274
0000e0 ea d2 cf 3e a0 bb 54 bc 67 2e b5 be 50 7b fb be
       0.40590602 -0.012984186 -0.35386965 -0.49117517
0000f0 5a a3 cf 3d d7 50 f4 3e 01 bb 68 be 79 3e d8 be
       0.10138579 0.47717926 -0.22727586 -0.42235163
000100 68 b5 28 3f d8 c7 14 bf 6f 3e b9 be 5f e2 82 be
       0.65901804 -0.5811744 -0.36180446 -0.25563332
000110 32 a6 08 3d 11 cc 82 be 3a 87 84 3e 44 f3 ac 3e
       0.03336162 -0.25546315 0.2588442 0.33779347
000120 59 06 98 be 5b 65 80 be 0d ca b5 be b2 61 f0 be
       -0.29692343 -0.25077328 -0.35505715 -0.46949536
000130 18 c3 1c 3e 77 d1 97 3e 13 13 41 3f ef ff a8 be
       0.15308797 0.29651996 0.7541973 -0.33007762
000140 66 0d 7c 3d 9b 06 5b 3f f2 98 82 be 29 f7 1b be
       0.061536215 0.85556954 -0.25507313 -0.15231003
000150 08 f9 66 3d 98 e7 1f bf 89 94 08 3f f7 cc f1 be
       0.05638984 -0.6246276 0.53351647 -0.47226688
000160 01 eb 76 bf 01 0e a1 be 02 59 da 3e 77 f6 11 bf
       -0.9645234 -0.31455997 0.42646033 -0.570167
000170 81 d9 3b be 55 89 46 3c e1 d5 f9 be 2e d2 4b 3f
       -0.1834469 0.012117703 -0.4879599 0.79617584
000180 ba d2 61 3e e6 aa c2 3c bc 1b 06 bc b3 ff 40 bc
       0.22053042 0.023763131 -0.008185323 -0.011779713
000190 5f d7 8a 3e 62 ce ba 3e c8 58 b6 3e 4c f6 29 3f
       0.2711744 0.36485583 0.3561461 0.66391444
0001a0 86 d9 91 be 76 ba 1a bd 1d a0 34 be 75 1a 09 bf
       -0.2848627 -0.03777548 -0.17639203 -0.53555995
0001b0 ab 36 1c bf 1a 3b fc be c3 67 a4 be 8a 3b 30 3e
       -0.61020917 -0.4926384 -0.32110414 0.17210212
0001c0 90 59 07 bf f4 ee cf 3a 99 75 66 be 15 ff 87 be
       -0.52871037 0.001586406 -0.22505797 -0.265618
0001d0 4c 2b f5 bc e6 8f 35 3e ec 67 0d 3f 5d c9 bb be
       -0.029927872 0.17730674 0.552367 -0.36677065
0001e0 9f 3b 69 3e 62 24 bc 3e 5c 67 1f 3f 9d 18 65 bd
       0.2277665 0.36746508 0.6226709 -0.055931676
0001f0 cf 74 3f be de 36 6f be c0 88 7a be ea bb 0f 3f
       -0.18696903 -0.23360774 -0.24466228 0.5614611
000200 e8 bb 12 3e 05 ff 83 be 96 bc 94 3e 6a f4 ca 3d
       0.14329493 -0.25780502 0.2905013 0.099098995
000210 1c 0b 1d be de 95 a4 be 87 cd b0 3c d9 10 94 be
       -0.15336269 -0.3214559 0.021582378 -0.28919104
000220 75 fc a7 bd 43 84 44 be ed 54 7e bf 49 8e e6 be
       -0.08202449 -0.19191079 -0.99348336 -0.4503043
000230 1f 15 2e 3e d0 a6 84 be 44 cb a7 bc db c8 70 be
       0.17000245 -0.25908518 -0.020482667 -0.2351412
000240 38 4c 2b 3d cd 80 fc 3e ac 41 3c 3e 75 ac c6 be
       0.041820735 0.49317017 0.18384427 -0.3880345
000250 07 05 80 be 64 13 e2 3e f1 c6 24 be 44 f0 a1 3e
       -0.25003836 0.4415542 -0.16091515 0.3162862
000260 62 3e 2a be ae 82 02 3f 3f 48 53 be b6 4a 46 bf
       -0.1662536 0.5098065 -0.20633028 -0.7745775
000270 22 5b 76 be 84 4b 41 bc 86 61 78 3e e9 fa ed be
       -0.24058202 -0.0117977895 0.24255952 -0.46480492
000280 39 0d 8b be d2 0e b3 3e e6 4c fd bd 9a 66 95 be
       -0.27158526 0.34972245 -0.12368183 -0.2917984
000290 02 df 2a 3f 7d 81 a8 3e c6 17 32 be 05 8a 47 3d
       0.6674653 0.32911292 -0.17391881 0.04871561
0002a0 bb 78 ac 3d 70 e6 d9 3e e2 86 ea 3d d4 63 78 be
       0.08421465 0.42558622 0.11451508 -0.24256831
0002b0 ca ce 2c bd 00 f3 19 bf 5e 38 06 bf b7 f6 84 bd
       -0.042189397 -0.60136414 -0.5242976 -0.064923696
0002c0 d6 e2 09 3f 28 c1 14 3f cc 90 99 3d 33 72 b9 be
       0.5386175 0.58107233 0.07498321 -0.3621994
0002d0 7f ac e6 3c 17 cf cb bd 8d 7c 0f 3e af 08 4b 3d
       0.028158424 -0.09951609 0.14012356 0.04956883
0002e0 59 96 89 be 34 f4 82 3e e7 54 17 3e 20 03 23 bd
       -0.2687252 0.25576937 0.14778481 -0.039797902
0002f0 a6 fe 01 bf 2a 8b cf 3e ba 8f 1f bf 99 66 af be
       -0.5077919 0.4053586 -0.62328684 -0.34257963
000300 df b7 88 3e b3 97 c2 3e b5 30 8e 3e cc a7 1e 3f
       0.26702783 0.38006362 0.27771536 0.6197479
000310 7d 3b 30 bd d0 fe 32 bf 41 7a c3 be e6 25 2d 3e
       -0.043025482 -0.69920063 -0.3817921 0.16908988
000320 d3 e0 91 be 11 c3 76 be 96 ae 81 bc 5f 76 8c 3e
       -0.2849184 -0.2409785 -0.01583032 0.2743406
000330 b0 c4 e9 3b b2 b0 25 3e 20 57 0f be 31 9f 09 3f
       0.0071340427 0.16180685 -0.1399808 0.5375853
000340 d9 dc e7 3e 3e 19 9d be e0 c8 36 3f f9 f3 4b 3e
       0.4528568 -0.3068332 0.7140026 0.19917287
000350 62 14 ac be b4 67 7a be 2f 4d 66 be 8a 6f 13 be
       -0.336093 -0.24453622 -0.2249038 -0.14398018
000360 fb ba ee be 07 d4 c1 3e e8 08 aa be 84 99 42 3d
       -0.4662703 0.37857077 -0.3320992 0.047509685
000370 9a 4e 77 be a5 f4 22 be da 5b b8 3d f1 86 54 be
       -0.24151078 -0.15913637 0.09001894 -0.20754601
000380 51 cf a4 3d 94 7b dc 3d 04 68 6c be d8 22 19 be
       0.08047355 0.10765758 -0.23086554 -0.14954698
000390 0b de 82 bd 7c 81 a5 be 93 d9 14 bd 2a 3f b9 3e
       -0.063900076 -0.3232535 -0.036340307 0.36181003
0003a0 c2 a8 00 be 78 6a 24 bf 78 4e 4b 3e 56 c7 4e bd
       -0.12564376 -0.6422496 0.19854152 -0.05048307
0003b0 4e a9 75 3e 44 02 18 be 9c 4e 82 3e 05 bb ae 3d
       0.23990366 -0.14844614 0.254506 0.08531765
0003c0 e2 0f 46 3d 7b db 16 3f 8f 4c ad 3e 18 34 8e bc
       0.04835499 0.5892865 0.33847472 -0.017358825
0003d0 3f 49 d5 be 6d 0e 20 3e 50 2d 50 3d 42 7a de bd
       -0.41657445 0.15630503 0.050824463 -0.108631626
0003e0 3a 55 5c 3e 85 a0 ab be ed d4 a5 be 7c d5 fa 3e
       0.21516886 -0.33520904 -0.32389012 0.48991
0003f0 fe 47 b7 3e 43 2f 2d 3e d4 4a b6 be 96 6d a6 be
       0.35797113 0.1691256 -0.35603964 -0.32505482

lstm.weight_hh_l0 f4 [256, 64]
000000 b5 3d 9c bd a4 c5 30 be 8f 17 c4 bd e9 7b 2b be
       -0.07628957 -0.17262894 -0.09574806 -0.16746487
000010 b2 6c a9 3d 28 bb af 3e d4 07 d9 3c 6f 99 18 bd
       0.08272685 0.34322476 0.02649299 -0.0372557
000020 98 b3 db bd 59 7d 9e 3d 48 4e 15 bf eb db 1f 3e
       -0.10727614 0.07738752 -0.5832257 0.15611236
000030 02 34 07 3e 91 9e dc bd de e9 b7 3b cf 34 26 be
       0.13203433 -0.10772432 0.005612596 -0.16231082
000040 e2 10 cf 3b 27 fa e5 bd f5 a0 66 be 32 64 08 3d
       0.0063191513 -0.112293534 -0.22522338 0.03329868
000050 df 48 97 3e 83 0b 04 bf 5d ab 12 3f 55 00 b0 3e
       0.29547784 -0.51580065 0.5729273 0.34375253
000060 3a f5 75 be 08 68 a0 bc 4f a5 b4 bd e1 28 05 3e
       -0.24019328 -0.019580856 -0.088205926 0.13003875
000070 e6 04 27 3e 55 ab 01 be 91 ad ed bd a7 fb 6b 3e
       0.16310462 -0.12663014 -0.11605371 0.23045217
000080 fd e3 91 bd a3 ed 20 3d 9e 34 00 3f 52 83 c3 bb
       -0.071235634 0.039289128 0.5008029 -0.0059665823
000090 4b 0f b4 bd d3 d3 91 3e e8 3b af bb 89 c0 82 3e
       -0.087919794 0.28481922 -0.0053477176 0.25537518
0000a0 98 0e ca bd c6 c6 ea bc 73 01 82 bd f8 01 65 3c
       -0.09866065 -0.028659236 -0.06347933 0.01397752
0000b0 ed 9c 08 3e 2c 3d 83 3c e8 d7 2c be a4 5f 0a 3e
       0.13341112 0.01602038 -0.16879237 0.13513047
0000c0 af 49 65 be 93 ea cd 3c e3 c8 e0 3c f8 59 97 be
       -0.2239139 0.025136268 0.02743954 -0.29560828
0000d0 88 8a 4d 3e 0b 8b d5 3d c2 af 4a 3d ab ac f0 bd
       0.20072377 0.10426911 0.049484022 -0.11751684
0000e0 47 47 9d bd e9 98 a6 be 61 e6 f1 bd 19 b2 ab bc
       -0.07679611 -0.32538536 -0.118115194 -0.020958947
0000f0 45 90 11 bd 1a 52 49 be 20 a0 b5 bd 9e c1 d8 bd
       -0.035537977 -0.19660226 -0.08868432 -0.105838045
000100 93 1a 5a 3d 66 75 ba 3e 34 62 09 be 2a 59 0a be
       0.053248 0.36417693 -0.13416368 -0.13510576
000110 0e 69 4f 3e 16 9f 97 3d a4 5f 20 be e1 ad 25 bc
       0.20254919 0.0740339 -0.15661484 -0.010112257
000120 bd b7 c0 3e af 89 d4 bc 2c ce 89 be ed b3 97 3e
       0.3764018 -0.025944559 -0.2691511 0.2962946
000130 ba f3 06 3f e5 3b 21 3e 6a fc e6 3e 97 68 25 bf
       0.5271565 0.15745504 0.45114452 -0.64612716
000140 89 43 7a 3d fe 1e d4 be bf c7 80 3e e3 2e 55 be
       0.061099563 -0.41429895 0.25152394 -0.20818667
000150 98 fa 32 be 44 97 5d bf 53 0c 1e 3f 45 6c 28 bd
       -0.17478406 -0.8655894 0.61737555 -0.04111888
000160 f5 a1 e2 3d 9d 03 08 3f b9 1a 44 3e 59 cf 0d be
       0.11066047 0.53130513 0.19150819 -0.13848628
000170 0b 45 64 be a6 e6 10 bc 38 42 a2 be 23 2a 9f 3e
       -0.22291963 -0.008844053 -0.31691146 0.31086835
000180 37 22 21 3e ff 9d 87 be ad 11 0f 3e 15 c4 e1 3d
       0.15735708 -0.2648773 0.13971587 0.11023728
000190 36 f7 a1 3e 06 13 48 3e 85 fe 51 be 89 81 c0 3c
       0.3163392 0.19538507 -0.20507248 0.023499267
0001a0 a3 35 e7 3e 4b db 20 3e 94 f7 66 3e c5 f0 4b be
       0.4515811 0.15708654 0.22555381 -0.19916065
0001b0 25 dc 0b bf 71 69 10 be a1 e3 43 3e 51 b1 38 be
       -0.5463279 -0.14102723 0.19129802 -0.18036391
0001c0 c6 62 00 3e b7 73 8a be 6c 4d 9e bd 26 1d 90 3c
       0.12537679 -0.27041408 -0.07729611 0.017592024
0001d0 4b db e2 be 5e 67 42 be ce b4 37 3e 59 c6 d5 3d
       -0.44307932 -0.18984744 0.17940065 0.104382224
0001e0 4b df 23 bd d6 d8 40 3f a9 77 a2 3e 3b d8 b8 be
       -0.04000787 0.75330865 0.31731918 -0.3610247
0001f0 8c 1b 95 3e b2 66 20 3e 83 29 5d be 94 f0 9f 3c
       0.2912258 0.15664175 -0.21597867 0.019523896
000200 cd 05 5c 3e 8b 69 94 bd 6a 6f c2 3e 5e 7e 8d 3e
       0.21486588 -0.07246693 0.37975627 0.27635473
000210 70 4b eb be ce f5 90 bd 03 08 95 3e 54 da b7 3e
       -0.45955992 -0.070781335 0.29107675 0.3590876
000220 be 4c f1 be b6 11 2b 3e 40 02 f7 bd 21 ea 04 bf
       -0.47128862 0.16705975 -0.12060976 -0.5191975
000230 58 26 04 3e dc ae 73 3d 38 dc 60 3c 4e 64 97 3e
       0.12905252 0.05949293 0.013724379 0.29568714
000240 f1 ec 57 bd 1c 34 8e 3e 0d 62 4d be f0 da ce be
       -0.0527162 0.2777413 -0.20056935 -0.4040141
000250 3e 08 d8 3d 02 c1 8a 3e f3 38 a7 be d6 12 ab 3e
       0.10548447 0.27100378 -0.32660636 0.33412808
000260 fa e2 fb 3c 1e c7 91 be 1d 01 10 be df d6 78 3e
       0.03074788 -0.28472227 -0.14062925 0.24300717
000270 7b 20 99 3e 99 14 45 be 06 d7 22 3e b2 22 a5 be
       0.29907593 -0.19246139 0.15902337 -0.32253033
000280 f7 f8 8a bd a6 9a 5b bd d2 af 97 3b 4a 57 00 3d
       -0.067857675 -0.05361428 0.0046291137 0.031333245
000290 1e 67 7b be 5a 51 5e be a4 00 e1 3d 6c e9 64 3e
       -0.24551055 -0.2171072 0.1098645 0.22354668
0002a0 e4 f6 8f be 70 07 a3 3e 43 c5 ab bd 4e 99 01 3d
       -0.2811805 0.31841612 -0.08387234 0.031640343
0002b0 62 59 3c 3d 5b 8e 54 bd 9a cf 69 3d 12 d4 23 be
       0.04598368 -0.051893573 0.05708275 -0.15998867
0002c0 83 bd b8 bd a5 f8 83 3e 66 6f a5 be 47 16 2e 3e
       -0.090205215 0.25775638 -0.32311553 0.17000686
0002d0 14 f9 66 3e 3c 78 fe 3b 87 18 da bd 41 73 19 3e
       0.22555953 0.007765798 -0.106492095 0.14985372
0002e0 0a 3b 54 bd a4 61 4c 3c 99 9d c9 3c 8d 9e aa be
       -0.051814117 0.012474451 0.024611281 -0.3332409
0002f0 44 a9 fa 3b 10 d5 19 3e 37 64 18 3e 65 03 dd bd
       0.0076495726 0.15022683 0.14881979 -0.10791663
000300 ec 84 3f be dc 31 be 3e 0a 37 38 be 3d 13 cf 3d
       -0.1870305 0.37147415 -0.17989746 0.10111091
000310 eb 1f a2 3e 36 d5 bb bc 1d d7 79 be 63 fe 16 3f
       0.31664976 -0.022928815 -0.24398465 0.58981913
000320 44 97 9d bc a1 4a ba 3e 4d a5 0f bf b1 43 0e 3f
       -0.019237168 0.36385062 -0.56111604 0.5557204
000330 d8 38 cf be 63 79 8e 3c 64 9d 9c bc 7d 44 d2 be
       -0.40473056 0.017391866 -0.019118018 -0.41067877
000340 b0 cb aa be 0e 21 fe bd 50 79 cd bc e0 67 fd 3d
       -0.33358526 -0.124086484 -0.02508226 0.12373328
000350 95 b6 97 3e 33 d9 a3 be 92 5d 5a 3d ab 6b 15 be
       0.29631487 -0.32001647 0.05331189 -0.14591853
000360 f6 d1 a3 be 9e 4a 57 be 7c e1 91 bd 1a 1e ab bd
       -0.31996125 -0.21024558 -0.07123086 -0.08355351
000370 7b 04 ac 3d 69 cd f3 be 3d 84 bc bd 3b 52 be 3e
       0.08399292 -0.47617653 -0.0920491 0.37172112
000380 d6 a5 0d 3e 7b b1 5a 3d 71 97 c9 3c 2a 97 8e 3d
       0.13832793 0.053391915 0.024608346 0.06962426
000390 d6 66 c5 be 8c 5b 05 3e dd 70 93 3d de 32 9d bd
       -0.3855502 0.13023204 0.07199261 -0.07675718
0003a0 38 d1 73 3e 32 98 34 3e a7 74 e9 3e d5 53 29 be
       0.2381028 0.17636183 0.4559681 -0.16535886
0003b0 c4 64 ec be 2c e6 dc 3e df 17 f9 bd a4 a3 ba be
       -0.46170628 0.43144357 -0.12162756 -0.36452973
0003c0 b6 d4 91 be 1b a8 38 be 88 d5 9c 3b 48 22 cf be
       -0.28482598 -0.18032877 0.004786197 -0.40455842
0003d0 9c 05 a2 3e 79 e9 3a 3e a4 12 20 bf 26 90 83 bd
       0.31644905 0.18253125 -0.62528443 -0.064239785
0003e0 9c 95 28 3e 12 c8 00 be 49 aa 10 3e e1 9d 05 3f
       0.16463321 -0.12576321 0.14127459 0.5219403
0003f0 92 5b 81 bd 3a 7c 9d 3e 49 79 bc bd 83 0d 48 bd
       -0.06316294 0.3075884 -0.09202821 -0.04884101

lstm.bias_ih_l0 f4 [256]
000000 2f b4 b5 3e 17 b1 de 3e 55 6e d8 3d c9 76 39 3e
       0.35489032 0.43494484 0.10567919 0.18111719
000010 bb 58 bf 3e b7 1f f1 3d 1d 3f a0 3e 6d 34 7a 3e
       0.37372383 0.11773627 0.31298152 0.24434061
000020 d2 9c 36 3e 8d 4b 50 3d ff 9c 22 3e 9d 81 19 3e
       0.1783326 0.0508533 0.15880202 0.1499085
000030 c9 40 f2 bd 09 17 a5 3e d2 73 94 3e d9 fc 4f 3e
       -0.11828763 0.32244137 0.28994614 0.20311297
000040 c3 d1 a1 3e c9 1d 22 3d 33 cd a3 3e ad f7 ed 3d
       0.31605348 0.039579187 0.31992492 0.11619506
000050 40 b5 9d 3e 3b 74 4c be ba 03 3c be bb bb fd 3d
       0.30802345 -0.19966213 -0.18360797 0.12389322
000060 74 b4 aa 3e ce 24 92 3e e7 85 69 3e f6 6c 48 3e
       0.333408 0.28543705 0.22804986 0.19572815
000070 87 a9 4f 3e 6e 60 ba 3e ba 46 94 3e 5c 32 5c bd
       0.20279513 0.36401695 0.2896021 -0.053758964
000080 b0 7a 84 3e e9 16 94 3d 7f 76 39 3d 99 3a 3d 3e
       0.25874853 0.07230932 0.045279022 0.18479384
000090 0b 75 1b 3f f4 7c f0 3e 1f ca 9c 3e c6 c8 84 3e
       0.6072547 0.46970332 0.30622956 0.25934428
0000a0 bc c1 63 3d 08 c3 9d 3e 08 47 05 3e 89 0c c0 3d
       0.05560468 0.3081286 0.13015378 0.09377391
0000b0 8b 88 98 3d 10 83 e2 3e 7a e3 dc 3e 79 87 26 3e
       0.074479185 0.44240618 0.431423 0.16262616
0000c0 53 69 63 3e f4 b9 50 3e 3d 25 8a 3e 28 86 c7 3e
       0.22208147 0.20383435 0.26981536 0.3896954
0000d0 98 15 92 be 28 41 66 3d ba 37 80 3e 82 29 41 3e
       -0.285321 0.05621448 0.25042516 0.1886349
0000e0 ab f7 f7 3e f5 01 33 be 43 dc b8 3d 33 ea 4f 3d
       0.48431143 -0.17481215 0.090263866 0.05076046
0000f0 28 89 1f 3e 9c e7 8b 3e 5d f4 b3 3e 30 49 cf 3e
       0.15579665 0.2732514 0.35147372 0.40485525
000100 ac 75 25 3e e5 72 1e 3e 85 9d c1 3b b6 03 b8 3e
       0.1615817 0.15473516 0.0059086704 0.3594033
000110 ac 02 39 3e 88 f4 ef 3d 40 df 55 3e 54 cf 91 3e
       0.18067425 0.117165625 0.20885944 0.2847849
000120 42 75 af 3c 9e db 28 3e cd 73 ff 3d 34 be 25 3e
       0.021418218 0.16490027 0.12473259 0.16185838
000130 c1 1e 86 bb 89 ef 06 bd 89 81 49 bd f4 d9 e9 3d
       -0.0040930216 -0.032943282 -0.0491958 0.114185244
000140 71 14 a6 bd ea 7c 14 3e 49 8b f8 3b f5 ab f0 bd
       -0.08109368 0.14500776 0.0075849635 -0.11751548
000150 f1 f2 a5 3b 5e ab 93 3d 84 fe 27 bd 5a ef 37 3e
       0.0050643613 0.0721042 -0.04101421 0.17962399
000160 72 25 bb 3d 4f c3 b0 3d 8d 91 1b 3d f1 3d d9 bd
       0.091380015 0.08631002 0.037980605 -0.106075175
000170 57 4b 2e 3d 91 4a ea 3d 56 f1 0a 3e 81 2f e8 bd
       0.04255232 0.11440004 0.13568625 -0.11337186
000180 72 27 c4 bd 28 4a b1 bc 15 c6 ac 3c b0 d3 0e 3e
       -0.09577836 -0.021641806 0.021090547 0.1394794
000190 76 4f 0e bd 8a 1b d1 3d 53 19 4a 3e 93 2b 9d bd
       -0.03474375 0.10210331 0.19736223 -0.07674327
0001a0 f9 9a b1 bd 3b 4b 02 bd 07 61 45 3d 33 64 ab 3e
       -0.08672137 -0.031810027 0.048188236 0.33474883
0001b0 95 55 03 3d 7e 8e 39 3c 5b 6c 59 3e 39 8b 8b 3d
       0.03206404 0.011325477 0.2123274 0.06813664
0001c0 4a 2c 1e bd 39 be 69 3d db 70 49 3d 15 0a a2 3d
       -0.038616456 0.057066176 0.049179893 0.07912079
0001d0 67 c5 d4 3d 3d ce 79 3e f2 d3 8a 3d c1 fd e4 3d
       0.10389214 0.2439508 0.067787066 0.11181212
0001e0 3a 7c 12 3d 34 0a bb bc 7a 5b 0b be 33 c1 86 3e
       0.035763003 -0.022832014 -0.13609114 0.26319274
0001f0 15 50 c0 3d 67 7e a0 bc 2f bd 5d 3e 93 1c f7 3d
       0.093902744 -0.019591523 0.21654199 0.12065997
000200 2e be 85 3e eb fb 34 3d 2c 53 b4 bd 8d e8 9d 3e
       0.26121658 0.04418556 -0.08804926 0.30841485
000210 27 d9 7b bd 80 db 71 3c 53 cc 53 3e ee 05 ae bd
       -0.06148639 0.014761806 0.20683412 -0.08497225
000220 ad d7 cc bd 24 91 23 bd 01 39 e5 bd a6 54 0b bd
       -0.100020744 -0.03993334 -0.11192513 -0.034016274
000230 83 11 e4 bd 5d 92 9a 3c a8 5f c4 bc 77 0e a8 3c
       -0.111361526 0.01886862 -0.023971394 0.02051471
000240 b9 63 23 3e 9c d9 3d 3d d6 85 15 be 9b cb 9e bc
       0.1595601 0.046350107 -0.14601836 -0.019384196
000250 e0 3d 4c 3e d5 91 b9 3e f4 3f 2f be 1f 36 9a 3d
       0.19945478 0.36244074 -0.1711424 0.07529854
000260 48 bf 6c 3e 5f 41 a4 bb f5 52 3e be dc 1a d9 bd
       0.23119843 -0.0050126757 -0.18586333 -0.10600826
000270 1b 3e 56 3d 01 0b 13 be 45 78 1f 3e db 7f 24 be
       0.052305322 -0.14359666 0.15573223 -0.16064398
000280 34 c4 dc bd c9 9e d4 3d a0 a2 93 be 88 63 f1 bd
       -0.1077961 0.10381848 -0.2883501 -0.11786562
000290 4a 1e 79 bd a5 a6 ca be 26 83 f9 3d 3d 1e 4e 3e
       -0.0608199 -0.39580265 0.12183218 0.20128722
0002a0 4f fc 92 3d e7 5b 1f 3e f2 09 36 3e 13 c4 a3 3b
       0.0717703 0.15562402 0.17777231 0.004997739
0002b0 0d 89 c3 3d ae 0a 60 3d cb 46 da 3d f1 82 06 be
       0.09547625 0.054697685 0.10658034 -0.13135888
0002c0 1b 9e 1a be 67 4f 8f 3c d9 bc 86 be 91 f7 74 bd
       -0.15099375 0.017493917 -0.26315954 -0.05980641
0002d0 95 90 88 bd c0 22 d3 bc 89 5b 05 3d 7a 4f d8 3d
       -0.06668202 -0.025773406 0.032557998 0.10562034
0002e0 d8 bb 5a 3d 0c d3 84 be a1 81 42 bd db 8e da bb
       0.053401798 -0.25942266 -0.047486905 -0.0066698617
0002f0 8d 4f 19 bd 22 8b df bd 09 84 b6 3e fb 98 53 be
       -0.03742938 -0.10915209 0.3564761 -0.20663826
000300 64 e1 c2 3e 7b 9f b0 3d 67 2e 3b 3e 9f e0 ad 3d
       0.38062584 0.086241685 0.1827942 0.08490109
000310 fc 33 16 3e 8c b6 10 3e f7 c3 8c 3e f2 57 9f 3e
       0.14668268 0.14132136 0.2749326 0.31121784
000320 e3 cb 85 3e 6f 67 7b 3e 82 03 58 3e dd 13 d7 3c
       0.26132116 0.24551176 0.21095088 0.026254589
000330 35 ab 42 be 35 c8 cb 3e ed 17 2c 3d ff 06 4b bb
       -0.19010623 0.39801183 0.042015005 -0.0030979512
000340 66 13 e8 3d 2d d2 cb 3d 05 25 34 3e 41 22 b0 3e
       0.11331825 0.09952197 0.17592247 0.34401134
000350 94 e2 d1 3e e0 c4 45 be a3 31 65 be 68 6b 46 3e
       0.40993178 -0.19313383 -0.22382216 0.1937691
000360 31 fe c0 3e 62 d0 a6 3e ab 88 31 3e 82 6f 1d 3e
       0.37693933 0.32580858 0.17337291 0.15374568
000370 0e d9 ac 3d 68 44 6e 3e 45 4c 22 3d a5 24 ea 3d
       0.084398374 0.23268282 0.039623518 0.11432771
000380 84 43 e6 3d f2 41 6a 3e 11 d4 f5 bd b1 2b 86 3e
       0.11243346 0.22876719 -0.12003339 0.2620521
000390 5d a7 25 3f d6 16 69 3e 9a fe e6 3e e5 09 b2 3e
       0.647085 0.22762617 0.4511612 0.34773174
0003a0 3a 14 29 bc 6a d3 3a 3e 1a 96 b6 3e 4a 56 c4 3e
       -0.010319764 0.1824471 0.35661393 0.38347083
0003b0 a0 4a 1e 3e 1c 07 95 3e 52 c8 ad 3e 87 8d 3b 3e
       0.15458155 0.29106987 0.33941895 0.18315707
0003c0 a2 e6 b0 3e ec dd 7f 3e 62 bf 78 3e 55 5e b4 3e
       0.3455096 0.24987 0.24291757 0.3522822
0003d0 a6 db aa be ed 75 12 3e 45 5a b5 3b d4 b2 c8 3e
       -0.33370703 0.14302798 0.0055344426 0.39198935
0003e0 53 db fd 3e 43 df 30 be 54 4d 5a bd 9a 07 ab 3e
       0.49581394 -0.17272668 -0.053296402 0.33404237
0003f0 e3 ab 9a 3e 38 4d 1b 3e 45 40 27 3e 22 0d 73 3e
       0.30209264 0.15166175 0.1633311 0.23735479

lstm.bias_hh_l0 f4 [256]
000000 a7 fd d1 3e 8b 29 cd 3e c3 e0 62 3e 2b 06 2b 3e
       0.41013834 0.40070757 0.22156052 0.16701572
000010 91 b0 a6 3e ce 21 87 3e 6f 2a 9f 3e e7 01 5f 3e
       0.32556584 0.26392978 0.31087062 0.2177807
000020 fa a1 fe 3d 61 8a 13 bd c8 0d 9a 3d 49 d9 47 3e
       0.12433238 -0.03602064 0.0752216 0.19516481
000030 fe 3c f4 bc ad e2 34 3e b8 67 96 3e cc ec 8b 3e
       -0.02981424 0.17664595 0.29376006 0.273291
000040 19 98 5a 3e 34 08 49 3e db f0 a8 3e f7 36 95 3e
       0.21347083 0.19632035 0.32996258 0.29143497
000050 1c 5e a2 3e f1 07 18 be 4e 59 51 be d9 8a 08 3e
       0.31712425 -0.1484678 -0.20444223 0.13334216
000060 6a cd ae 3e 26 3e 8c 3e 15 2c 43 3e f6 7a 26 3e
       0.34141093 0.27391165 0.19059785 0.16257843
000070 87 27 25 3e 3d 34 3a 3e ff d6 64 3e b4 11 3c 3d
       0.1612836 0.1818399 0.2234764 0.04591532
000080 0d e1 8d 3e 69 ad 9a 3e 9e 29 94 bc f6 64 da 3d
       0.27710763 0.30210426 -0.01808625 0.10663788
000090 d1 05 1d 3f 84 72 e4 3e cf 50 ed 3e 9c 2e ee 3e
       0.61337 0.44618618 0.46350715 0.46519935
0000a0 fa c9 a4 bd 0d ad 35 3e c5 ce a4 3e cf 24 08 3e
       -0.080463365 0.17741795 0.32189003 0.13295291
0000b0 cb 3d b6 3d 4a 70 9b 3e 2a f2 28 3f c2 ce a4 3e
       0.08898505 0.30359107 0.65994513 0.32188994
0000c0 83 f3 0c 3e e8 b4 84 3d be 62 7e 3e 1a f1 00 3f
       0.13764767 0.06479818 0.24842355 0.5036789
0000d0 00 89 20 be 79 d1 02 3d fe 24 46 3e 77 28 95 3e
       -0.15677261 0.03193805 0.19350049 0.29132435
0000e0 97 0f f2 3e 9b 2a 0e be 09 8f a4 3d 09 e5 58 3e
       0.4727752 -0.1388344 0.08035094 0.2118112
0000f0 a6 13 86 3e 26 ee 8d 3e bf 53 c4 3e 88 f5 bc 3e
       0.26186866 0.27720755 0.38345143 0.36906075
000100 ae 9f 09 3e 17 e9 12 3e 71 d4 ea 3d 5b 76 35 3e
       0.13439819 0.14346729 0.11466301 0.1772093
000110 57 71 e7 3d df 4a 5c 3e 71 0d b6 3d ff 77 28 3e
       0.11300915 0.21512936 0.088892825 0.16452025
000120 0c 2c 49 3d 42 5c 05 3e 35 f9 99 3b c1 d6 98 3d
       0.049114272 0.13023475 0.0046988972 0.07462836
000130 e0 d5 bc 3c 6c ce 1f bc 04 1c 86 bd eb c0 06 3e
       0.023051202 -0.009753805 -0.06548312 0.1315953
000140 e7 5e b6 3d c6 98 32 3d 82 d4 6f bd c9 5f cc 3d
       0.0890482 0.043602727 -0.058552273 0.09979207
000150 f4 16 f8 3d e0 e9 47 bd 0f 3b ab 3d 41 4b 79 3d
       0.12113753 -0.048807025 0.08360874 0.060862783
000160 d4 e4 8b bd 1a e1 c9 3c 5d 5a 8f 3d 38 0f 27 bc
       -0.06830755 0.02464347 0.06999657 -0.0101964995
000170 c2 df 2b 3e 97 cf 47 3e cc 6f 3b 3e 5c 88 3a bd
       0.16784576 0.19512783 0.18304366 -0.0455402
000180 f2 f8 c5 3d 02 30 cf bd e8 57 92 bd 1a 92 00 bb
       0.09666623 -0.10116579 -0.07145673 -0.0019618333
000190 a8 eb 3e 3d be 53 f6 3d bd f9 a1 3d ff 25 b6 bd
       0.046611458 0.12027691 0.07908962 -0.08893966
0001a0 67 10 d1 bd a1 0b 97 bc 0e ee fd bd 05 70 c3 3e
       -0.102082066 -0.018438162 -0.12398921 0.38171402
0001b0 dd 42 58 3e 4f 76 9b bd 9b 61 26 3e 75 c3 15 3d
       0.21119256 -0.07590925 0.16248171 0.036563355
0001c0 33 54 b2 3d 6d c8 17 3b 1d 36 80 3b 25 56 09 3d
       0.08707466 0.0023160235 0.003912701 0.03352942
0001d0 be da 01 3d c8 31 8c 3e 26 77 30 bb a2 00 34 3c
       0.03170275 0.2738173 -0.0026926487 0.010986479
0001e0 47 5b b1 3d 3e 90 17 3d 46 86 8a 3a 7a 12 21 3e
       0.08659988 0.037002794 0.0010568581 0.15729704
0001f0 56 4e 0d 3e 1e 0c 16 bd 7e 53 93 3e 6a d1 d2 3d
       0.13799414 -0.03663265 0.28774637 0.10293849
000200 1c ad 17 3e 73 a8 70 3d 4d 2d 05 3c d1 bf a3 3e
       0.1481213 0.058754396 0.008128476 0.31982282
000210 9f c7 52 be b3 f5 e5 bb fb f7 e6 3d 0c ae e5 3d
       -0.20583962 -0.007017815 0.11277767 0.112148374
000220 e3 a5 5b be 80 48 e0 bc 39 ee de bd 3b e0 67 be
       -0.2145 -0.02737832 -0.10885281 -0.22644131
000230 bd e3 be bd cc 4e 43 bc 38 9a 8c 3d 51 cc f7 3b
       -0.093207814 -0.011920642 0.068653524 0.007562198
000240 5e 5f f0 3b 53 1b 8c 3d 0a 9f 8b bd c5 73 06 be
       0.0073355874 0.06841149 -0.06817444 -0.131301
000250 e2 89 2e 3e a1 98 cc 3e 7c 21 3d be 61 51 72 bd
       0.17044786 0.39960197 -0.18469805 -0.05915964
000260 41 3f 9e 3e 80 20 90 3c ff f9 40 3d fd a4 37 be
       0.30907634 0.017593622 0.047113415 -0.17934032
000270 29 26 cb 3d f8 6e 5e bd d6 eb 98 3e 3c f9 9b bd
       0.09919388 -0.054305047 0.2986743 -0.07615897
000280 f3 ce 1d be 6e b6 de bb 77 88 21 be f0 fc f2 bc
       -0.15410976 -0.0067966497 -0.15774713 -0.029661626
000290 8d 5d 52 bc 3d 43 c0 be dc 72 2a 3d 10 de e3 3d
       -0.012839687 -0.375513 0.041613445 0.111263394
0002a0 54 17 7e 3e 18 26 92 3d 12 12 40 bc 55 8b eb 3d
       0.24813586 0.07136172 -0.011723058 0.11501185
0002b0 05 a4 53 3e 1b 5e 8d 3e af 06 fd 3d 94 e8 38 be
       0.20668037 0.2761086 0.123547904 -0.18057472
0002c0 90 7c d8 bd f5 9c a0 3d 7f 17 87 be c9 df d5 bc
       -0.105706334 0.07842437 -0.26385114 -0.026107686
0002d0 5c 82 0c 3e ed 96 ee bd 9b 88 5a bd d7 d5 22 3d
       0.13721603 -0.116498806 -0.053352933 0.039754715
0002e0 8e 30 f4 3b de bd 83 be ae 39 be b9 91 18 48 3d
       0.007452077 -0.25730795 -0.000362826 0.048851553
0002f0 7e 72 ee bd 5e 77 cb bd eb b0 94 3e 32 10 87 be
       -0.116429314 -0.09934877 0.29041228 -0.26379544
000300 1a 2d 87 3e 5b 4f b0 3d 63 e5 ad 3e 27 35 8d bc
       0.26401597 0.08608886 0.3396407 -0.01723726
000310 50 c4 9c 3e 9a a6 90 3e 31 c1 1a 3e e4 f3 d0 3e
       0.30618525 0.28252107 0.15112759 0.40811074
000320 34 81 df 3d 7b a5 ce 3d d6 6e 50 3e 87 7d cb bd
       0.109133154 0.10090157 0.2035478 -0.09936052
000330 19 93 5f bd b5 b7 b2 3e 12 f8 72 3e 4a e9 ca 3d
       -0.054583643 0.34905782 0.23727444 0.099077776
000340 48 69 89 3d de dc 81 3e 9f 7f 4c 3e a1 e5 69 3e
       0.06709534 0.2536382 0.19970559 0.22841503
000350 40 35 d6 3e 3c 85 20 be 11 df 3a bd 74 d9 f1 3d
       0.41837502 -0.15675825 -0.04562289 0.11809054
000360 9e 15 3d 3e b8 35 a0 3e f8 74 a7 3e 3d 2d dd 3d
       0.18465278 0.31290984 0.32706428 0.10799644
000370 fd 7c a1 3e ae 4a 63 3e 17 b5 af 3d ed 51 10 bd
       0.3154067 0.22196457 0.08579462 -0.03523438
000380 e7 e4 06 3e c2 23 67 3e 56 04 ec bc 22 aa a3 3e
       0.13173257 0.22572234 -0.028810661 0.3196574
000390 eb 54 2f 3f 74 8d 71 3d 8c fe b7 3e b5 e0 b8 3e
       0.6848895 0.05897279 0.3593639 0.36108938
0003a0 fa a6 29 bc 8e e8 8b 3e 56 cc 09 3f 1a 11 8c 3e
       -0.010354752 0.27325863 0.53827417 0.27356797
0003b0 e6 60 b6 3d 32 f3 ae 3e 95 e9 13 3f 6e 8a 86 3e
       0.08905201 0.34169918 0.5777829 0.26277488
0003c0 be 3d a2 3e 41 8e 41 3e 42 bc 68 3e 27 22 bd 3e
       0.3168773 0.18901922 0.22728065 0.3694012
0003d0 10 ef 15 be 0f 30 46 3e 91 be 98 3d 8a fe da 3e
       -0.14641976 0.1935427 0.07458223 0.42772323
0003e0 47 1d f0 3e 39 a0 5e be 00 9f a4 3c 62 e0 ab 3e
       0.46897337 -0.21740808 0.020095348 0.33569628
0003f0 d4 7b 73 3e e9 c3 b1 3c 4e f1 b6 3e 28 46 72 3e
       0.23777705 0.021699863 0.35730976 0.23659575

lstm.weight_ih_l0_reverse f4 [256, 25]
000000 64 48 cb bd 7e 92 67 3e 1d c9 a9 be 0d 2c 31 3f
       -0.09925917 0.22614476 -0.3316125 0.6920784
000010 f0 3d 6a bf b9 59 86 be d6 2e d5 3e 19 7c 6d 3d
       -0.9150076 -0.26240328 0.41637295 0.057979677
000020 6c d0 98 be 65 86 0d 3f df 24 26 bf 12 b7 66 3f
       -0.29846513 0.55283195 -0.6490001 0.90123093
000030 33 c6 01 be 12 b8 6a bd d5 35 b4 be 6c e6 d4 be
       -0.12673263 -0.05730445 -0.3519732 -0.41582048
000040 c5 b4 40 3e 11 88 6d bf 30 c7 ac bc d1 b8 f3 3e
       0.18818958 -0.92785746 -0.021091074 0.4760194
000050 72 74 43 3e 98 1b 0e 3f 3d 91 51 bf 77 6d e8 be
       0.19087389 0.55510855 -0.8186224 -0.45396015
000060 9b 74 58 bf d4 36 73 bd af 24 9c be 06 e4 91 be
       -0.84552926 -0.05937846 -0.30496737 -0.2849428
000070 97 d7 0c 3e 8d 94 18 3e 9e 9d 9d be 25 30 40 3e
       0.13754116 0.14900418 -0.30784315 0.18768366
000080 ea 8c c0 bd 47 e1 00 bf bb 95 38 3e 43 6d 3a 3e
       -0.09401877 -0.50343746 0.18025868 0.18205743
000090 db e1 f4 bd 97 5b 19 bf 36 ac be 3e 5f 96 8f bd
       -0.11957141 -0.5990538 0.37240762 -0.07011103
0000a0 85 3b 04 3f df 0a 51 3f b3 ef 5f be c2 c8 5e be
       0.5165332 0.8165721 -0.21868782 -0.2175627
0000b0 32 ab 09 be 2f 69 ed be 24 65 0b be 99 f1 59 3d
       -0.13444212 -0.4636931 -0.13612801 0.05320892
0000c0 d3 1b b2 be fa 65 a0 3d 8d 47 e0 bc c0 f6 87 3e
       -0.34786853 0.078319505 -0.027377868 0.26555443
0000d0 89 7b 9b 3d be 3a 36 3d 38 80 8a be 11 fe 9f 3e
       0.07591922 0.044489615 -0.27050948 0.31248525
0000e0 c3 7a 71 3f c6 c6 05 3a 99 a7 02 bf 6a 33 a6 3e
       0.94327945 0.0005103167 -0.51036984 0.324611
0000f0 0d bf 4b bf 04 ad 88 3e f8 b9 2c bf d5 2b 45 3e
       -0.79588395 0.266945 -0.67471266 0.19255002
000100 c8 db 54 bf 0a 98 88 be bb e9 9b 3e 6f 3c a8 3d
       -0.8314786 -0.26678497 0.3045176 0.08214652
000110 ca bc 09 bf 9e 4a 5a bf 2b 31 cf bd 42 07 b4 bd
       -0.53803694 -0.85270107 -0.101168 -0.08790447
000120 05 c6 4f 3e 3f f8 1d 3f cf d5 77 be ac bb 0d 3e
       0.20290382 0.6170692 -0.24202655 0.13841122
000130 8a 97 1d bf 76 75 09 3e 55 0f 06 3f 5c 88 ed 3c
       -0.61559355 0.13423714 0.52367145 0.028995685
000140 74 81 c5 3e 79 ba 10 3f b9 b1 a0 3e e2 4b 45 bd
       0.38575327 0.56534535 0.31385592 -0.04816807
000150 1d c3 e2 3d a6 9d 44 bf 50 cb 08 be 02 18 0e bd
       0.11072371 -0.7680305 -0.13358808 -0.034690864
000160 51 6c 3d bf 8a 2f 1e bf 11 71 3f 3f 4c 5c be 3e
       -0.739934 -0.6179129 0.747819 0.37179792
000170 20 96 12 be 9c 3b 5a 3e 06 dd 42 3f 9a e8 cc 3e
       -0.1431508 0.21311802 0.76118505 0.4002121
000180 58 f5 e0 3e 15 17 a7 3d 6e 5c 0c 3f 31 af a3 3d
       0.43937182 0.081586994 0.54828537 0.079923995
000190 27 e4 64 be 5f 9b 9d be fe 86 6f 3e 1f bc 13 3f
       -0.22352658 -0.307826 0.23391339 0.57708925
0001a0 01 08 0e bf 01 fa 92 3c 48 7b 32 be 1f 2f a9 be
       -0.55480963 0.017941477 -0.1742984 -0.33043763
0001b0 75 81 06 be 35 b9 cc be e4 6e db bc c1 a0 db 3d
       -0.13135321 -0.39985052 -0.026786275 0.10724021
0001c0 ae b3 3f bd f8 28 cd be 29 2b e0 bd 9e e7 70 3b
       -0.046802215 -0.4007032 -0.10945732 0.0036759148
0001d0 2e 71 83 3e e0 e5 78 3e ef 20 76 3e 31 71 52 3e
       0.25672287 0.2430644 0.24036 0.20550992
0001e0 b4 7d 7f 3e 83 ef be 3e bc 46 92 bd 5e e4 57 bb
       0.24950296 0.37292108 -0.07142398 -0.0032942514
0001f0 5d 8d 01 bf 9e 93 22 be 3d 53 48 3e 5e f5 a9 3e
       -0.5060633 -0.15876624 0.19563003 0.33195013
000200 19 40 db bc 0d ae b6 3e 28 c5 4a be 8e c8 1d be
       -0.026763963 0.35679665 -0.19801772 -0.15408537
000210 6f 7f 2f be 1b 47 8a 3e 5c 74 59 be fa b4 f6 3e
       -0.17138456 0.27007374 -0.21235794 0.4818495
000220 4a e6 29 3d 86 5d 96 bd b0 db 60 3d 06 53 57 3d
       0.041479386 -0.07342057 0.05489701 0.05256941
000230 b2 de f7 bc 7a a4 0b 3e fe 12 fb bc 13 b2 29 be
       -0.030257557 0.13636962 -0.030648705 -0.16571836
000240 d8 09 ef 3e 42 f0 45 3e d0 3a 03 bf 8e d5 78 be
       0.46687198 0.19329932 -0.51261616 -0.24300215
000250 c5 2e b7 be 2d b0 24 be 1a bf c8 3d 40 be 06 bf
       -0.3577787 -0.1608283 0.09802075 -0.5263405
000260 70 0e 0d 3e eb 01 3a be 47 c3 ce be dd ee 7f bc
       0.13775039 -0.18164794 -0.4038336 -0.015620914
000270 e7 b7 1b 3f 1c f7 40 3f ce fc 7e be bf 44 fe 3d
       0.6082749 0.7537706 -0.24901125 0.12415456
000280 e4 0a 06 3f 6d 3b 79 be 35 23 85 be 9c ef 5d bf
       0.5236037 -0.24339075 -0.26003423 -0.8669374
000290 8f 20 62 3e 6a 47 04 3e 22 4f 40 bd ba 9c be 3e
       0.22082733 0.12917867 -0.046950467 0.37228948
0002a0 3f ac f5 be 5c c2 b4 bc 3c bb 2d 3f dd 39 37 3f
       -0.47982976 -0.022065334 0.6786382 0.7157267
0002b0 4b 86 45 be 03 cd 8b 3e 40 a0 5a 3e aa 87 43 3e
       -0.1928951 0.2730485 0.21350193 0.1909472
0002c0 26 ed 93 be 74 50 79 3e a5 87 fb be d6 7c 49 bf
       -0.28891867 0.24347097 -0.49126926 -0.7870611
0002d0 9e 45 2c 3e e4 6f ba 3e da f1 e0 3e 3b bf fa be
       0.16823432 0.3641349 0.43934518 -0.48974022
0002e0 38 41 cc be 13 6e 2f 3e 77 e2 86 be ca 1b b5 be
       -0.39893508 0.17131834 -0.26344654 -0.35372764
0002f0 4f fe 2b 3c 65 23 79 3f df 79 79 be 9f 2f d4 be
       0.010497644 0.9731963 -0.24362896 -0.41442582
000300 76 29 cd 3e d8 aa ac be 1a d5 9c be 9f 1f 17 3c
       0.40070695 -0.33724093 -0.30631334 0.009223848
000310 a0 88 ab be 6f 98 76 be 58 3d 7c 3e cb 2e db 3e
       -0.33502674 -0.24081586 0.24632776 0.42809138
000320 75 26 93 3e 51 08 31 be 94 0d 70 3e a3 87 95 be
       0.28740278 -0.17288329 0.2344268 -0.29205045
000330 26 2c fa be b0 5b 54 be 58 0b 2d 3e 4d 7a 05 be
       -0.48861808 -0.20738101 0.16898859 -0.13034935
000340 89 df 08 bf e8 ce 2d be cf e0 4c 3e 27 8c 08 3e
       -0.5346609 -0.1697346 0.20007633 0.13334714
000350 48 77 08 bb d7 08 8c bd a0 17 b0 be 90 d0 96 3e
       -0.002082305 -0.068376236 -0.34393024 0.29455996
000360 3c ef 09 be 7a 84 01 bf 6c d9 ae bc 25 70 2b bd
       -0.13470167 -0.5059277 -0.02134391 -0.041854996
000370 98 29 ef be 05 11 59 3d cd 87 b4 3e dd 8e 1f 3d
       -0.4671142 0.052994747 0.35259858 0.038954604
000380 c8 fa 52 3e 63 3d 35 bd 21 d1 1b bd e5 f1 2f bf
       0.20603478 -0.044247996 -0.038041238 -0.68728477
000390 10 3c bd 3e 6d e1 f5 be 95 e2 e1 3e 95 e5 b9 bd
       0.36959887 -0.4802355 0.4411818 -0.090769924
0003a0 47 22 ad 3e 81 9d e7 3e 08 1f a2 3d 38 08 06 bf
       0.33815214 0.45237353 0.07916075 -0.5235629
0003b0 14 89 32 3e e9 9b de be 8f 44 cb bd 7c f4 32 3f
       0.17435104 -0.43478325 -0.09925186 0.69904304
0003c0 46 e1 0d bf a7 98 bd be 85 62 ab bd 84 14 17 be
       -0.55421865 -0.37030527 -0.083684005 -0.1475392
0003d0 db 59 1a 3e 5f db 16 3f fb 8f b7 3d 6a 1f c7 be
       0.1507334 0.58928484 0.08963009 -0.38891155
0003e0 8a ad 01 3f 15 46 cd be 1b aa 33 3f b7 44 1e 3f
       0.50655425 -0.4009253 0.70181435 0.618236
0003f0 42 3a a9 be 57 c1 60 bd 01 fa 47 bf 40 0d 32 3e
       -0.3305226 -0.054871883 -0.7811585 0.17387867

lstm.weight_hh_l0_reverse f4 [256, 64]
000000 7d 89 b9 3e 74 89 40 3f 2c 59 fd 3d 92 b0 ea 3d
       0.36237708 0.75209737 0.12370524 0.11459459
000010 47 15 23 be 0f 30 08 be 35 db f9 3e 97 27 30 3d
       -0.15926085 -0.13299583 0.48800054 0.043006506
000020 38 cd e0 3d c2 03 26 3d c8 35 b7 bd d1 21 9b 3c
       0.10976642 0.040530927 -0.08945805 0.018937023
000030 4e ec 5b 3e bd 34 ee 3e a4 71 5a bd 3f b5 2d 3e
       0.21476862 0.4652461 -0.053331032 0.16963671
000040 ae db 05 3e 79 31 13 3e 41 be 2b 3d 6e 6d df 3d
       0.13072082 0.14374341 0.041929487 0.10909544
000050 df 62 1b be b3 f4 97 3e 91 8d 19 3d d1 51 a5 bd
       -0.15174435 0.29678878 0.037488524 -0.08072246
000060 c7 2d 61 be 45 2a 7a 3e 78 c0 d4 be 19 19 66 3d
       -0.21990119 0.24430187 -0.41553092 0.05617628
000070 91 02 c8 be e9 c8 86 3e db 23 af 3d 6b 72 3b bb
       -0.39064458 0.26325157 0.08551761 -0.0028602134
000080 27 e4 25 3e 36 db 1b 3e 74 53 1e 3e df de aa bd
       0.16200314 0.15220341 0.15461522 -0.083432905
000090 0c 87 22 3d f8 4a 19 3e 46 40 05 3e d0 f0 8f be
       0.039679572 0.14970005 0.130128 -0.28113413
0000a0 89 7b 94 be dc ec 06 3d a9 c3 a8 be 49 cf 8c 3b
       -0.290005 0.03294073 -0.32961777 0.0042971713
0000b0 b5 dd c4 be 64 3a 53 be 75 88 4a bc 6a a9 ad bd
       -0.384504 -0.20627743 -0.012361635 -0.08479579
0000c0 ae 15 83 3c ad 1c ce bd cd d0 a2 3d d9 4f 80 be
       0.016001549 -0.10064063 0.07949982 -0.2506092
0000d0 26 2f 2d 3e a7 97 a4 bd d2 c3 2c 3e 10 28 3b be
       0.16912517 -0.08036738 0.16871575 -0.18277001
0000e0 b7 c3 8f be c0 d5 20 bf e0 97 8e bd ce 7a 03 3e
       -0.28079006 -0.62826157 -0.069625616 0.12839815
0000f0 9e 58 7a be 82 f8 7b bc 2e 3b 38 3d 84 bb 1a 3e
       -0.24447867 -0.015379073 0.044978313 0.15110594
000100 a3 b8 a0 3e 0c ff 7e 3e ff ee 3f bd 03 1d 58 3c
       0.31390867 0.2490198 -0.046858784 0.013190511
000110 9b c1 c7 3e 1d ea 80 3c 22 f2 c6 3d f5 1c 9d 3d
       0.39014897 0.015736634 0.09714152 0.07671539
000120 43 12 6a 3e 28 d7 23 3d 73 08 00 3e d0 aa 2e 3d
       0.22858529 0.04000011 0.12503223 0.04264337
000130 2d 28 01 3c 96 2a 11 bd 52 76 64 39 14 18 11 be
       0.007883114 -0.035441004 0.00021787852 -0.14169341
000140 41 ed ad 3d 9f 70 63 3f fa 20 03 3d 29 1a 1c 3d
       0.08492518 0.8884372 0.03201387 0.038110886
000150 51 d3 1b be 2d d1 15 be 2e 10 7f bd de 64 8b bd
       -0.1521733 -0.14630575 -0.06227129 -0.06806348
000160 be 26 a6 bd 0e d7 86 3e 0a bb 79 3e 89 51 d2 3d
       -0.08112858 0.2633595 0.24387756 0.10269458
000170 8b 4a 10 bf ff 8a 0c be dd aa 39 3d 76 16 64 3e
       -0.56363744 -0.13724898 0.045328964 0.22274193
000180 d6 fe 78 3e 96 5c 50 be 73 70 d3 3e 83 f6 b7 3e
       0.24315962 -0.20347819 0.4129673 0.3593026
000190 33 97 dd bd 23 c4 dd 3d d0 03 ed 3d 46 16 68 be
       -0.108198546 0.10828426 0.11572993 -0.22664747
0001a0 33 2a 5f bd d8 30 0b be 4e 50 9d 3e 33 01 27 3e
       -0.054483604 -0.13592851 0.3072533 0.16309051
0001b0 da 5a 87 be 32 79 8d 3c e5 44 12 be d6 58 37 bf
       -0.26436502 0.017269704 -0.14284094 -0.7161993
0001c0 49 fd fb bd 9e f2 bc 3c 4c 1b 0b bd 3d c9 0c 3e
       -0.1230417 0.023064908 -0.03396158 0.13748641
0001d0 5f 98 a9 3d a7 0f 19 be 57 24 11 3d ba 52 c0 3d
       0.082810156 -0.14947377 0.035435047 0.09390779
0001e0 fc 10 78 3e eb d9 0e bf 18 23 96 3e 85 a7 2b be
       0.24225229 -0.55801266 0.2932365 -0.16763122
0001f0 27 c7 a5 be 8f f5 cc bd 4a f3 fd be b4 a5 5d 3e
       -0.32378504 -0.10007774 -0.49599677 0.21645242
000200 54 63 26 be 50 2d 41 3e 53 fc be 3d 62 d1 f4 3d
       -0.16248828 0.18864942 0.09325471 0.11953999
000210 d8 07 77 3d b2 d9 9f 3e 7d 21 8a bd 35 17 83 3e
       0.060310215 0.31220776 -0.06744669 0.25603643
000220 56 a8 d8 be 10 98 e7 bd 6d ae 66 3d d1 08 90 3e
       -0.4231593 -0.113083005 0.05631869 0.28131726
000230 26 4f 7d 3e fd a3 0a be 6e a4 de 3d 00 f4 e2 3c
       0.24737224 -0.13539119 0.10871206 0.027704239
000240 42 a9 53 3e 60 02 43 be 36 94 9b 3b 6d d6 8d bd
       0.20670035 -0.19043875 0.0047478927 -0.06925664
000250 06 dd 22 3e 41 12 e8 3d 68 7a 9e bb 41 5b 47 3c
       0.15904626 0.11331607 -0.0048363693 0.012167753
000260 fc ec a4 3e ad b1 ad be 88 b4 35 be d7 c0 a5 3c
       0.32212055 -0.33924618 -0.17744648 0.020233555
000270 90 b2 22 3f 93 12 88 3d 06 50 95 3e be a5 56 be
       0.63553715 0.06644168 0.29162616 -0.20961663
000280 3e 26 4e bd 18 47 03 bd 90 43 98 bd 46 81 91 3d
       -0.05032944 -0.032050222 -0.074347615 0.07104735
000290 92 cc dd 3d f9 71 cd bd 2f ac cc 3d 68 5e 64 3e
       0.10830034 -0.10031504 0.09993779 0.22301638
0002a0 b4 d8 d4 bc 2a 8f 60 bd 0b 02 19 be 92 85 49 3c
       -0.025982238 -0.054824032 -0.14942186 0.012299912
0002b0 b7 a6 0f 3e 77 c5 58 3e c7 b9 c0 bc bb 7e d3 3e
       0.1402844 0.21169077 -0.023526086 0.41307625
0002c0 89 f4 79 bd b8 63 6c bd 06 bb 16 bd 85 f9 82 3d
       -0.061024223 -0.057712287 -0.036799453 0.06395248
0002d0 a9 c6 06 be 33 50 6e bd d4 0b 7c bc 80 11 c5 bc
       -0.1316172 -0.058181953 -0.015383679 -0.024056196
0002e0 cb 00 89 be 53 f4 27 3e 7d 18 43 be 62 5c ac 3c
       -0.26758417 0.16401796 -0.1905231 0.021040145
0002f0 4d bc ec 3e 7e 15 98 be 6e 85 bb bd 64 65 bb bb
       0.46237412 -0.29703897 -0.09156309 -0.005718874
000300 14 42 ef bd 66 bb 05 3f f9 9e 05 be 28 41 d8 3d
       -0.11682525 0.5223907 -0.13048925 0.105593026
000310 f1 14 fc 3e 9e 89 ca 3d f1 d2 11 3f e2 2d 79 3e
       0.49234727 0.0988953 0.56962496 0.24333909
000320 da dd cb 3d 02 18 13 bd ba d8 93 3e 2b 7e 17 bd
       0.09954424 -0.035911568 0.28876287 -0.036985558
000330 a4 a6 c8 3d f7 33 c7 3d 1e e9 46 3d ab 10 bc 3d
       0.09797409 0.097267084 0.04856216 0.09182867
000340 4a c8 8c 3e 5e 56 34 be 1d 2d 6c 3d f1 81 11 3d
       0.27496558 -0.17611071 0.05766021 0.035524312
000350 70 67 23 be 04 45 17 3e d5 d9 80 3e 88 2e 57 bd
       -0.15957427 0.14772421 0.25166193 -0.05253461
000360 19 e3 5f bd c5 0b 79 be 09 c4 b5 3e 8c 82 4e bd
       -0.054659937 -0.24320896 0.35501125 -0.050417468
000370 51 3f ec 3d 65 bb 21 3e 5c 4f 5e 3d 84 63 bb 3c
       0.11535514 0.15794142 0.0542749 0.022874601
000380 21 5c 89 bc 33 53 77 3e 07 df 38 be e3 4b 4e be
       -0.016767563 0.24152832 -0.18053828 -0.20146136
000390 12 53 0b be 0a 16 92 3d 40 ac 22 3e 18 9f b2 bb
       -0.13605908 0.0713311 0.1588602 -0.0054510944
0003a0 f3 6d 15 3d ca c8 aa bc 89 a1 2b be 9f 93 d2 be
       0.03648181 -0.020847697 -0.1676084 -0.4112825
0003b0 cf 58 1b 3c a9 3c d8 bd 96 dc ba bc 28 b3 14 3f
       0.009481623 -0.10558445 -0.022810262 0.5808587
0003c0 38 e8 0a 3e df c7 b1 be 15 ba 24 bb e5 89 31 bd
       0.13565147 -0.34722802 -0.0025135328 -0.043344397
0003d0 9f a3 08 3e 64 6c ce bd e2 e5 ce bc 14 70 4f 3e
       0.13343666 -0.100792676 -0.025256101 0.20257598
0003e0 86 59 01 bb e1 e7 37 bc b8 79 50 3e 16 a6 9f be
       -0.0019737198 -0.011224718 0.20358932 -0.311814
0003f0 d0 46 88 be 8d 4d 18 be c1 df bb 3d c2 b5 09 bf
       -0.26616526 -0.14873333 0.09173537 -0.53792965

lstm.bias_ih_l0_reverse f4 [256]
000000 d5 13 17 3e c7 ec 12 bd 29 b2 b8 3e 2e 01 3f 3e
       0.14753659 -0.03587034 0.36073425 0.18652794
000010 08 66 8d 3c e1 13 5e 3e 36 f9 55 3e dd ba 10 3e
       0.017260566 0.2168727 0.20895848 0.14133783
000020 c9 02 1b be 3d d5 2d 3f 23 c1 fb 3d 90 11 a4 be
       -0.15137781 0.679035 0.12292697 -0.3204465
000030 04 78 df 3e ac 2c f8 3c 50 77 87 3d 33 62 99 3d
       0.43646252 0.030294739 0.06614554 0.07489433
000040 95 2f 91 3e d3 32 29 3e c6 65 c5 3e f4 8c 61 3d
       0.28356615 0.16523294 0.3855421 0.055066064
000050 e0 9b 04 3e 8e 3d 8e 3e 8a ef 5b 3e 36 87 aa 3e
       0.12950087 0.27781337 0.21478096 0.33306283
000060 ed 00 8a 3e 80 c8 24 3e ea 20 21 be e6 9e 91 3e
       0.2695383 0.1609211 -0.15735212 0.28441542
000070 ca de 04 3e aa 13 5f 3e 7e 6f a3 3e 25 74 38 3e
       0.12975612 0.21784845 0.31921 0.18013056
000080 f4 76 48 3e 46 7d 97 3e f1 3c 6e bb ec 0d 04 bc
       0.19576627 0.29587764 -0.0036352242 -0.00805996
000090 cb 19 b8 3e 1b dc 6a 3e 3e c2 7e 3d 6d 8d 6d 3d
       0.35957178 0.22935526 0.062196963 0.057996202
0000a0 ea 25 94 be 99 86 6f 3e 86 df 18 bd 37 89 db 3e
       -0.28935176 0.23391189 -0.037322544 0.42878124
0000b0 ac 2d fe 3d 1c cf 2e be e6 5d 69 3e 3b c9 38 3d
       0.12411055 -0.17071193 0.22789726 0.045113783
0000c0 83 27 48 be 3e 71 3f 3e 05 db 8a 3e 0a a6 85 3e
       -0.19546323 0.18695542 0.27120224 0.2610324
0000d0 98 3b 7e 3e e2 ce 8f 3d e0 32 d9 3e fc 35 bb bc
       0.2482742 0.07021882 0.42421627 -0.02285289
0000e0 e4 4b 7e 3d 44 46 bf 3d 8f 24 4d 3d fe 84 1e 3e
       0.062084094 0.09339574 0.050083693 0.1548042
0000f0 89 a5 f2 bd c3 44 21 3d 04 65 d5 3e ff c0 32 3e
       -0.118479796 0.039372217 0.4167863 0.17456435
000100 2d e5 20 be 9d 15 a0 3d 23 cf 31 3d 76 af 81 3c
       -0.15712424 0.078166224 0.04341043 0.015830737
000110 40 d7 5f 3d 21 e0 a3 3d c8 58 91 bd bd 37 fe bc
       0.054648638 0.080017336 -0.07097012 -0.031032437
000120 f3 0c 89 bd 23 ac 82 bc 0d a9 4d be 8f f9 ab bd
       -0.06691923 -0.015951222 -0.20084019 -0.08397209
000130 cc 39 10 3e f3 70 d2 3d 19 03 7c bd ab ba 8d bc
       0.14084548 0.102754496 -0.06152639 -0.017300924
000140 21 bf b7 bd 75 34 92 3e 16 30 a0 bd 5d 1c b1 3d
       -0.08972002 0.28555647 -0.07821672 0.08647988
000150 3e 04 3d bd 1a f7 73 3c 5e 95 c0 3d eb e0 ab 3d
       -0.046146624 0.014890457 0.094034895 0.08392509
000160 9d 03 1a 3e af 4a 8a bc 64 71 ec 3d 44 48 dc bd
       0.15040441 -0.016881315 0.11545065 -0.10755971
000170 ca b4 fb bd 46 07 1d 3e 6b 2a fa 3c bb 67 43 3d
       -0.12290342 0.15334806 0.030537805 0.047706347
000180 8b c2 3f 3e 39 c0 2f 3e c5 95 74 bd 7f 5a 9e bd
       0.18726556 0.17163171 -0.059713144 -0.077321045
000190 25 82 13 bd 3f ad 85 3b 3e 24 59 3d 3d 5f 8c bd
       -0.036012787 0.0040794904 0.05301308 -0.06854103
0001a0 a7 9a 02 3d 32 05 f8 3c 6b c7 20 3e b8 f8 90 3c
       0.03188577 0.030275915 0.15701072 0.017696723
0001b0 99 cb ba 3d 8b 39 ef bd 38 ff c8 3d 68 ae 57 3e
       0.091208644 -0.11680897 0.09814304 0.21062624
0001c0 70 3a c2 3c 86 24 a9 3c 5b 6a d5 3b 8b d4 d2 3d
       0.023709506 0.020647299 0.0065129227 0.102944456
0001d0 a8 f7 8d 3c dd 60 1a 3e fe 6c 1f 3e 6d 1f db 3c
       0.017330006 0.15076013 0.15568921 0.026748383
0001e0 62 2f ee 3d 87 f9 ad 3d ec 2b 6b be 72 6d ed bd
       0.11630131 0.08494859 -0.22965974 -0.11593141
0001f0 e7 41 32 bc 15 26 9a bc 5d ed ee 3d 4e c0 e3 bd
       -0.01087997 -0.018816987 0.11666367 -0.111206636
000200 d8 86 4a be ee b3 b8 be 24 d7 2d 3d 6f a2 c6 3d
       -0.19778001 -0.36074775 0.042441502 0.096989505
000210 99 4f c1 bd 61 eb d8 3d 02 b3 dc bd 37 cd 40 3b
       -0.0943901 0.1059177 -0.107763305 0.0029419193
000220 d2 a4 81 be fe 6a e8 be 72 d7 5b bd 27 16 c7 bd
       -0.2532106 -0.4539413 -0.05367226 -0.09721022
000230 9d a5 8e 3e 7f 61 bc bd 0e 4c 54 be 9d 5f 08 3e
       0.27860728 -0.091982834 -0.20732138 0.13317724
000240 ee 34 4b 3e b0 62 2e 3e 9e 47 7a 3e 35 fd 78 3d
       0.1984441 0.17029834 0.24441382 0.060788352
000250 b8 02 94 3d 4e 66 31 3d e6 2f da 3e 56 8d 81 3e
       0.07227081 0.043310456 0.4261467 0.25303143
000260 8d 89 da bd 1c 41 d7 bc b0 8a f8 3d 34 02 be 3e
       -0.10670767 -0.026276164 0.121358275 0.37111056
000270 e8 1e 7b 3e 1d 11 8d be 4f 30 f7 3e 49 e2 34 3e
       0.24523509 -0.2755212 0.48279044 0.17664446
000280 15 5f 7e 3e e3 19 82 be 6a c3 bf bd 36 36 d0 bd
       0.24840958 -0.25410375 -0.09363444 -0.1016659
000290 5b ff 0a bf ca c2 3a bd c8 fc 70 3e c0 b2 99 bd
       -0.5429589 -0.04559592 0.23533928 -0.07504797
0002a0 d5 4d fa 3e 67 da 14 be 62 3f 6a 3e c3 55 b2 bd
       0.48887506 -0.14536439 0.22875741 -0.08707764
0002b0 3e 70 ec 3d 23 aa 04 3d 2e c2 02 be e7 21 b9 3d
       0.11544846 0.032388818 -0.12769386 0.090396695
0002c0 ca b5 66 3c 65 17 ce be fe 45 eb 3c 9d 88 e0 3e
       0.014081428 -0.40252224 0.028719898 0.43854228
0002d0 9e a8 1a be 31 32 82 bd 49 d3 f0 3e a0 13 33 bd
       -0.15103385 -0.063572295 0.47036198 -0.043719888
0002e0 f1 f4 e1 bd 21 e7 e4 3d 7d a8 01 be 2a 86 2f 3b
       -0.11033047 0.11176897 -0.1266193 0.002678285
0002f0 9c ca a8 3e cb 1e af 3d 55 c9 6f be c4 9a 15 3d
       0.3296708 0.08550795 -0.23416646 0.03652455
000300 2a c2 19 bd 4f b5 62 be 90 85 e1 3e 9b 5b 00 3e
       -0.037538685 -0.22139476 0.44047213 0.12534945
000310 db 95 b5 bc dd 98 ae 3d 87 68 5f 3e 23 a4 98 3e
       -0.022166183 0.0852525 0.21817218 0.29812726
000320 8a 16 93 bd 10 9d 54 3e 87 32 a6 3e de 1c c8 3d
       -0.07182033 0.2076304 0.32460424 0.09771131
000330 b6 ab 9a 3e e4 81 a8 bd 4a e5 8a 3e 25 eb e6 3e
       0.3020913 -0.082279 0.2712806 0.45101276
000340 99 e6 2d 3e 0c dd 2a 3d 5e db 6a 3d 1b 8f 64 3e
       0.16982497 0.041714713 0.05733811 0.22320215
000350 92 d9 d8 3e c9 5c 59 3e 7f b4 8a 3e 2d bc fc 3d
       0.42353493 0.21226801 0.27090833 0.12340579
000360 27 d7 3f 3e c3 36 99 3e fa fe e6 bd 87 89 4d 3e
       0.18734418 0.29924592 -0.11279102 0.20071994
000370 1b bd 9f 3e 3c b2 8d 3e 52 d8 6d 3e c0 11 c1 3e
       0.31198964 0.27675045 0.23227051 0.37708855
000380 5a 00 94 3e dd c9 4d 3d e3 60 06 3d de 82 b6 bc
       0.28906518 0.05024134 0.032807242 -0.0222792
000390 ea 5b 8b 3e f5 b6 69 3e d8 5e 60 3d 7f ac 2f 3e
       0.27218562 0.22823699 0.05477795 0.17155646
0003a0 6f fe f9 3c 7e 78 0a 3e a0 d7 03 3e ad 3d b7 3e
       0.030516831 0.13522527 0.12875223 0.35789242
0003b0 05 2e 0c 3e cd 18 83 be 95 a2 3a 3e 5b f8 58 3e
       0.1368943 -0.2560486 0.18226083 0.2118849
0003c0 5a 68 b2 3d c1 cb 64 3e aa 26 99 3e b3 73 41 3e
       0.0871131 0.22343351 0.2991231 0.18891792
0003d0 fb 43 e9 3d 3e 51 24 3e 5b 33 85 3d 06 3f 0e bd
       0.11389919 0.16046616 0.06503936 -0.034728073
0003e0 35 b7 17 3e 5b ec ad 3e d0 80 14 3f c5 49 ee 3e
       0.14815982 0.33969387 0.5800905 0.46540657
0003f0 b1 93 81 3d 95 7f 44 3e b1 3b 81 3e 39 1c 05 3e
       0.06326998 0.19189294 0.25240853 0.12999047
