models/41-BiLSTM_Loss_0.1258366622119277.pt (torch_old, 191938 bytes, 10 tensors)

lstm.weight_ih_l0 f4 [256, 25]
00000000: b67f e8be 5449 12be eac6 013f 878a bfbe
00000010: 0ba8 55bf 3f72 123f 61f4 513d 1694 183e
00000020: 67e8 2abe 1c87 e43c feb1 b13e 3e0c 423e
00000030: 64fd b13d 7a34 91be 8bf9 a43e a6bf 783e
00000040: 1e63 e0be ab36 923d f9b8 81bd be1d f83e
00000050: cc47 a03e f8f0 773f de11 fcbe c98f 963d
00000060: a0b9 123f 17cb fa3c f2b8 213c c98f 063f
00000070: d685 06be 80c6 11bf ad36 dbbc 43f2 09bd
00000080: 5a6f 533d 4318 013f c486 0ebf b63d 67be
00000090: 6b1a 98bd 584b 8ebe 21db 3cbf 5dfd f4bd
000000a0: 281b 20be a41e 44bf 108c d83e 629b 87bc
000000b0: fc58 dbbd 6821 ee3e 48bc c8be ae82 d13d
000000c0: fe4b 973d 121a 04bf d74c 9abe 1014 23bf
000000d0: 4d87 723e 3504 533f 59c5 2a3e f422 07bf
000000e0: 3ab0 d83e 9066 23bd bf98 c1be 7d74 19bf
000000f0: 6d24 203e 9490 0a3f 136f 6ebe fbf1 cabe
00000100: af8e 503f be06 40bf 7289 90be ea47 85be
00000110: d63b bb3d 5579 92be 07c7 933e 7298 bb3e
00000120: d99a 83be 2b16 b0be ce51 e4be 71b9 e8be
00000130: 5379 eb3d 14c4 b43e db3c 683f bfac b3be
00000140: a0b9 b73d 3757 753f 1779 96be 8c58 4abe
00000150: fbea a63d ee0f 15bf 1d27 023f c086 04bf
00000160: 91f7 a0bf 8d3b a6be efc5 e03e f2e6 18bf
00000170: 9d50 81be c3b2 36bd c2ff fabe 1662 283f
00000180: 972e 5c3e 2cce d0bc 48ee 22bd cd5e 0dbd
00000190: 7ef9 aa3e 79b2 b63e 1f33 b53e f503 4c3f
000001a0: a8f6 acbe 5d4b 913c d760 75be 58e4 0fbf
000001b0: 632f 1dbf 42d0 f1be 5884 62be 0e62 2f3e
000001c0: 2d11 0cbf ab6c bb3d aac4 d7be c8c2 d4be
000001d0: 6af4 b8bd 2c6b 023e 353f ed3e 154e cfbe
000001e0: 9d68 dd3d 07dc f43e c741 313f cef4 54bc
000001f0: c867 3ebe 32e1 4dbe a380 55be 0536 0b3f
00000200: fcc8 0b3e 302f 6cbe 88d8 e63e 5040 063e
00000210: 68ce 81be a986 dbbe ee4b 373d e570 9dbe
00000220: 4a28 98bd e984 44be 52ee 8ebf b7ef d3be
00000230: cd16 713e 5f9f 93be 71f7 a5bc 071a 42be
00000240: ab08 1b3d 404e 183f e1b3 e43d 0531 a8be
00000250: a321 9fbe 585a 193f 4edf c2bd 086e d23d
00000260: b5e2 a5be 64bd ed3e 4787 6ebe 43f3 55bf
00000270: ea51 b9be d3ee e73d b9c0 a53e e098 fdbe
00000280: 51eb eabd e7b2 a63e 8937 9abc e67e 45be
00000290: 87c3 383f b0c3 bd3e 3a32 2cbe fb52 733e
000002a0: adc5 b53d c8eb f93e 4147 9f3d 1527 afbe
000002b0: 94c0 b5bd b949 2bbf 35c3 d2be 7df0 7cbd
000002c0: 4627 2a3f cd5a 2d3f 2687 613d 4e16 cabe
000002d0: 143e ca3d 35fe e6bd a549 413e 68de 773c
000002e0: 5871 93be 40ad a83e 8f63 e13d 1ef0 41bd
000002f0: 52e7 09bf c9a0 e13e ea70 19bf 514c 4bbe
00000300: 2d9a 8d3e 890d c53e 7518 9c3e 3c08 243f
00000310: 5846 99bd aee4 2fbf 3d70 cbbe abb4 253e
00000320: 1ee5 b1be 7000 7abe 2b46 3d3d c0a8 8d3e
00000330: 5891 e63d cbfb 8d3e 39f8 38be 6956 0b3f
00000340: c051 123f 3ac2 aabe f915 3d3f 8518 313e
00000350: d179 abbe 4dc5 aabe 4bb7 7fbe a1ef 54be
00000360: bf7b 06bf 56e3 d73e 6c08 d6be a1e4 883d
00000370: db77 a0be 5046 68be 78cb 003d fee9 6ebe
00000380: 6824 263e 8b86 8a3d 9edb 48be 82c6 14be
00000390: 3ce4 c7bd f4e2 a0be 683b 0bbe b2f9 bf3e
000003a0: 1eec b1bd 9303 30bf 5064 2b3e 8315 73bc
000003b0: d4e8 973e 595e febd 0652 8e3e e496 8a3d
000003c0: a4dc 1c3e 72ee 323f 52d6 c13e 6828 c4bd
000003d0: 80e5 cfbe 0b45 2d3e bd34 a53b 5ab7 8fbd
000003e0: a7f9 503e 4e90 dabe 8230 a9be 2c1f 1b3f
000003f0: 0493 913e d08b 2e3e d4d4 a5be 081a b3be
-0.45409936 -0.14285785 0.50694144 -0.37410375 -0.8345954 0.57205576 0.05125845 0.1490024
-0.16690217 0.027896456 0.3470611 0.18949983 0.086909086 -0.2836035 0.32221636 0.24291858
-0.4382562 0.07139333 -0.06334109 0.4846019 0.31304777 0.96852064 -0.49232382 0.073516436
0.5731449 0.030614419 0.009870755 0.5256315 -0.13136992 -0.5694351 -0.02675947 -0.033678304
0.051619865 0.50427645 -0.55674386 -0.22582135 -0.07426914 -0.27791858 -0.73771864 -0.11962388
-0.1563536 -0.76609254 0.4229436 -0.016553584 -0.10710332 0.46509862 -0.39206147 0.10230003
0.07387541 -0.5160228 -0.3013675 -0.6370249 0.23684426 0.82428294 0.16676845 -0.5278771
0.4232195 -0.039892733 -0.3781185 -0.5994337 0.15638895 0.5412686 -0.23284559 -0.3963774
0.8146772 -0.7501029 -0.28229862 -0.2603143 0.09142272 -0.28608194 0.28862783 0.36639744
-0.25704077 -0.34391913 -0.44593662 -0.4545398 0.1149775 0.35305846 0.9071786 -0.35092732
0.08970952 0.95836204 -0.2938926 -0.1976034 0.08150288 -0.5822743 0.5084093 -0.5176811
-1.2575551 -0.3246731 0.4390101 -0.59727395 -0.25256816 -0.044604074 -0.49023253 0.6577467
0.21502148 -0.025488935 -0.039778024 -0.034514237 0.33393472 0.3568304 0.35390565 0.7969354
-0.33781934 0.017736131 -0.23962723 -0.562078 -0.6140043 -0.472292 -0.22120798 0.17127249
-0.5471371 0.09151586 -0.4214223 -0.41554856 -0.09030993 0.12736195 0.46337286 -0.4048926
0.10810969 0.47824118 0.69240993 -0.012997819 -0.18594277 -0.20105436 -0.20849852 0.543793
0.13650888 -0.23064876 0.45087075 0.13110471 -0.25352788 -0.42876175 0.044750147 -0.30750194
-0.074295595 -0.19191326 -1.116648 -0.41393825 0.23543854 -0.28832528 -0.02025959 -0.18955241
0.037850063 0.594944 0.11167122 -0.328499 -0.3108035 0.5990348 -0.09515248 0.10274893
-0.32399526 0.46433556 -0.23293792 -0.8357431 -0.36195308 0.11324849 0.32373598 -0.49530697
-0.11470664 0.32558367 -0.01882531 -0.19286689 0.7217335 0.3706336 -0.16816035 0.23762123
0.08875594 0.488127 0.077772625 -0.34209505 -0.08874622 -0.66909367 -0.41164556 -0.061752785
0.66466177 0.67716676 0.05506053 -0.39470142 0.09875122 -0.11278955 0.1887575 0.015128709
-0.28797412 0.3294468 0.110053174 -0.047348134 -0.5386859 0.44067982 -0.5993792 -0.19853331
0.2765669 0.3848689 0.3048741 0.64075065 -0.0748412 -0.6870831 -0.3973407 0.161822
-0.34745115 -0.2441423 0.046209496 0.2766781 0.11258191 0.27731165 -0.1806344 0.54428726
0.5715599 -0.33351308 0.7386165 0.1729451 -0.33491376 -0.33353654 -0.24972264 -0.20794536
-0.5253257 0.4216563 -0.418033 0.066842325 -0.31341442 -0.22683072 0.031444043 -0.23331448
0.16224825 0.06763943 -0.19615027 -0.1452885 -0.09760329 -0.31423151 -0.1359688 0.3749519
-0.08687614 -0.68755454 0.16737485 -0.014836672 0.2966982 -0.12420339 0.27796954 0.06767061
0.15318543 0.6989509 0.37858826 -0.095780194 -0.40604782 0.16920869 0.0050416873 -0.070173934
0.20407735 -0.4268822 -0.3304482 0.6059444 0.28432477 0.17045522 -0.32388937 -0.34980798

lstm.weight_hh_l0 f4 [256, 64]
00000000: dac7 f5bd 6af8 65be f784 21bc fd12 14be
00000010: 159b fcbc cd15 d23e 5378 733d 3f42 fcbd
00000020: ec66 0abe 3756 5a3d 2f13 16bf f438 2a3e
00000030: 9489 0e3d 981d 16be 1416 0e3d 9c8a 5abe
00000040: a1ca 2d3c b3bb b0bd d531 8ebe f90c 81bd
00000050: 9e87 a73e 5c10 14bf 59de 303f 91a9 ce3e
00000060: adba 4dbe c5b4 ac3d a494 31be 9601 7d3e
00000070: 9e90 4a3e 33ff 3dbe 8663 9c3b 40de 6e3e
00000080: 45a0 23bd d166 cf3d 406d 0e3f f6cc 0abd
00000090: 3326 f0bd 9bd7 c13e 34e2 c23b 4daf a83e
000000a0: 154b b8bd fb14 a6bd 5ed1 cbbd cd07 163d
000000b0: 4742 3c3d f306 f0bd b72b 22be 60f6 4d3e
000000c0: 97f9 51be 7358 2e3d 3422 633c f87b ebbe
000000d0: 747d 433e 5070 f63c a0e1 b53d 2e5a 2abe
000000e0: 12a8 24be 73ba e3be f423 b9bd 6e71 34be
000000f0: 876b 5fbd 35be 9bbe ab96 e5bd 1f0a 0ebe
00000100: a205 bb3d 910e cf3e 003e f5bd e1f0 58be
00000110: 521b 5d3e 7284 f23d d006 06be a8c6 83bd
00000120: 756e bb3e 5bc5 8bbd df50 4cbe d86d ae3e
00000130: f6dd 2a3f 0ba3 703e f498 043f dd0f 3abf
00000140: caec 863d 8505 ecbe 2ea5 8d3e 04b8 8fbe
00000150: 2307 36be e3c0 70bf f145 1f3f 2fe0 48bc
00000160: fa74 c63d fcaf 2a3f 05b5 553e 5e26 58be
00000170: e661 51be edf4 aebb 2505 83be fcd8 9d3e
00000180: 532c 0b3e 493f 71be c804 1d3e 6fdd 2d3e
00000190: db37 c23e ef17 8f3e 5968 94be b19e ec3c
000001a0: fbba ff3e 15f8 4e3e 5488 623e 24c6 eabd
000001b0: 795e 11bf d86b 0ebe 0693 513e 55ba 92be
000001c0: ad78 e23d 0fc7 5fbe 3059 0cbe c6d7 9b3d
000001d0: 22cc 0abf 51dc 69be 8429 8b3e 2372 1a3e
000001e0: 6926 69bd 3f78 613f c8d4 7f3e b998 cabe
000001f0: ad65 ca3e f3df 563e e8d9 79be b810 3c3d
00000200: 7ae3 233e 11c4 79bd 4d24 bb3e 750f a43e
00000210: f686 23bf 40f6 33be 3c1a 923e fa70 df3e
00000220: 011b 13bf a882 893e ba20 06be cc18 09bf
00000230: f054 6d3e 5c27 073e c3ca c13d 9754 ba3e
00000240: 900f 5e3c 058d 8e3e e93e 15be e967 f6be
00000250: 9d2e 423e c575 c33e 9fed d4be ca40 963e
00000260: 6eb5 883d 0082 b8be 1d86 aebd 034d 853e
00000270: bc73 9e3e ce85 1bbe 612f ad3d 21a0 6cbe
00000280: f42a 53bd bb38 7abd 3719 073d 247e 823c
00000290: 9e29 85be e46e 82be d6c6 c53d 2fa1 803e
000002a0: 1350 9dbe 21b4 b63e f711 b1bd 3032 eb3c
000002b0: 711d 683d 4a58 16be e24f d83c 532e 0abe
000002c0: 1c38 7fbd 04ae 393e d3ad abbe 2aa1 4b3e
000002d0: abc2 953e cfc2 083d 4143 08be e723 623e
000002e0: 263f 2ebc 8f4c ed3d 4bb1 23be c570 bcbe
000002f0: bfbc ea3c b92b f83d f2b7 233e b083 0dbe
00000300: eb4a 80be 5e84 cd3e 3e27 90be 2fe6 383e
00000310: dd31 c13e d9e6 2b3d 33ee 66be 983d 1c3f
00000320: 5adb b33c a21a e93e 6004 21bf acac 2a3f
00000330: 7725 08bf cc31 c3bc 26ac 2a3d 2edf 03bf
00000340: a620 cbbe c1a7 51be 8ff5 1f3c c31a 133e
00000350: e6f9 b83e 783f 8cbe bfe5 163e 1d2b 3cbe
00000360: b1db debe 4b08 9ebe 1b5a 82bc b425 e8bd
00000370: adb6 033e 66b3 0abf 0559 b0bd bbbf c13e
00000380: 1da9 413e fb0d 4ebb 9685 a13c c1d2 783d
00000390: d59f cdbe 53dd 343e 04c4 d93d eb90 b0bd
000003a0: 8a7e c33e 7f5c 233e 6389 d53e 3490 2dbe
000003b0: 8ff5 14bf f8ea e13e 724f 04be ac17 c2be
000003c0: 8e9e adbe f7cf ffbd 0174 803c 52c1 d3be
000003d0: 4e27 e23e 532f 753e c672 29bf 138f a8bd
000003e0: edae 1f3e 0d23 4fbe a918 493e 585f 123f
000003f0: 2b63 e1bc d6c5 b63e 47a3 00be be0e 21bd
-0.12001009 -0.22458044 -0.009858361 -0.14460368 -0.030835668 0.41032258 0.059440922 -0.12317323
-0.13515824 0.053304877 -0.5862302 0.16623288 0.034799173 -0.14659727 0.034689024 -0.21341938
0.0106073925 -0.08629551 -0.27772394 -0.063013025 0.32720655 -0.5783746 0.69089276 0.40363744
-0.20090742 0.084329166 -0.17341858 0.24707636 0.1978173 -0.18554382 0.0047726063 0.23326969
-0.039947767 0.101270325 0.5563545 -0.033886872 -0.11726036 0.37859806 0.0059473757 0.32946244
-0.08998696 -0.081094705 -0.09952043 0.036628533 0.045961645 -0.117200755 -0.15836988 0.20113516
-0.20505367 0.04256482 0.013863135 -0.45993018 0.19090825 0.030082852 0.08880925 -0.16635963
-0.16079739 -0.44478187 -0.09040061 -0.17621395 -0.054545905 -0.30418554 -0.11210378 -0.13871048
0.09131934 0.404408 -0.11974716 -0.21185638 0.21592453 0.11841668 -0.13088536 -0.06434375
0.3660771 -0.06824752 -0.19952725 0.3406818 0.66744936 0.23499696 0.5179589 -0.72680455
0.06588133 -0.4609796 0.27665085 -0.2807008 -0.1777616 -0.9404432 0.622161 -0.012260481
0.0969028 0.6667478 0.20869835 -0.21108386 -0.20447502 -0.005339256 -0.25589862 0.30829608
0.13591127 -0.23559298 0.15333855 0.16979001 0.3793324 0.27947947 -0.2898586 0.028884264
0.49947342 0.20211823 0.22122318 -0.114635736 -0.5678478 -0.13908327 0.20466241 -0.28657785
0.11058173 -0.21853279 -0.13705897 0.07609515 -0.5421773 -0.2283795 0.2718011 0.15082602
-0.056921396 0.88074106 0.24983513 -0.39569643 0.39530697 0.20983867 -0.24399531 0.04591438
0.16004744 -0.060978 0.36551133 0.32043043 -0.6387781 -0.17574406 0.2853564 0.43640882
-0.5746308 0.26857495 -0.13098422 -0.5355346 0.23176932 0.13198608 0.09462502 0.36392662
0.013553515 0.27841964 -0.1457478 -0.48126152 0.18963094 0.3817579 -0.4158754 0.29346305
0.0667523 -0.36036682 -0.08521674 0.26035318 0.30947673 -0.15187761 0.084563024 -0.2310796
-0.051554635 -0.06108926 0.03298303 0.01592929 -0.26008314 -0.25475228 0.096570656 0.25122973
-0.30725154 0.35684302 -0.08646005 0.028710455 0.056668703 -0.14682117 0.026405279 -0.13494234
-0.06230937 0.18132788 -0.33531055 0.19885698 0.29250082 0.03338891 -0.13306905 0.22084008
-0.010635173 0.11586868 -0.159856 -0.36804786 0.028654454 0.121177144 0.15988138 -0.13819766
-0.25057158 0.4014005 -0.2815494 0.18056558 0.37733355 0.0419682 -0.22551803 0.61031485
0.02195518 0.45528132 -0.628973 0.66669726 -0.53182167 -0.023827456 0.04166808 -0.5151242
-0.39673346 -0.2047415 0.009763136 0.14365678 0.36128157 -0.27392173 0.14736079 -0.18375821
-0.43526986 -0.30865702 -0.015912106 -0.11335316 0.12862654 -0.5417999 -0.08610729 0.3784159
0.18912168 -0.0031441438 0.019717019 0.060747866 -0.40161005 0.17662553 0.1063309 -0.08621391
0.3818248 0.15953253 0.4170638 -0.1694954 -0.5818719 0.4412458 -0.12920931 -0.37908685
-0.3391003 -0.12490838 0.015680315 -0.4135843 0.44170612 0.23943834 -0.66190755 -0.08230414
0.15594073 -0.20228215 0.19638313 0.57176733 -0.027513107 0.35697812 -0.12562285 -0.0393207

lstm.bias_ih_l0 f4 [256]
00000000: 1b58 c73e 6ffb e53e 44aa ba3d 15d9 453e
00000010: 3549 c73e 6eed cd3d 3b0b 883e bb31 7e3e
00000020: 5891 423e f8b2 173d a4de 2a3e 00ee 273e
00000030: dff6 09be 3e22 a23e 15fc 9f3e 98ed 503e
00000040: 9797 9c3e 6810 593d fb0d 9d3e c052 d93d
00000050: 50be a53e 672d 79be 1b1d 58be 7297 fc3d
00000060: fa0a b63e 5b6f 9c3e 7dbb 823e 34c7 453e
00000070: 648a 643e 368c b33e b3fb 8a3e dc3d 60bd
00000080: 5aa4 923e 42ca 6c3d a51c fe3c 463a 443e
00000090: 18cb 2c3f d91e 043f 96cf a23e a0a8 953e
000000a0: 2d34 673d 5949 a73e bbf7 fd3d d7cd a23d
000000b0: 74ab 483c bb19 f33e db89 f53e 8a78 363e
000000c0: 90e6 6a3e 9520 5d3e 0f3e 963e 8955 c43e
000000d0: 7054 8abe 15cb 393d 723d 6c3e f66c 613e
000000e0: fda0 ec3e d176 59be 244c a33d f5b8 593d
000000f0: 145f 133e 4c8d 763e f392 ac3e bb50 cc3e
00000100: 5d04 3a3e 9474 1b3e 08a9 d63c 966f c73e
00000110: 983e 413e 939c b63d e28c 6c3e 57eb 993e
00000120: 4ab3 063d bb23 343e a1d4 113e 4348 363e
00000130: 66f3 093c f11c dbbc d964 d5bc 4eba 083e
00000140: 6214 b2bd 0169 203e 714a 01bc 7842 f4bd
00000150: 1e87 a73a 9059 cd3d 2d0c d9bc 72f8 323e
00000160: 33bd b23d d1d0 ac3d e0d3 353d bc67 d7bd
00000170: daca 5f3d 0c06 e83d d0c0 1b3e 3e19 0dbe
00000180: 7978 c6bd d2a8 6ebb 7b6b 023d f3bf 233e
00000190: 0fdb bcbc f2e2 0f3e cc23 683e b611 8abd
000001a0: 8ac3 c5bd 6365 35bd 17ca 8d3d fd25 b33e
000001b0: 2a03 133d c036 133c 97da 713e f795 a03d
000001c0: 4921 28bd 6fbd 853d 9608 273d 51dc bd3d
000001d0: 6071 013e 4d7d 7f3e 6590 533d e4aa ff3d
000001e0: 78cf 293d 64cf 19bd ec20 15be 783f 883e
000001f0: 69f1 dc3d 3939 7bbc 8a85 7b3e acda 0b3e
00000200: ab1f 6c3e 4bb1 173d 44fd bcbd d3e5 aa3e
00000210: 7536 6fbd f1ee f53b 7eb8 453e 8286 abbd
00000220: d4c4 ecbd 267b 24bd 6934 eabd 27da 3cbd
00000230: 3981 fcbd 7baa 853c a976 d0bc 2c4e 033c
00000240: 60d9 343e 224c 673d 2fd7 15be 453b bcbc
00000250: 7757 523e 0591 c33e 8d5e 38be 8813 a63d
00000260: d8f7 793e 5568 ebbb 9aa5 39be df36 eabd
00000270: 3922 983d 83c1 01be 9a67 253e a2c8 26be
00000280: 262b f5bd e386 cb3d 55f7 99be d891 e8bd
00000290: 278f 4ebd d499 d8be 9bf7 093e 71cb 6f3e
000002a0: 4637 893d 2925 2e3e 4793 333e 83d7 d739
000002b0: b7fb cc3d f792 653d 5b97 ba3d 13d3 12be
000002c0: 537e 13be 5cad 9b3c 3bfb 8ebe 5cdb 5fbd
000002d0: c1a4 81bd ef8b c1bc 739f 353d a912 c03d
000002e0: 1109 733d 98e5 8bbe dd45 69bd 1aaf 5e3c
000002f0: 97c1 3cbd 6084 cfbd f843 af3e b08a 4bbe
00000300: 84fc d13e 683b bc3d 7f63 5c3e 07d1 943d
00000310: 8fd2 263e fcd0 113e f049 973e a457 b43e
00000320: 982b 943e b846 933e 1d29 553e 58ff f13c
00000330: 3f5d 17be 63ce cc3e dc56 4f3d 1f05 b6bb
00000340: 9940 0d3e dd40 a83d 2950 803e bc70 a53e
00000350: 7720 e53e 814a 5fbe 0fa3 3bbe 8d0b 5f3e
00000360: a68d ca3e 85c8 ba3e 404b 3a3e 18f6 393e
00000370: 1759 de3d 6f05 553e e088 1e3d 1959 963d
00000380: a894 113e 7c24 893e d8fb ffbd 34b1 933e
00000390: c64b 323f 3635 6a3e ba83 eb3e f768 be3e
000003a0: 910a c8bb 7e93 663e 7880 b93e d02e cc3e
000003b0: b359 253e d866 a03e 1498 c63e b52b 1a3e
000003c0: 6316 b33e f0b1 803e 7d87 913e 69d0 c43e
000003d0: 495c a9be df71 0e3e 60d4 113c d48d aa3e
000003e0: 7250 053f e408 3fbe 7200 72bd 14b1 9a3e
000003f0: 403a a63e 0a21 283e 013f 303e 8df5 8f3e
0.38934407 0.4491839 0.09114507 0.19321091 0.3892304 0.10055052 0.26571068 0.24823658
0.19000757 0.037035912 0.16686493 0.16399384 -0.1347308 0.3166675 0.3124701 0.20403135
0.30584404 0.05299416 0.3067473 0.106114864 0.3237176 -0.24333726 -0.21104853 0.123335734
0.3555525 0.30553707 0.25533667 0.19314271 0.22318417 0.3506791 0.27145156 -0.054746494
0.28641015 0.057810076 0.031019518 0.19162855 0.67497396 0.5160957 0.31799 0.29230213
0.056446243 0.32673147 0.124007665 0.07949417 0.012247909 0.47480568 0.47956738 0.1781942
0.22939515 0.2159446 0.29344222 0.38346508 -0.27017546 0.04535969 0.23070315 0.22014222
0.46216574 -0.21236731 0.07973507 0.053154904 0.14391738 0.24077338 0.33705863 0.39905342
0.18165727 0.1518119 0.026203647 0.3895232 0.18871534 0.08916583 0.23100618 0.30062363
0.032885827 0.17591755 0.14241268 0.17801003 0.008419847 -0.026747199 -0.026049064 0.1335232
-0.08695294 0.15665056 -0.007891283 -0.119267404 0.0012781357 0.10026848 -0.026495064 0.17477587
0.08727493 0.08438266 0.044391513 -0.10517833 0.054636814 0.11329278 0.15210271 -0.1377916
-0.09690947 -0.0036416543 0.031840783 0.15991192 -0.023053674 0.14051417 0.22669905 -0.06741659
-0.09656437 -0.044286143 0.06923311 0.3498992 0.03589169 0.008985221 0.23618542 0.078411035
-0.04104737 0.06530272 0.040779673 0.09270538 0.12640905 0.24950142 0.051651377 0.12483767
0.041457623 -0.0375513 -0.1456334 0.26610923 0.10788233 -0.015333467 0.2456266 0.13657635
0.23058955 0.037034314 -0.09227994 0.33378467 -0.058401544 0.0075052907 0.1930866 -0.08375265
-0.115609795 -0.040156506 -0.11435778 -0.046106484 -0.12329335 0.016316643 -0.025447207 0.008014243
0.17661047 0.05646909 -0.14632867 -0.02297748 0.20541178 0.3819658 -0.18004818 0.08109194
0.24410951 -0.007184068 -0.18129578 -0.11436247 0.074284025 -0.12671475 0.16152802 -0.16287473
-0.119711205 0.09937837 -0.30071512 -0.113559425 -0.05042949 -0.42304862 0.1347336 0.2341745
0.06699996 0.17006363 0.1753665 0.00041168564 0.10008948 0.05604836 0.091109 -0.14338331
-0.14403658 0.019003563 -0.2792605 -0.054652557 -0.063302524 -0.023626296 0.044341516 0.09378559
0.05933482 -0.27323604 -0.056951392 0.013591552 -0.04608306 -0.101326704 0.34231544 -0.19877124
0.41012967 0.09191018 0.2152233 0.07266431 0.16291259 0.14239877 0.29548597 0.35223114
0.2893951 0.28764892 0.20816465 0.029540703 -0.14781664 0.4000121 0.050619945 -0.0055548097
0.13794173 0.08215497 0.25061157 0.32312572 0.4475133 -0.21805765 -0.1832392 0.2178175
0.39561194 0.3648111 0.18192768 0.18160284 0.10856836 0.20802854 0.038704753 0.07341213
0.14216864 0.26785648 -0.12499207 0.28846133 0.6964687 0.22871861 0.45998937 0.37189457
-0.0061047752 0.22517201 0.36230826 0.39879465 0.16147499 0.31328464 0.387879 0.15055735
0.34978017 0.25135756 0.28423682 0.38440254 -0.3307822 0.13910626 0.008900732 0.3331133
0.52075875 -0.18655735 -0.059082456 0.30213225 0.32466316 0.16418853 0.17211534 0.28117028

lstm.bias_hh_l0 f4 [256]
00000000: 93a1 e33e e373 d43e 58fe 533e 7768 373e
00000010: 0ba1 ae3e 94aa 7c3e 8df6 863e 35ff 623e
00000020: 6a45 0b3e ce22 4cbd c28f aa3d ac45 563e
00000030: b977 3dbd a5f9 2e3e fbef a13e 1065 8c3e
00000040: 5422 503e 26c4 563e a331 a23e f50c 903e
00000050: 2c67 aa3e 1bc1 44be af72 6dbe 8af8 073e
00000060: f023 ba3e b388 963e 5a1c 5f3e 34d5 233e
00000070: 6408 3a3e 3489 2c3e 1e41 523e 3406 383d
00000080: ac0a 9c3e ba3f 933e 677c 04bd 9b61 e83d
00000090: de5b 2e3f fa32 fc3e 4656 f33e a80e ff3e
000000a0: 4810 a3bd 03b9 483e 5ea9 a13e ff09 f33d
000000b0: aa2b db3c f506 ac3e 8145 353f 96c7 ac3e
000000c0: c070 143e d781 9d3d 534a 8b3e 09b1 fe3e
000000d0: 2f08 11be 81b8 ac3c faf2 313e 514a a53e
000000e0: e9b8 e63e 779f 34be eafe 8e3d 4b59 5b3e
000000f0: fffd 7f3e 0f9a 7a3e 55f2 bc3e 13fd b93e
00000100: 5f2e 1e3e c6ea 0f3e cb32 0a3e fb4d 543e
00000110: c5e9 f73d a89e 3f3e c46a e33d b6ae 383e
00000120: 9224 783d 5fa4 103e 4555 b73c 14ec b93d
00000130: f1aa 113d 2b29 69bb cd69 2dbd e88e 1a3e
00000140: f65e aa3d 104a 623d 4d9c 97bd 46c9 c83d
00000150: 3755 f03d b31f a9bc f1f6 c83d 3270 653d
00000160: 1f4d 94bd 1117 ba3c dd7b 9c3d 7c5c 18bc
00000170: 5440 383e a4ac 463e 463f 4c3e 4645 8fbd
00000180: eba7 c33d 9752 aabd f0a5 78bd 3250 973c
00000190: 24ce 6e3d 6480 223e dc0e de3d 220c a3bd
000001a0: f838 e5bd e441 fdbc 37d5 d2bd cf31 cb3e
000001b0: 222e 5c3e c040 a0bd d7cf 3e3e ead9 3f3d
000001c0: ca59 ad3d efe3 2c3c e107 93bb c6fa 403d
000001d0: 5816 5e3d e508 8f3e 983d 9abc 56b5 c43c
000001e0: 7404 bd3d 888b b63c 9600 0bbc 0810 243e
000001f0: 399e 1b3e 179a 04bd 6438 a23e b169 f33d
00000200: 80a0 f03d 055e 533d e562 7f3b 17bd b03e
00000210: f79e 4fbe f5de 69bc 76d0 ca3d 782d e83d
00000220: 1f9d 6bbe 551c e2bc a1e9 e3bd 7a42 74be
00000230: 1453 d7bd 731d 6dbc 0194 893d 45d0 a1bb
00000240: 32c7 c73c f1d4 a03d ba43 8cbd 0f21 0abe
00000250: 79a3 343e d197 d63e 1540 46be 5296 5abd
00000260: 88dc a43e 7ead 7c3c fcaf 533d 6433 40be
00000270: bf28 f83d 5549 19bd eae2 9b3e 178c a0bd
00000280: 1001 2abe f41a 38bc e532 2ebe 21b9 cfbc
00000290: 8489 20bb 6c36 cebe 504b 5f3d fb9b 133e
000002a0: 9d35 793e 1fb6 af3d e786 67bc da26 e23d
000002b0: 245e 583e 100e 8e3e f356 dd3d bb38 45be
000002c0: ce3c cabd feb4 a33d e155 8fbe e9a4 abbc
000002d0: eff7 0f3e 4230 eabd 1d44 2abd d8b5 e43c
000002e0: f84c 5b3c 6cd0 8abe 9afe 20bc df8a 8d3d
000002f0: f015 00be 9c70 bbbd da70 8d3e 4809 83be
00000300: 3a48 963e 48eb bb3d 707f be3e 9273 f1bc
00000310: 8e14 a53e d633 913e 5cce 2f3e 96f3 e53e
00000320: 6880 0c3e 9478 123e 7194 4d3e d8c1 c4bd
00000330: b96e 49bc e3bd b33e f9c7 7b3e fde0 c53d
00000340: 04d8 bb3d 6ff0 713e ef7d 8c3e 1f84 543e
00000350: 2373 e93e dd0a 3abe fe2a a5bb 038d 113e
00000360: 7533 503e db2d b43e f3d4 ab3e d01c 0b3e
00000370: 81dc ad3e b50b 4a3e 21d4 ad3d ebf4 9bbd
00000380: 9e58 253e 6895 873e d954 0abd a02f b13e
00000390: 54f9 3b3f 6707 763d ac83 bc3e c73f c53e
000003a0: 1d30 c9bb c9c9 a13e 5f41 0b3f a0e9 933e
000003b0: 1881 c43d ee52 ba3e b551 203f 51b0 6b3e
000003c0: 7f6d a43e b812 433e 2f86 893e 3b94 cd3e
000003d0: 9aef 12be 012c 423e 0aa3 9f3d 8ad9 bc3e
000003e0: dde2 fc3e dac9 6cbe 0f72 6a3c dc89 9b3e
000003f0: c64b 853e 982e 0c3d ed71 bb3e fb91 8f3e
0.4445921 0.41494665 0.20702493 0.17910944 0.3410724 0.24674445 0.26359978 0.22167666
0.13600698 -0.04983788 0.08328201 0.20925015 -0.046256755 0.1708742 0.31628403 0.27420855
0.20325595 0.20973262 0.31678495 0.28134885 0.3328184 -0.19214289 -0.2318828 0.13278404
0.36355543 0.29401168 0.21788159 0.159993 0.18167263 0.16849214 0.20532653 0.04492779
0.30476892 0.28759557 -0.0323452 0.11346742 0.6810893 0.49257642 0.4752676 0.4981587
-0.0796209 0.19601826 0.3157453 0.11867141 0.02675422 0.33599058 0.7080918 0.33746022
0.14496136 0.076907806 0.27205142 0.49744442 -0.14163278 0.021084072 0.17377844 0.3228326
0.4506295 -0.17638956 0.06982215 0.21420781 0.24999236 0.24472831 0.36903635 0.36325893
0.15447377 0.14054403 0.13495938 0.20732872 0.12105135 0.18712866 0.11104348 0.18035397
0.06058175 0.14125203 0.022379527 0.090782315 0.035563413 -0.0035577517 -0.042337228 0.15093577
0.083188936 0.055246413 -0.07402859 0.09804015 0.117350034 -0.020644998 0.09812725 0.0560152
-0.07241272 0.022716077 0.076408125 -0.009299394 0.17993289 0.19401795 0.19946012 -0.06995635
0.09553512 -0.08316534 -0.060705125 0.018470857 0.05830206 0.1586929 0.10842678 -0.079612985
-0.111925066 -0.030915208 -0.10294574 0.39686438 0.21501973 -0.0782485 0.18633972 0.04683868
0.084643915 0.0105523905 -0.004487023 0.047114156 0.054220527 0.27936473 -0.018828198 0.024012249
0.09229365 0.02228333 -0.008484026 0.1602174 0.15197076 -0.032373514 0.31683648 0.118853934
0.11749363 0.051603336 0.0038968858 0.34519264 -0.20275484 -0.0142743485 0.09903042 0.113367975
-0.23009156 -0.0276014 -0.111285456 -0.23853484 -0.10513893 -0.014472353 0.06717683 -0.0049381577
0.024386976 0.07853115 -0.06848855 -0.13489173 0.17640485 0.41912702 -0.19360383 -0.053366013
0.32199502 0.015422223 0.051681504 -0.18769604 0.12117147 -0.03742345 0.3044656 -0.0783922
-0.16601968 -0.011236895 -0.17011602 -0.025356831 -0.0024496028 -0.40275896 0.054515183 0.1441497
0.24336858 0.08579659 -0.014131284 0.110425666 0.21129662 0.27745104 0.108076 -0.19259922
-0.09874879 0.07993506 -0.27995208 -0.020952659 0.14059423 -0.11434986 -0.041568864 0.027918741
0.01338505 -0.27112138 -0.009826327 0.06911253 -0.12508368 -0.09152338 0.2762516 -0.2559302
0.2935198 0.09175736 0.37206602 -0.029474054 0.32242244 0.2835986 0.17168564 0.44912404
0.13720858 0.1430381 0.20076157 -0.09607285 -0.012294465 0.3510581 0.24588002 0.09662054
0.09172061 0.23626874 0.2743983 0.20753525 0.45595655 -0.18168207 -0.0050405255 0.14213948
0.2033213 0.35191235 0.33560905 0.1358521 0.33957294 0.19731028 0.08487726 -0.07615074
0.16147086 0.26481175 -0.033772323 0.34606647 0.7342732 0.060065653 0.36819208 0.3852522
-0.0061397688 0.31599262 0.54396623 0.2888918 0.09594935 0.36391395 0.62624675 0.23016478
0.3211479 0.1905011 0.26860186 0.40152153 -0.14349213 0.18962099 0.07794769 0.3688472
0.49391833 -0.23123875 0.01430942 0.30378616 0.26034373 0.034224123 0.36610356 0.28041062

lstm.weight_ih_l0_reverse f4 [256, 25]
00000000: 0933 5ebd 0b11 413e 8475 b9be 1537 503f
00000010: 3b82 6bbf 70b7 8cbe c3b5 eb3e 366d a43c
00000020: 1d34 8ebe 4e50 113f 619c 46bf 57ab 6d3f
00000030: 5b67 e6bd 0596 ecbc b3e8 92be 0f2c ecbe
00000040: b807 f93d 2171 70bf 24c9 98bc 32b6 093f
00000050: 3d26 903e ede3 0c3f 2576 65bf 2949 07bf
00000060: 0c55 78bf d5c7 fdbc be56 b3be d437 bdbe
00000070: 175e 3f3d 0d48 413e e441 a1be d0aa 733e
00000080: 06d5 a6bd f923 f9be 3cb4 5c3e ab7e 7e3e
00000090: afca d3bd e7dd 22bf e497 e83e 6784 c5bc
000000a0: 2fa8 1b3f 7477 6f3f 1e8e a5be ca1d 7fbe
000000b0: 5ba1 26be 9a46 15bf fbd3 17be cf53 d43c
000000c0: 1958 dcbe 65af aa3d c460 9cbd 5257 943e
000000d0: bcf4 453d 0104 b43d 355d 98be 3b58 af3e
000000e0: 4d82 773f a3c2 e43b 4c28 07bf 760b bc3e
000000f0: 0a7c 57bf fa7e 803e 85c6 38bf f849 763e
00000100: 2577 62bf 7d50 6fbe f19f d93e ba5b 6d3d
00000110: 334f 10bf 4554 60bf 8d36 12be 28ad b9bd
00000120: 5f0c 5e3e 9474 143f 043a 84be e00d 033e
00000130: 0d2c 17bf 3c60 e63d 8b62 143f 97a8 8a3d
00000140: de1f a83e 5541 1a3f 01d1 8e3e 02b1 afbc
00000150: 73f9 8e3d f366 64bf 187b 2bbe b449 10bd
00000160: aba2 50bf a0cb 40bf a63a 493f 6b32 d93e
00000170: aed4 0dbe 5559 963e b8ca 5e3f 94b7 d33e
00000180: 96fc e83e d227 193e 4581 2c3f a2e4 363c
00000190: 9b2f 8dbe d588 acbe f88a a13e 1b41 2f3f
000001a0: 47fe d8be 7f62 90bc a3ab 55be 8b6d c8be
000001b0: 36d2 03be 6f6c eabe 83c4 0dbd 3864 d03d
000001c0: 96e4 1dbd adb3 b4be 611f d8bd 9db4 5ebc
000001d0: c6ca 8e3e 6709 893e 7352 763e 9567 843e
000001e0: d55b 7f3e 7ae9 c23e 36f8 8dbd d0d8 f2bc
000001f0: 68cf 1abf 9bf9 5bbe fd2a 1d3e d985 af3e
00000200: e2f7 c1bd d0f2 fa3e b2d7 5bbe 8cc2 2abe
00000210: 2e37 50be 384b 933e 9f77 5dbe df38 093f
00000220: 869a 103d 0162 b6bd be73 a63d 7a13 1b3e
00000230: f7a0 c5bd 8289 2e3e fa5e 363d a801 54be
00000240: 7b73 e23e 39c2 933e d042 0bbf 9cd9 84be
00000250: 721d ccbe 8028 3abe 2e3b 013e 2d92 0dbf
00000260: 7c5a 3c3e 9bcd 80be c372 bfbe ad11 04bd
00000270: a1b0 2c3f 3ff8 3d3f 44e0 86be 54fa 5e3e
00000280: 8dd4 1b3f 6f20 77be fe85 8dbe 2246 70bf
00000290: f506 7d3e 5493 253e 7bc2 a4bc fb2c f33e
000002a0: f2a4 04bf d248 e5bd f89f 483f 113f 493f
000002b0: 1ec4 41be 7202 9a3e 7534 963e d016 613e
000002c0: 6092 92be 2c77 ad3e 6952 1bbf cb8d 6fbf
000002d0: b3b1 3b3d 34d0 aa3e 1b45 e03e d8a4 f9be
000002e0: 43e8 febe 30d2 783e 6460 90be 892d c7be
000002f0: c745 693d 5019 903f ae3b 76be 7545 b0be
00000300: b644 0e3f 37d1 a1be e5bc bcbe 26f7 c6bc
00000310: c104 cabe 35e0 a8be ddfe 853e 9dec f23e
00000320: 7d0f 8b3e 13d0 29be 3b68 873e 6ca1 a7be
00000330: 44b5 f1be 06d9 81be 178d 483e 6c14 fabd
00000340: b2c6 19bf c0fe 24be 79a4 523e 3d51 b33d
00000350: 02b2 7e3b ffe3 70bd 4336 b7be 28b7 ae3e
00000360: 51a4 4fbd 1d44 10bf 29b2 d8bc dbdb f3bc
00000370: 6d70 e3be 6449 793c 4d18 e63e 3c69 bc3d
00000380: 61b2 703e c343 853d 30ec 2ebe cbd7 3bbf
00000390: a278 e63e 9341 c9be e2a5 033f 2d75 dfbd
000003a0: 4de9 c53e fb69 ff3e 7b65 89bc 0d70 a1be
000003b0: 3bfb 133e 6412 c0be 98bd 34be c951 213f
000003c0: 0100 12bf 7479 88be 94b0 21bc 0d1a 19be
000003d0: fb62 a43e 1e71 2f3f 4f08 a73d 1f5e 95be
000003e0: cc69 093f 003c d8be 56f3 373f d02c 273f
000003f0: d93d abbe 336a 293c d0b1 4bbf 645e 2f3e
-0.05424789 0.18854158 -0.3622247 0.8133405 -0.9199559 -0.27483702 0.4603711 0.020071607
-0.27774134 0.5676316 -0.77582365 0.9283957 -0.11250182 -0.028880129 -0.2869316 -0.46127364
0.12159675 -0.9392262 -0.018650599 0.53793633 0.28154173 0.5503529 -0.896334 -0.5284601
-0.9700477 -0.030979076 -0.35027117 -0.36956656 0.04672059 0.18875141 -0.31495583 0.23795629
-0.081461 -0.48660257 0.21553129 0.24853007 -0.10341393 -0.63619846 0.45428383 -0.024110986
0.608035 0.93541646 -0.3233499 -0.24913707 -0.1627249 -0.58310854 -0.14826958 0.02591887
-0.43035963 0.08334235 -0.07635644 0.2897287 0.0483291 0.08789826 -0.2975861 0.34247002
0.966832 0.0069812103 -0.52795863 0.36727494 -0.84173644 0.25096875 -0.72177917 0.24051654
-0.8846305 -0.23370548 0.42504838 0.057948805 -0.5637085 -0.87628585 -0.14278622 -0.0906623
0.21684407 0.57990384 -0.25825512 0.12798262 -0.5905159 0.11248824 0.57962865 0.06770437
0.32836813 0.6025594 0.27893832 -0.021446709 0.069811724 -0.8921959 -0.16746175 -0.03522654
-0.8149821 -0.7531071 0.78605115 0.42421278 -0.13850662 0.2936503 0.87028074 0.41350996
0.45505208 0.14956596 0.6738475 0.011162909 -0.27575383 -0.33698145 0.31551337 0.6845872
-0.42381498 -0.017625092 -0.20866255 -0.39146075 -0.12873158 -0.45785853 -0.034611236 0.10175365
-0.038548075 -0.35293332 -0.1055286 -0.013592866 0.2788908 0.26764986 0.2405489 0.25860277
0.24937375 0.38068753 -0.06932108 -0.0296444 -0.60472727 -0.21481936 0.1534843 0.34281805
-0.09471108 0.49013376 -0.21469 -0.16675776 -0.2033355 0.28768325 -0.21627663 0.53602403
0.035303615 -0.089054115 0.08127545 0.15144148 -0.09649842 0.17044643 0.04452417 -0.20703757
0.4422873 0.28859118 -0.5439882 -0.25947273 -0.39866215 -0.18179512 0.12620232 -0.5530117
0.18393892 -0.25156865 -0.37392244 -0.03224342 0.67457014 0.7420692 -0.26342976 0.2177518
0.608712 -0.24133466 -0.2764129 -0.93857014 0.24709685 0.16169482 -0.020112267 0.47495255
-0.51814187 -0.1119553 0.7836909 0.78611857 -0.18922469 0.3007999 0.29336897 0.21981359
-0.286273 0.33879983 -0.6067262 -0.93575734 0.045823764 0.3336197 0.43802723 -0.48758578
-0.49786577 0.2429893 -0.2819854 -0.38901928 0.05695131 1.1257725 -0.24046203 -0.34427992
0.55573595 -0.3160493 -0.36862865 -0.024287771 -0.39456752 -0.32983556 0.26171008 0.47446147
0.27160254 -0.1658328 0.2644671 -0.32740343 -0.47208607 -0.25360888 0.19585072 -0.122109264
-0.6006881 -0.16112804 0.20570554 0.08755729 0.0038863425 -0.058811184 -0.35783586 0.34124112
-0.050693814 -0.5635393 -0.02645214 -0.029767921 -0.44421712 0.015215252 0.44940415 0.09199759
0.23505546 0.06507065 -0.17082286 -0.7337615 0.4501391 -0.39307842 0.5142499 -0.109110214
0.38654557 0.49885544 -0.016772022 -0.315308 0.14451306 -0.3751403 -0.1765045 0.6301542
-0.57031256 -0.2665516 -0.00986876 -0.14951344 0.32106766 0.6853198 0.081558816 -0.2917337
0.5367706 -0.42233276 0.71855676 0.65302753 -0.33445624 0.010340261 -0.79568195 0.17125851

lstm.weight_hh_l0_reverse f4 [256, 64]
00000000: 6575 9b3e 9e16 523f 62e3 0f3e e17d be3d
00000010: 25dc 8fbe 4020 edbd ae9a 163f 60c1 783d
00000020: 0fae f33d 7582 a33d 6ebc ecbd 4034 9b3d
00000030: c9e6 5b3e 7a33 053f 319b d8bb 93c5 963e
00000040: 1d26 153e be59 c13d 04ba 233d 2a56 a43e
00000050: d620 03be 4b72 8d3e 4311 413d ca83 67bd
00000060: 0f34 26be cf43 843e 27ed f2be 18c3 db3d
00000070: 1e2e 9dbe 4c72 a23e 6022 cc3d 5658 783d
00000080: 3b4d 023e c97a 283e 9ee0 773e d1d3 0abe
00000090: f499 ac3d 2f8f 7b3e 6499 053e 39d9 ccbe
000000a0: 09fa bbbe 249c 823d 0756 d5be ffb0 a5ba
000000b0: bd31 c2be a72a 66be 7179 db3c dc2c c4bd
000000c0: f852 1a3d d95e 4dbd bf9a 913d c63b 89be
000000d0: 49e1 213e 88eb 43bd 4bb4 6e3e 3daa 77be
000000e0: d9a6 a9be ca6e 41bf e772 26bd 5c13 013e
000000f0: 677d babe dde2 7e3d d740 fd3d 5444 493e
00000100: b5ca ac3e 91f1 e73e 43b3 18bd e23b 74bb
00000110: b532 f73e def7 5c3b 3ce8 dd3d 7948 d33d
00000120: 4902 873e 8b34 993d a04c f93d f861 323d
00000130: 4cdb 0d3c bbcd df3b 088e 70bd d369 30be
00000140: 421b ea3d 15dd 833f 8989 e33d 1afb 243d
00000150: db22 22be b847 40be 374c 95bd 29eb 8abd
00000160: eb90 d33c a0c1 9f3e 058b 943e ff9e 0c3e
00000170: edfa 13bf c81e 35be cfcb ad3c 9cff 5b3e
00000180: fb70 8e3e f84e 62be 998e f13e 97e3 c93e
00000190: 09b9 d0bd 31c3 123e 04ae 0a3e 1cb0 71be
000001a0: acfe c1bc e93d 27be a0ef ad3e 975c 553e
000001b0: d804 55be 0877 6fbd 1c3d 3abe d061 40bf
000001c0: 6923 19be 029d 123d 98d4 a9bd e071 023e
000001d0: 2fd9 e43d fe8d c0bd 0d8c 413d bc6f 023e
000001e0: c486 6e3e a024 28bf 6744 a63e 7091 24be
000001f0: a8e9 e5be fbde 993c 79ff 21bf 809a 5d3e
00000200: 5088 9abd 7b93 0c3e ee2e 643d 5bad 9a3d
00000210: aaed 113e 1c00 d23e 1074 0abe e355 9f3e
00000220: d77a e3be b814 edbd 52ed d83d 5deb 9e3e
00000230: 1903 973e 90cf 54be 7585 fc3d 6786 b5bb
00000240: b2b4 683e 0320 51be 20d2 f3bb 0443 0abd
00000250: b3db 763e da4d fc3d 0f08 9abd e185 713d
00000260: 3556 a73e a474 f3be 653b 91be d166 193d
00000270: a364 323f 620d c53d 1fe9 b73e a1a1 3bbe
00000280: 9712 96bd fec6 a2bc 46e9 78bd d55e 083d
00000290: 65c5 cc3d 061b a0bd 651c e63d c638 573e
000002a0: 85fb 203c c82e 96bb c192 0bbe 7a1a 75bd
000002b0: c4fc e13d 508f 9d3e b53b 08bd efaf a33e
000002c0: 357f 02bd f4ea 8dbd 5ea8 143a 4cd4 e63d
000002d0: 803e 31be 36e9 5cbe 7510 29bd 218c 6ebd
000002e0: d345 8fbe 4e7f 2c3e 354a 94be d19f d83d
000002f0: b386 f33e 154f b2be a645 e3bd 81c0 0a3d
00000300: d087 43be 92c6 1c3f d67e 0dbe ce3d 043e
00000310: 1961 263f 4a68 293e 2ff0 243f bb4d b53e
00000320: e5bd a13d 3918 bfbd 3f3f ba3e f904 0fbd
00000330: ae25 c63d 1fd9 653e 1970 093d 0493 2a3e
00000340: 7c98 993e 763c ffbd f730 813d fcde 753e
00000350: 9d75 3ebe 0404 e33d 6941 a33e 280d b0bb
00000360: 535a 18be 9517 90be 6b9f be3e 1fd1 40bd
00000370: a1fd 923d 6ae2 0b3e 4f63 373c a0ca d83c
00000380: 77cf 7dbc ddc3 a83e c780 4fbe 34c8 27be
00000390: 37f7 1ebe c37b 203e 12cb 733e 192a 053d
000003a0: 3e29 03bc 5cd9 a2bc 7994 3bbe 6bc7 e6be
000003b0: 634c 2a3d 7540 1abd 5024 93bd b100 243f
000003c0: 35eb 373e 042c cdbe 39ae abbb 6f62 46bd
000003d0: a94d 033e bf19 09be 83d9 283d 414c 8e3e
000003e0: 1664 b63c 50a7 80bd 0149 423e 1aae afbe
000003f0: 541b 66be a8be 70be ed50 af3d cdf2 23bf
0.30363002 0.8206576 0.14051583 0.09301353 -0.28097644 -0.11578417 0.5882977 0.06073129
0.118984334 0.07983867 -0.115593776 0.07578325 0.21474756 0.5203167 -0.006610297 0.29447612
0.1456532 0.09440945 0.03997232 0.32096988 -0.12805495 0.2762626 0.047135603 -0.05652217
-0.16230796 0.25832984 -0.47446558 0.107305706 -0.30699247 0.31727827 0.09967494 0.06063112
0.12724774 0.16453089 0.24206778 -0.13557364 0.08427802 0.24566339 0.13046795 -0.40009478
-0.367142 0.06377438 -0.41667196 -0.001264125 -0.37928572 -0.22477208 0.026791306 -0.09578869
0.03767678 -0.050139282 0.071095936 -0.26803416 0.15808596 -0.047832042 0.23310964 -0.24186035
-0.33135107 -0.75559676 -0.040636923 0.12605041 -0.364238 0.062228072 0.12365883 0.19654971
0.33748403 0.45301488 -0.037280332 -0.0037267138 0.48280874 0.0033717076 0.10835311 0.103165574
0.2636893 0.07480725 0.12172818 0.04355046 0.0086582415 0.006829945 -0.0587292 -0.17227869
0.1143098 1.0301844 0.11110217 0.04027853 -0.15833609 -0.18777359 -0.072899275 -0.067831345
0.025825938 0.31202412 0.29012313 0.13732527 -0.5780476 -0.17687523 0.021215348 0.21484226
0.27820572 -0.22100437 0.47179106 0.3943145 -0.10191543 0.14332272 0.13542944 -0.23602337
-0.023681007 -0.1633221 0.33971882 0.20836101 -0.20802629 -0.058463126 -0.18187374 -0.7514925
-0.14954914 0.035794266 -0.08292502 0.12738752 0.11174237 -0.09402083 0.047252703 0.12737936
0.23293597 -0.65680885 0.32474062 -0.16071105 -0.44904828 0.018783083 -0.63280445 0.21640968
-0.07545531 0.13728134 0.05570882 0.07552596 0.14250818 0.41015708 -0.13520837 0.31120214
-0.44429657 -0.115762174 0.1059214 0.31038943 0.2949455 -0.20782304 0.123301424 -0.0055397036
0.2272518 -0.20422368 -0.0074408203 -0.033755317 0.24107246 0.123195365 -0.07521068 0.058965567
0.32682958 -0.47549927 -0.28365627 0.03745157 0.6968481 0.09621693 0.35920045 -0.18323375
-0.073277645 -0.019870277 -0.060769342 0.033293564 0.099985875 -0.07817654 0.112358846 0.21017751
0.009825592 -0.0045832135 -0.13630201 -0.059839703 0.11034539 0.307734 -0.033260066 0.31970164
-0.031859595 -0.069295794 0.00056708406 0.11270961 -0.17308998 -0.21573338 -0.04127546 -0.058239106
-0.2798296 0.16845438 -0.28962865 0.105773576 0.47563705 -0.3482596 -0.11097269 0.033874992
-0.19094777 0.61240494 -0.13817915 0.12914202 0.6499191 0.1654369 0.6442899 0.35410866
0.07897548 -0.09330792 0.36376378 -0.03491685 0.096751556 0.22446106 0.03355417 0.16657645
0.2999915 -0.12462704 0.063081674 0.24010843 -0.18599553 0.1108475 0.3188584 -0.005372662
-0.14878206 -0.28142992 0.37231 -0.047074433 0.07177282 0.13660589 0.011193111 0.026463807
-0.015491358 0.32961932 -0.20263968 -0.16384965 -0.15523992 0.15672211 0.23807934 0.03251085
-0.008005438 -0.019879036 -0.18318357 -0.4507402 0.041576754 -0.037659127 -0.071846604 0.64063555
0.17960818 -0.40072644 -0.005239275 -0.048433717 0.12822594 -0.13388728 0.04122306 0.27792552
0.022264522 -0.06281912 0.18973161 -0.34312516 -0.22471362 -0.2351023 0.08560357 -0.6404236

lstm.bias_ih_l0_reverse f4 [256]
00000000: dd07 183e 71ba 48bd f09b b93e 7661 443e
00000010: 24aa 2a3c ddb3 8b3e 9d09 653e 1736 0e3e
00000020: 90d8 1dbe 5ed1 283f 8eb6 f53d 4f61 acbe
00000030: 837a ee3e 64f1 773d 0791 8e3d 36bd 873d
00000040: dac3 8f3e fac3 2a3e a9b8 d13e c01c 8a3d
00000050: fb62 033e a718 7e3e 4757 673e e139 ac3e
00000060: 19e3 913e 72fe 423e 8401 17be 6726 a53e
00000070: 7aaa 153e 20c2 813e 51ea a73e 977f 423e
00000080: 0e38 4a3e e157 aa3e 8be1 c3bc b096 e53c
00000090: f88a bf3e d80c 713e edf0 913d fe3d 7c3d
000000a0: 8573 9bbe cd52 843e eff4 54bd eecf e13e
000000b0: fac6 223e 40be 1ebe c032 833e fe84 7e3d
000000c0: 9675 41be ceb0 563e 72fa 8b3e 49ad 5e3e
000000d0: 29a7 883e d974 9d3d ce52 003f 083a 2abd
000000e0: dcde 4a3d 552d db3d a276 1a3d 7a9e 203e
000000f0: b7fc 14be 5ba8 be3c 1e51 9e3e e853 273e
00000100: 1dfc 16be 3854 a93d a62e 563d 876e c03c
00000110: f9ce 7a3d 3a0a cf3d 11bb 79bd cbbb 04bd
00000120: 6c00 60bd 53fd 29bc 0d1b 39be 854d a2bd
00000130: 2032 213e 7eda 063e 1f8a 3ebd 3a40 40bc
00000140: 6f96 9dbd 436f 913e 0db4 4fbd 5a23 dd3d
00000150: f22b 17bd 8802 163d ddd8 cc3d 60dc af3d
00000160: cc3c 1e3e 553a 64bc 9404 093e 0559 b3bd
00000170: 76f5 f0bd 94f5 183e 3755 0a3d 553d fe3c
00000180: 6c22 593e 2135 2f3e f4fd 43bd 8788 bcbd
00000190: 0d17 57bd a496 1a3c d879 8c3d 8dd4 84bd
000001a0: e758 2c3d 554a 933d afeb 213e 8b74 973c
000001b0: 7851 f43d 6e29 cdbd c319 dc3d 44a5 623e
000001c0: 220b 013d 4d05 183d 8224 ee3c 3c8e db3d
000001d0: dc31 a03c c99d 273e 6ff6 093e 9b31 8a3c
000001e0: 5563 093e 5457 c13d 166c 5fbe 08e3 f7bd
000001f0: dc40 71bc e364 0dbb d946 fc3d 58a0 c9bd
00000200: b59a 55be 1d7b bbbe 74a7 403d be60 a63d
00000210: 498f c3bd 9fbf d13d 6efb f1bd cd38 b03b
00000220: 3d23 84be 32a5 e6be 4dd0 57bd 8f35 babd
00000230: 09d3 963e bf2d c5bd e5b0 52be 6879 043e
00000240: 60b5 693e 1e25 2e3e 670b 803e 5c45 4b3d
00000250: 227c 503d 4c3f 243d 2445 d63e ae41 7c3e
00000260: fcd2 f5bd b382 c6bc 6091 f23d 06e3 c43e
00000270: ecb2 853e 05b2 96be 31e7 f43e a28d 3f3e
00000280: e781 7c3e 4b08 81be a581 ddbd 9a59 efbd
00000290: de28 0cbf 8d00 21bd 72bf 313e 1f96 95bd
000002a0: c021 fc3e 959c 04be 8ed1 613e 2307 c9bd
000002b0: d2a9 f43d 672c 363d 60bd 01be 194c b13d
000002c0: d362 c43c 0e8f a9be 52c7 603c 4856 e83e
000002d0: 494a 41be ed23 5ebd c0e5 0c3f 0691 43bd
000002e0: 748a 07be da0b de3d 86bf 0abe 77d9 593c
000002f0: fcd4 aa3e da49 bc3d 8c30 80be fe35 1b3d
00000300: d139 45bc d5bd 60be 89a7 e63e e377 073e
00000310: 82cf d5bc 6a81 0a3e e212 613e 04a1 ab3e
00000320: 6675 b0bd 219c 833e f9c5 ae3e 0d70 c63d
00000330: 58ce a23e 72bd 9dbd 3aae 913e b97f ff3e
00000340: 08db 453e 4e76 5b3d 71f0 9d3d 3d21 813e
00000350: 53eb df3e f790 773e f5c0 933e 75ee 1c3e
00000360: 4261 4b3e 21a8 a03e 764e c8bd f851 7d3e
00000370: 7733 ac3e 25a6 933e 415a 7b3e 2130 d03e
00000380: 1a0b 963e 6e8c 513d ef0f 093d 39d2 a9bc
00000390: 0c03 913e fe66 7e3e 0d90 643d 8da5 443e
000003a0: 5876 0e3d 753e 413e 8e6f 103e 267f c13e
000003b0: 3299 1d3e 9252 73be da90 563e 5224 783e
000003c0: fb82 ca3d 7056 6e3e 1e4d ad3e 064b 413e
000003d0: 98a0 e23d 25b1 243e b818 b03d 4d8e 2ebd
000003e0: 9e05 2e3e 32b7 ba3e 0193 1b3f 7ddf fb3e
000003f0: 3cef 7f3d 4ed6 6d3e df45 7e3e 87b7 273e
0.1484675 -0.04900593 0.36251783 0.19177803 0.010416541 0.27285662 0.22366948 0.13887821
-0.15414643 0.6594447 0.1199771 -0.3366799 0.46577844 0.060532942 0.069612555 0.06627886
0.2807911 0.16676322 0.40961197 0.06743765 0.12830727 0.24814092 0.22591887 0.33637908
0.28493574 0.19042376 -0.14746672 0.3225586 0.14615813 0.25343418 0.32795957 0.18993984
0.19747946 0.3327017 -0.023911258 0.028025955 0.37410712 0.23540056 0.07126031 0.061582558
-0.30361572 0.25844422 -0.0519914 0.4410395 0.15896216 -0.15502262 0.25624657 0.06213855
-0.18892512 0.20965883 0.27339512 0.2174579 0.26690033 0.076883025 0.5012635 -0.04155925
0.04952894 0.10702006 0.037710793 0.15685454 -0.14549528 0.023273638 0.30921263 0.16340601
-0.14744611 0.082680166 0.05229058 0.023490204 0.06123254 0.101093724 -0.060969416 -0.032405656
-0.054687902 -0.010375339 -0.18076725 -0.07924942 0.15741777 0.13169286 -0.04651844 -0.011734063
-0.076947086 0.28405198 -0.05070882 0.107977584 -0.036907144 0.036623508 0.10002301 0.08586955
0.1545288 -0.013929923 0.13380653 -0.087572135 -0.11765568 0.1493743 0.033772673 0.031035105
0.21204537 0.17110111 -0.04784961 -0.09205728 -0.052512217 0.00943533 0.06859177 -0.06485853
0.04207697 0.07191912 0.15812562 0.01848819 0.119296014 -0.10017668 0.10747101 0.22133356
0.031504758 0.03711443 0.029070143 0.107204884 0.019555025 0.16368784 0.13472913 0.016869357
0.13416798 0.09440485 -0.21818575 -0.1210385 -0.014724936 -0.0021575026 0.123182006 -0.09845036
-0.20859797 -0.36617365 0.047034696 0.08123921 -0.09548814 0.10241627 -0.118155345 0.005377865
-0.25808135 -0.4504791 -0.052688885 -0.09092247 0.29457882 -0.09627866 -0.20575292 0.12936938
0.22823095 0.17006347 0.250087 0.049626693 0.050899632 0.040099427 0.41849625 0.2463443
-0.12003133 -0.024232244 0.11844134 0.38454455 0.2611307 -0.29432693 0.47832635 0.18706372
0.24658929 -0.2520164 -0.10815743 -0.11687012 -0.5474986 -0.039307166 0.17358187 -0.07304024
0.492445 -0.12950356 0.22052595 -0.09815814 0.11946453 0.04447594 -0.12669897 0.086570926
0.023972904 -0.33116955 0.013719397 0.45378327 -0.18875994 -0.05423348 0.5503807 -0.047745727
-0.1323641 0.10842104 -0.13549623 0.013296477 0.3336562 0.091937736 -0.25037038 0.037893288
-0.01203771 -0.21947415 0.45049694 0.13229327 -0.026099924 0.1352593 0.2197986 0.33521283
-0.08616142 0.25705054 0.34135416 0.09689341 0.31798053 -0.077021495 0.28453237 0.49902132
0.19321835 0.05357962 0.07711876 0.2522067 0.43734226 0.24176393 0.28858152 0.15325339
0.1986132 0.31378272 -0.0978059 0.247383 0.33633015 0.28837696 0.24546148 0.4066172
0.29305345 0.051159315 0.03346246 -0.020730125 0.28322637 0.24843976 0.05580144 0.19203778
0.03478083 0.18871482 0.14105055 0.3779232 0.1539047 -0.23761967 0.20953694 0.24232605
0.09888264 0.23275161 0.33847898 0.18876275 0.11065787 0.160832 0.08598465 -0.042616177
0.1699433 0.36467892 0.60771185 0.49193946 0.06248401 0.23226282 0.24831341 0.16378604

lstm.bias_hh_l0_reverse f4 [256]
00000000: a226 423d be84 72bd 37ba 7f3e e802 583d
00000010: 9c41 523c 007f 303e 634f 313e 2037 d93d
00000020: 8bd3 cfbd 483e 363f f8af 1a3e 87f9 48be
00000030: bdcc c23e bb2d b23d 45b2 1e3e 9e46 d33d
00000040: a426 423e 2e6c bebc d3f2 dd3e da86 3e3c
00000050: 7f9a 6f3d 0aec a13d 23f3 3e3e 69cf c03e
00000060: de00 c43d 94f3 c03e 07b8 90be 5390 843e
00000070: 50a0 1b3e 2d5c a13e 93fd fc3e d9a7 df3c
00000080: a4cb 0d3e a442 6d3e 1cfb 863d 889e d83d
00000090: 0eff e63e 9010 b23d 6a2c 5b3e cfe8 a4bc
000000a0: 107f e0bd 1ddc 983d 85b3 69bd b409 cb3e
000000b0: fee2 c33e 3a4d 23be 26ce d63e 80c1 d53d
000000c0: 02f8 a63c 40e0 673e 19eb 6c3e d4a5 813e
000000d0: d3fc c03e f318 be3d a52e f23e 976d a7bc
000000e0: 4414 15bd bd51 253e 6758 ae3d f6d8 4c3e
000000f0: 8e90 72bd affa 59bc 433b 603e 5a7c 20bd
00000100: 11c8 34be 7750 083c ab77 9dbd 0e59 c83d
00000110: 1a87 1a3d 6ad4 a4bd 0505 d8bc 87ea d03d
00000120: 7cd6 3dbd 8c97 b4bc 60bf 9dbd 3c4d 153c
00000130: aa3a 24bd 1c57 2d3d 1138 423d 3cc1 5ebb
00000140: 5776 833d e5d3 103e 0040 cf3d f026 f4bd
00000150: bbea 04be 9ec0 9b3d 4504 75bd 5ae1 b33d
00000160: 6b2a c03d bdae 14be f86a 423e ca6b 403d
00000170: d5f0 543d ee27 be3d 79b5 9ebd f190 553d
00000180: e692 18bc bb09 783e 6a14 efbd 57ae 15be
00000190: 1175 e23d 2ee2 94bd cf7b a1bc ed72 e5bd
000001a0: 8676 203e 6aca be3d 01d9 2b3e 3b4b d6bc
000001b0: 0b15 153d c8d1 233a 8fd5 8cbd 8c4e 363e
000001c0: d0a7 cfbd d61b 023e ee51 cb3c 022a ec3d
000001d0: cbd2 323d 89c2 2a3e 4a90 ea3d b87b 00be
000001e0: 6ee7 e23d 5631 bb3d 343c 17be 26e0 883d
000001f0: b641 0a3b cc40 1b3c 28ce 11bd d406 56ba
00000200: 31c9 02be ebd4 8abe 52b1 95bd 8aec 84bd
00000210: 59fe 5e3d 2261 4d3e 5437 09be 1175 5c3e
00000220: 6211 cbbd 1053 e0be 34a4 dd3c 1ddd a83c
00000230: 0576 933e 48eb e4bc d9b2 11be 7bbe 9e3d
00000240: a2de 8d3e 5f59 f33d 4c50 cb3e 7ff2 d03c
00000250: 44a0 b7bd 7b4e 1d3c 9a84 d83e 16c3 d23e
00000260: 4037 cebd 3355 80bd 3cc5 153e 54a6 9d3e
00000270: d917 5d3e 0dbb c8be 0f06 a93e b0bd 443e
00000280: 5dd1 063d 202e 97be d1e6 44be d065 efbd
00000290: 77c8 cebe 721d 123e f538 9b3e d9e0 26bd
000002a0: 8a24 0d3f 3ef6 90be d35e a03e 075c 21be
000002b0: 7a56 92bd ba3f b63d 0398 97be 159d 7dbd
000002c0: a4f2 263e 4ebd cdbe aaab 963d 2825 903e
000002d0: 97e8 a5be 9d22 08bd a37c ba3e db42 0a3e
000002e0: a091 3abe ec85 f73c 76a5 89bb 55a9 b4bd
000002f0: 5497 503e 70b3 c4bd 2909 1ebe 0410 cb3a
00000300: 1f79 1ebc 4dbe 81bd ff3c 053f 9a13 ec3d
00000310: f3b9 163e 0f8f 383e 2692 d03d 6c85 a53e
00000320: f6d6 9cbe 248a 4e3e 1320 463e ff09 f8bb
00000330: 44ae 8d3e 9847 643d 9e9b 293e d48a ac3e
00000340: 7b16 b63d 61e9 dc3c 810c 0d3e 91f7 503e
00000350: 9ad7 4b3e 18ae e53e 6df5 663e 3368 313e
00000360: fc1c 033e e9b9 a83e 306f ecbd 0aae 5f3e
00000370: 4156 d33e 3769 b83e 1437 853e b565 3d3e
00000380: 32c6 963e 9a92 6b3d bf99 44bd ce6f 863c
00000390: 8169 413e d156 fc3d 890a d13d 95cc 3f3e
000003a0: 75f3 3cbd 7a09 a13e e540 813e c2db d93e
000003b0: ceb7 6f3e 9a5d 98bd 6e0e 283e a643 3a3e
000003c0: 711a 88bc 6a48 543e 004a b53e 903d 623e
000003d0: fac6 bd3d 6523 193e 2f52 7e3e 64dd 003c
000003e0: a652 483e 5608 6c3e 19ec 0d3f c266 083f
000003f0: 1871 7f3d aa94 743e e3d7 233e cb13 e83b
0.047400124 -0.059208624 0.24973379 0.052737147 0.012833025 0.17235947 0.1731544 0.106062174
-0.101477705 0.71188784 0.15106189 -0.19626437 0.38046828 0.08700129 0.15497692 0.103162035
0.18960053 -0.023244943 0.43349323 0.011628831 0.05849695 0.07906349 0.18647437 0.3765824
0.09570478 0.37685835 -0.28265402 0.2589136 0.15197873 0.31515637 0.49412212 0.027301716
0.13847214 0.23169953 0.06590864 0.105771124 0.45116466 0.08694565 0.21403661 -0.020130543
-0.10961735 0.07463858 -0.05705597 0.3965584 0.3825912 -0.15947428 0.41954154 0.10437298
0.020381931 0.22644138 0.23136558 0.2532183 0.3769289 0.092821024 0.47301212 -0.020437999
-0.03639628 0.16144462 0.08512955 0.20004639 -0.05921989 -0.0133043965 0.21897607 -0.03918109
-0.17654444 0.008319966 -0.076888405 0.09782611 0.0377265 -0.08048327 -0.026369581 0.102009825
-0.046347126 -0.02204492 -0.077025175 0.009112652 -0.04009501 0.042319402 0.04741675 -0.0033989688
0.06419056 0.14143331 0.10119629 -0.11921489 -0.12980168 0.07605098 -0.059818525 0.08783217
0.093830906 -0.14519782 0.18986118 0.046977796 0.051987488 0.0928496 -0.07749457 0.05214018
-0.009312367 0.24222462 -0.116738155 -0.14617287 0.11057485 -0.07269703 -0.019712357 -0.11203561
0.15670213 0.09315951 0.16781999 -0.02615892 0.03639702 0.00062492164 -0.068766706 0.17803401
-0.101394296 0.12705931 0.02481934 0.1153145 0.04365806 0.16675772 0.11453302 -0.12547195
0.11079298 0.091402695 -0.1476906 0.06683378 0.0021096296 0.009475898 -0.035596997 -0.00081644696
-0.12772061 -0.2711557 -0.07309212 -0.06490429 0.054441784 0.20056584 -0.13400012 0.21529032
-0.09915425 -0.43813372 0.027055837 0.020613248 0.2880098 -0.027944222 -0.14228381 0.07751175
0.27708918 0.118822806 0.397097 0.025506256 -0.08966115 0.009601231 0.42288667 0.41164464
-0.10069132 -0.062662505 0.1462602 0.3079096 0.21591128 -0.39205208 0.33012435 0.19212985
0.032914508 -0.29527378 -0.19228674 -0.11689341 -0.40387318 0.14269045 0.30316892 -0.040741775
0.5513388 -0.28312868 0.31322345 -0.15757762 -0.071454 0.088988736 -0.29608163 -0.061917383
0.16303498 -0.4018349 0.07356961 0.28153348 -0.32404014 -0.033236135 0.36423215 0.13502066
-0.18219614 0.030215226 -0.0042006327 -0.0882136 0.20370227 -0.096045375 -0.15433182 0.0015492444
-0.009672432 -0.06335125 0.520462 0.11527176 0.14719371 0.18023323 0.101841256 0.32328355
-0.30632752 0.20169884 0.19348173 -0.007569551 0.27672017 0.05573234 0.1656327 0.33699667
0.088910066 0.026966752 0.13774301 0.20406939 0.19906464 0.44859385 0.2255456 0.17324905
0.12804025 0.32954338 -0.11544645 0.21843734 0.41276744 0.36017773 0.26018584 0.1849583
0.29448086 0.057512857 -0.047998186 0.016410735 0.18887903 0.123212464 0.102070875 0.18730386
-0.046130616 0.31452543 0.25244823 0.42550474 0.2340996 -0.07439728 0.16411754 0.18189868
-0.01661417 0.20730749 0.3540802 0.22093797 0.092664674 0.14954908 0.24836038 0.007865284
0.19562778 0.23050055 0.5543838 0.53281796 0.062363714 0.23884836 0.16000323 0.0070824376
