models/51-BiLSTM_Loss_0.1138643277684236.pt (torch_old, 191938 bytes, 10 tensors)

lstm.weight_ih_l0 f4 [256, 25]
000000 e8 0c db be 33 17 d5 bd d0 b8 f6 3e 7b e0 c2 be
       -0.42783284 -0.104048155 0.48187876 -0.3806189
000010 d2 c5 54 bf 1f fd 1b 3f 67 63 93 3d 75 5f 33 3e
       -0.8311435 0.6093311 0.07196694 0.17516883
000020 ce 98 4d be ae 5b 8a bc ae 21 bd 3e fe 80 1b 3e
       -0.20077822 -0.01688942 0.36939758 0.15185925
000030 08 e2 a9 3d a8 66 74 be 78 a1 c0 3e 1e de 8a 3e
       0.08295065 -0.23867285 0.3762319 0.27122587
000040 22 9d ec be ef 58 ce 3d 02 87 8a bd 41 8e fd 3e
       -0.46213633 0.100755565 -0.06764032 0.49522594
000050 46 6e 99 3e 93 22 80 3f 00 b1 17 bf 75 9e 1d 3e
       0.29966944 1.0010551 -0.59254456 0.15392478
000060 45 dc 1f 3f 29 93 a0 3d e1 9e df 3d 8d 75 e3 3e
       0.6244548 0.078405686 0.109189756 0.44425622
000070 5d 67 72 be ce a2 2d bf 8d 79 d1 bc 05 59 7e bb
       -0.23672242 -0.67826545 -0.025570655 -0.0038810384
000080 9d 4a 55 3d e6 f5 03 3f d0 62 17 bf eb 52 66 be
       0.05207311 0.51547086 -0.5913515 -0.22492568
000090 eb ba 19 be 86 e4 a1 be a7 cd 2d bf c4 4b 4d bd
       -0.1501271 -0.31619662 -0.67891926 -0.050121084
0000a0 dd 8a 95 bd af 91 4e bf 3b e3 e5 3e 54 40 b5 bc
       -0.07301877 -0.80691046 0.44899926 -0.0221254
0000b0 ac 55 60 be bd 98 0b 3f c8 a6 fc be 8c 1f 23 3e
       -0.21907681 0.54529935 -0.49345994 0.15930003
0000c0 aa 6c c9 3d 60 01 15 bf 16 f5 c1 be 27 5d 1b bf
       0.09835179 -0.58205223 -0.37882298 -0.60689014
0000d0 46 fa 62 3e 55 3b 61 3f 45 33 87 3e 34 57 25 bf
       0.22165784 0.8798116 0.26406303 -0.64586186
0000e0 1f 8c e8 3e 7e bf 81 bd 3b 24 d0 be 0c d5 22 bf
       0.45419404 -0.06335352 -0.40652642 -0.63606334
0000f0 da 6f 3a 3e 96 e6 1e 3f fa 16 60 be 43 3a 9e be
       0.1820673 0.62070596 -0.21883765 -0.30903825
000100 c5 53 71 3f 66 38 65 bf 6a e8 fa bd cb 75 9a be
       0.9426845 -0.8953918 -0.12251361 -0.30167994
000110 08 30 2f 3e 7b b4 70 be 1c be b0 3e 30 17 cf 3e
       0.17108166 -0.23506348 0.34520042 0.40447378
000120 d2 d2 89 be 60 52 ce be b2 20 06 bf 4d 79 f6 be
       -0.26918656 -0.40297222 -0.5239364 -0.4813942
000130 7d cb 52 3d a4 9f dd 3e 07 66 7c 3f bb a0 ce be
       0.051463593 0.4328586 0.9859318 -0.40357003
000140 f9 e0 e2 3d 0e 92 81 3f 86 fc bb be 4f 78 77 be
       0.110780664 1.0122697 -0.36716098 -0.24166988
000150 bb c6 f9 3d 8a 03 fe be 67 c6 02 3f 97 10 0e bf
       0.12196108 -0.49612075 0.5108399 -0.55494064
000160 11 31 c6 bf 12 37 aa be 6a 3c d9 3e 0a 7f 0f bf
       -1.5483724 -0.3324514 0.42428905 -0.5605322
000170 4a ae 97 be b5 7e 53 bd 82 60 05 bf a0 e7 15 3f
       -0.2962516 -0.05163451 -0.52100384 0.58556557
000180 45 ab 7c 3e ea cb 4a bd 2b fd 8d bd bc 9e e8 bd
       0.24674709 -0.049510874 -0.069330536 -0.11358401
000190 0b cb c0 3e e1 e7 a0 3e b4 38 a4 3e 22 96 60 3f
       0.3765491 0.3142691 0.3207451 0.87729084
0001a0 16 a1 b9 be f7 e3 40 3d 46 35 8e be e4 3e 12 bf
       -0.3625571 0.047092404 -0.2777502 -0.57127213
0001b0 69 16 15 bf bd c3 e8 be ac 1a 16 be 93 2f fc 3d
       -0.5823732 -0.45461836 -0.14658612 0.123137616
0001c0 b1 25 0f bf d8 c4 66 3e e5 8e 13 bf 32 19 0b bf
       -0.5591689 0.22536027 -0.57639915 -0.5433532
0001d0 11 e5 17 be 46 2e 8d 3d cf d3 b3 3e 53 8c e6 be
       -0.14833476 0.068935916 0.35122535 -0.45028934
0001e0 66 ad 92 3c ff c0 11 3f 99 42 34 3f 91 0e a8 3c
       0.017904948 0.56935114 0.7041412 0.020514758
0001f0 c9 59 49 be 14 cb 32 be 8c 4d 29 be cc a4 14 3f
       -0.19663157 -0.1746028 -0.16533488 0.5806396
000200 de bc c8 3d de d4 3d be 52 07 12 3f 07 d1 2d 3e
       0.098016486 -0.18538234 0.5704242 0.16974269
000210 bb ea 9d be 8e bf ff be 25 ff c9 3c fd cb ba be
       -0.30843148 -0.49950832 0.024657795 -0.36483756
000220 f4 3d 84 bd 51 fd 43 be 54 d3 9e bf 01 42 b2 be
       -0.06457129 -0.19139601 -1.2408242 -0.34815982
000230 ad 45 9e 3e 79 71 b1 be ee b3 00 bc 28 a5 ec bd
       0.30912533 -0.34656885 -0.007855399 -0.115549386
000240 d2 48 53 bc 99 72 42 3f b7 59 98 3d e0 c1 4a be
       -0.01289578 0.7595611 0.07438987 -0.1980052
000250 68 23 b4 be e6 84 3a 3f 88 29 a1 bd 7a 82 a6 bc
       -0.35183263 0.72859037 -0.078692496 -0.020325888
000260 b4 61 b8 be e9 31 ba 3e 25 87 7e be 88 00 71 bf
       -0.36012042 0.36366203 -0.24856241 -0.94141436
000270 39 78 dc be 23 93 3e 3e 6f 02 a2 3e ab b5 06 bf
       -0.43060473 0.18610816 0.31642482 -0.52620953
000280 81 08 0c bd c0 f0 ba 3e b0 52 22 3d ee 33 9f bd
       -0.034187797 0.36511803 0.03962964 -0.07773577
000290 42 b5 35 3f f9 2e e1 3e 5e 73 fc bd 0c e1 b7 3e
       0.709797 0.4398115 -0.12326692 0.35913885
0002a0 b8 72 82 3d 7b 02 f5 3e 20 59 fd 3d ef ae b1 be
       0.06369537 0.47853455 0.12370515 -0.34703776
0002b0 e2 92 cc bd 37 0d 38 bf 6b 0f a9 be dd 39 ba bd
       -0.09988953 -0.71895164 -0.33019575 -0.09093068
0002c0 4c af 49 3f dd bd 3d 3f 7a 5b af 3c 2d bb c1 be
       0.78783107 0.74117833 0.021405924 -0.37838116
0002d0 01 60 b3 3d 6b f7 eb bd 94 cd 50 3e 37 10 80 bb
       0.08758546 -0.115218006 0.20390922 -0.003908183
0002e0 b3 ba 8f be 05 42 cf 3e 9f 6a eb 3d 78 6a 64 bd
       -0.28072128 0.40480056 0.11494946 -0.0557656
0002f0 dd 3c 0d bf 06 75 fa 3e 7d 16 0f bf 12 d9 91 bd
       -0.55170995 0.48917407 -0.5589369 -0.07121481
000300 da bb 91 3e 68 37 ce 3e 45 51 b3 3e 8f 67 20 3f
       0.28463632 0.40276647 0.3502294 0.6265802
000310 4b 11 31 be 8a f9 27 bf 96 cb e3 be ad a4 11 3e
       -0.17291753 -0.6561514 -0.4449126 0.14222975
000320 af 22 cd be 4c e5 6f be c9 af 0b 3e 5c 2e 97 3e
       -0.40065524 -0.23427314 0.13641275 0.29527557
000330 7f 91 6a 3e a6 38 b3 3e 95 00 61 be a8 ef 09 3f
       0.22907065 0.35004157 -0.21972878 0.5388131
000340 ae b6 2f 3f ea 3a a9 be b0 37 38 3f 0e 64 00 3e
       0.6863812 -0.3305276 0.7195997 0.12538168
000350 4e d3 ac be d6 dc d0 be 15 64 a7 be d7 49 6f be
       -0.33754963 -0.40793484 -0.32693544 -0.23368011
000360 44 5c 12 bf e8 5e de 3e eb 8d 02 bf ba c3 ad 3d
       -0.57172036 0.43431783 -0.509978 0.084845975
000370 2a 4e cf be d6 88 92 be e5 6e 31 ba 2b 0a 84 be
       -0.40489322 -0.28620023 -0.0006768539 -0.25789008
000380 66 d9 81 3e f4 bb 05 3d df c1 1f be 9d ac ea bd
       0.25361174 0.03264995 -0.156013 -0.114587046
000390 f3 86 e3 bd 29 98 9c be 54 4b 5b be f3 df bc 3e
       -0.11109724 -0.3058484 -0.21415454 0.3688961
0003a0 81 f3 6f bd a4 08 33 bf 3c b9 30 3e f0 87 5a 3a
       -0.058581833 -0.6993506 0.17258161 0.00083362963
0003b0 e1 5b b4 3e 30 9e bd bd 60 a6 82 3e 6d 78 07 3d
       0.35226348 -0.092586875 0.2551756 0.03307383
0003c0 85 bf 7b 3e 3c c7 47 3f fa 02 c7 3e b9 6e 28 be
       0.24584778 0.7803838 0.38869458 -0.16448487
0003d0 40 26 c1 be d5 9d 6f 3e 3c 22 2f bc 48 9a 16 bd
       -0.37724495 0.23400052 -0.010689314 -0.036768228
0003e0 f6 b7 55 3e 94 b2 f5 be 9a ad ae be 4c 65 2a 3f
       0.20870957 -0.47987807 -0.34116822 0.66560817
0003f0 72 49 59 3e d6 e2 22 3e ea 95 a8 be 9e ef ba be
       0.21219423 0.15906844 -0.32926875 -0.36510938

lstm.weight_hh_l0 f4 [256, 64]
000000 71 3c 04 be 55 dd 90 be 3f b6 b9 3d 7b 43 0f be
       -0.12913682 -0.28293863 0.09067964 -0.13990586
000010 ea 1e 01 be 8b 8e e6 3e 72 87 9e 3d 08 fd 2b be
       -0.12609449 0.45030627 0.07740678 -0.16795743
000020 54 4b 0b be 56 2d a0 3b 84 88 14 bf cb c0 41 3e
       -0.13602954 0.004888217 -0.58020806 0.18921201
000030 79 34 f1 bc 87 0d 32 be 3e 95 60 3d cb 5d 8f be
       -0.029443966 -0.17387973 0.05482983 -0.28001246
000040 52 e0 8e 3d 6a a2 5d bd c5 89 84 be 36 ea 1f be
       0.069763795 -0.05410997 -0.2588636 -0.15616688
000050 69 08 a3 3e ba 93 23 bf 29 ae 45 3f 82 0b e5 3e
       0.31842354 -0.6389729 0.7721887 0.44735342
000060 2d d7 e3 bd c9 01 56 3e 5e 21 82 be 19 0e b7 3e
       -0.11125026 0.20899118 -0.25416082 0.35752943
000070 dd 52 52 3e bb 85 4c be 76 24 b3 3d d9 43 80 3e
       0.20539422 -0.19972889 0.08747189 0.25051764
000080 39 65 28 3b 95 0e 15 3e 16 7c 30 3f a3 bd 51 bd
       0.00256951 0.14556344 0.6893934 -0.051206242
000090 b0 e2 f4 bd 20 0b f8 3e 29 61 8a 37 5e 92 b0 3e
       -0.119573 0.48445988 1.6496126e-05 0.3448667
0000a0 d5 99 a8 bd 23 2b fe bd 87 de da bd de 2f 32 3d
       -0.08232466 -0.124105714 -0.10686975 0.04350268
0000b0 9d 6d 07 bd 62 9a 69 be d3 60 0c be af 0f 76 3e
       -0.03306352 -0.22812799 -0.1370881 0.2402942
0000c0 a6 75 55 be 93 54 b3 3c f5 49 f7 b9 fe 12 18 bf
       -0.2084566 0.021890914 -0.00047166614 -0.5940398
0000d0 d9 74 50 3e cd 4d c2 bc 38 29 25 3e b0 c2 64 be
       0.20357074 -0.023718739 0.16129005 -0.22339892
0000e0 2c d6 82 be 66 e9 06 bf d7 6a a5 bd c2 0d 92 be
       -0.25554025 -0.5269989 -0.08077019 -0.2852612
0000f0 0b 70 bc bd c8 b7 e7 be 44 b1 15 be df 23 29 be
       -0.09201058 -0.452574 -0.14618403 -0.1651759
000100 25 0e 92 3d 26 09 d9 3e 16 e2 10 be be cc 8f be
       0.07131604 0.42389792 -0.14148745 -0.28085893
000110 ef 11 95 3e c6 3e 39 3e bc 96 fe bd 5f 8c c7 bd
       0.29115245 0.18090352 -0.12431094 -0.097435705
000120 ab 00 b1 3e 5e f3 a2 bd 28 dc ea bd 1f e1 af 3e
       0.34570822 -0.07956575 -0.11467773 0.3435144
000130 e3 2e 48 3f 5b ef 85 3e 02 61 14 3f 3b 1a 4f bf
       0.78196543 0.26159176 0.5796052 -0.808994
000140 51 91 22 3d 5f 76 08 bf 3c 84 87 3e 8d 9b ba be
       0.039689366 -0.5330562 0.26468074 -0.364468
000150 7f 59 7f be 16 ec 82 bf 11 ec 22 3f 84 09 69 3c
       -0.24936484 -1.0228298 0.6364146 0.01422346
000160 44 4a 5c 3d 6c 09 40 3f 3e 55 89 3e 8f 99 82 be
       0.053781763 0.75014377 0.26822847 -0.2550778
000170 23 97 5b be 03 1f d9 3c 28 ab 46 be e6 f8 88 3e
       -0.21444373 0.026504045 -0.19401228 0.26752394
000180 47 cd ba 3d 06 12 3b be 78 ba 53 3e fb 83 49 3e
       0.09121185 -0.18268594 0.20676601 0.19679253
000190 af 3f d1 3e 2e ed 98 3e cc 6a af be f3 f8 f8 3c
       0.408689 0.29868454 -0.34261167 0.030392146
0001a0 77 7e 00 3f 7b 84 5a 3e c1 c0 57 3e 33 3e 48 bc
       0.5019297 0.213396 0.21069624 -0.012221861
0001b0 26 3b 1c bf be 1d 5d be 18 63 65 3e 4e ae b7 be
       -0.61027753 -0.21593377 0.22401083 -0.3587517
0001c0 45 98 cb 3d 32 62 07 be f3 c0 24 be 0e 52 13 3e
       0.099411525 -0.13221052 -0.1608923 0.1438677
0001d0 c6 7f 19 bf bc 9c 85 be 8a b3 93 3e a5 87 3a 3e
       -0.5996059 -0.2609614 0.28847915 0.18215807
0001e0 64 71 90 bd a7 ce 80 3f 25 ec 29 3e 91 ff ce be
       -0.070528775 1.0063065 0.16593988 -0.40429357
0001f0 c8 d8 fa 3e 67 ad 61 3e 64 41 89 be 93 3b 86 3d
       0.48993516 0.22038804 -0.26807702 0.06554332
000200 67 b1 84 3d 8a 15 d4 bc e8 35 b2 3e 29 d1 bd 3e
       0.06479149 -0.025889177 0.34806752 0.3707364
000210 3d 4d 5e bf 76 bf 89 be 9f 8a 77 3e 92 60 02 3f
       -0.86836606 -0.26903886 0.24173974 0.50928605
000220 88 02 2b bf 86 c4 ab 3e 05 ef fa bd c9 e9 07 bf
       -0.6680074 0.33548373 -0.122526206 -0.530911
000230 81 ce 8e 3e 44 4c 14 3e 50 a4 62 3e a0 a7 d6 3e
       0.27891925 0.14482218 0.22132993 0.41924763
000240 01 68 cb 3d 83 e7 9c 3e a5 57 22 be cb 72 0b bf
       0.099319465 0.3064538 -0.15853746 -0.54472035
000250 c5 32 a4 3e 59 9d dd 3e 2a 92 01 bf 9a b1 89 3e
       0.32069984 0.4328411 -0.50613654 0.26893312
000260 fe 28 b9 3d 5b 04 d6 be 6e b5 10 bd 73 76 93 3e
       0.09041022 -0.41800198 -0.035329275 0.28801307
000270 93 cf a4 3e f6 74 cd bd 31 2c 3d 3d 77 9e d6 bd
       0.32189617 -0.10032074 0.046184722 -0.104794435
000280 4a 1a 57 bd 6d d6 3e bd a4 14 b8 3d ef c2 66 bd
       -0.052515306 -0.04659121 0.08988312 -0.056338247
000290 a7 11 8a be d3 2a a4 be 77 60 c4 3d b2 ac 8b 3e
       -0.26966593 -0.32063922 0.09588712 0.27280194
0002a0 f7 c8 ac be a0 b2 db 3e 89 93 bc bd 1c 47 0c 3d
       -0.33747074 0.42909718 -0.092078276 0.034247503
0002b0 2d d6 a0 3d 18 6b 6e be 5a f3 4d 3c a1 d2 a2 bd
       0.07853351 -0.2328304 0.012570227 -0.079503305
0002c0 56 d5 3d 3a 8c e1 62 3d 29 08 a9 be 9d d0 66 3e
       0.00072415674 0.05539088 -0.33014038 0.22540517
0002d0 98 ae 8f 3e fd 7a 32 3d a6 43 0a be 6d 6c a4 3e
       0.28062892 0.043574322 -0.13502368 0.32113972
0002e0 0b 1a be bc 09 e7 79 3e b7 27 a9 be 04 58 c4 be
       -0.023205778 0.24404539 -0.33038113 -0.383484
0002f0 37 79 b9 3b f1 59 b2 3d 10 df 34 3e 51 0e 1a be
       0.005660202 0.08708561 0.17663217 -0.15044524
000300 cc 12 85 be 39 8b d3 3e 61 10 c4 be b6 8d 97 3e
       -0.25990903 0.41317156 -0.38293746 0.29600304
000310 cf f4 e1 3e f9 68 ee 3d fb 7d 40 be bf f2 17 3f
       0.44132087 0.11641116 -0.18798058 0.59354776
000320 c3 f4 90 3d 88 4a 01 3f 21 c7 30 bf aa 2b 3f 3f
       0.070779346 0.5050435 -0.69053847 0.74676
000330 18 64 1c bf 22 04 c2 bd 29 33 a6 3d 29 c5 0a bf
       -0.6109023 -0.094734445 0.08115227 -0.5420709
000340 7d ac 03 bf 1a 48 74 be eb 31 67 3d c2 fe 19 3e
       -0.5143507 -0.2385563 0.05644409 0.15038589
000350 a5 91 ee 3e af 91 6e be fd c8 98 3e ae 7d 8d be
       0.46595493 -0.23297761 0.29840842 -0.27634948
000360 2c e4 03 bf eb 14 da be 8d 35 36 3d 1c ee f5 bd
       -0.5152004 -0.42594084 0.044484664 -0.120083064
000370 98 93 fd 3d 0d 07 11 bf 7e a1 75 bd 1b c9 c1 3e
       0.12381667 -0.56651384 -0.059968464 0.37848744
000380 6a 9e 6c 3e 3a 7c 87 bd 85 9d 84 3d 6b f9 9a 3c
       0.23107305 -0.06615491 0.06475357 0.01891776
000390 c1 f3 dc be c6 d6 63 3e 9f 72 c7 3d f1 18 56 bd
       -0.4315472 0.22249898 0.09738659 -0.05226988
0003a0 b9 6d f3 3e 6d f9 05 3e 33 03 d5 3e 07 74 2a be
       0.4754465 0.1308343 0.41604003 -0.16645823
0003b0 25 b4 2e bf 18 55 d9 3e a1 d4 e4 bd 94 74 d2 be
       -0.6824363 0.42447734 -0.11173368 -0.41104567
0003c0 30 af d3 be 14 58 1b bd c4 ec ed 3c 4a 62 e4 be
       -0.41344595 -0.037925795 0.029043563 -0.4460624
0003d0 b8 df 16 3f 5f e0 91 3e f8 07 33 bf ec 41 e5 bd
       0.5893512 0.28491494 -0.69934034 -0.11194214
0003e0 73 3c 9c 3d ab 69 93 be 3e 9b 87 3e e4 6d 1f 3f
       0.07628717 -0.28791556 0.26485628 0.62277055
0003f0 0e 80 88 3c 3b 62 c2 3e 94 14 da bd 88 08 22 bd
       0.016662624 0.3796557 -0.10648456 -0.039558917

lstm.bias_ih_l0 f4 [256]
000000 0b 5a d7 3e b6 ca e6 3e 24 0e 99 3d 6e f6 52 3e
       0.42060885 0.4507653 0.074734 0.20601818
000010 25 9a d1 3e 54 c9 bd 3d ef 4f 79 3e 99 40 7a 3e
       0.40937915 0.09266916 0.24346898 0.24438705
000020 bb 95 56 3e 19 b4 f7 3c 6e 36 38 3e 2b fb 43 3e
       0.20955555 0.030237244 0.17989513 0.19138782
000030 9e eb 24 be d6 32 9b 3e 3f 94 a9 3e 5a cf 3d 3e
       -0.16105506 0.30312222 0.33120915 0.1853613
000040 1a d8 96 3e 39 41 75 3d ee 6e 9d 3e 8d 4f c6 3d
       0.29461747 0.059876654 0.30748695 0.09683142
000050 68 a6 b1 3e f1 0c 8f be 56 8b 66 be ff 57 01 3e
       0.3469727 -0.2793956 -0.2251409 0.12631224
000060 c7 04 bc 3e ad e9 ac 3e ab 4f 8b 3e 00 07 42 3e
       0.36722395 0.3377203 0.2720922 0.18947983
000070 1f c6 76 3e e9 84 b2 3e 74 3d 89 3e 98 53 9e bd
       0.24099015 0.34867027 0.26804698 -0.07730788
000080 66 9f 97 3e ca f0 49 3d af 30 64 3c 4d eb 51 3e
       0.296138 0.0493019 0.013927623 0.20499916
000090 7e 6f 38 3f 09 cb 0b 3f 7a 90 a8 3e 24 d5 a3 3e
       0.72045124 0.5460668 0.32922727 0.3199855
0000a0 17 77 5e 3d 5d bd b3 3e a5 2d e3 3d 32 f4 a2 3d
       0.05431279 0.3510541 0.110926904 0.07956733
0000b0 9b f3 8d bd 2c 4b 03 3f 6b 15 05 3f 0d 93 46 3e
       -0.0693123 0.5128658 0.51985806 0.19392033
0000c0 3f 6c 75 3e 98 74 6b 3e 47 23 a2 3e c8 db c6 3e
       0.23967074 0.22993696 0.3166754 0.38839555
0000d0 e0 0a 8f be 6d 8f 35 3d ee 06 63 3e e3 3f 7f 3e
       -0.27937984 0.044326235 0.22170612 0.24926715
0000e0 8a cb df 3e 73 40 89 be 70 59 54 3d 0b 8a 57 3d
       0.43709975 -0.26806983 0.051843107 0.052621882
0000f0 ba b7 13 3e 76 4a 54 3e b7 3a b1 3e ff 41 d5 3e
       0.14425555 0.2073153 0.34615108 0.41651914
000100 f1 0e 4b 3e aa 22 26 3e 7f 6e 0b 3d 8f 40 d4 3e
       0.19829918 0.16224161 0.034040924 0.41455504
000110 93 60 45 3e ee c8 a7 3d a1 e6 80 3e 92 81 a7 3e
       0.19275121 0.08192621 0.25175956 0.32716042
000120 a6 d1 41 3d ae 79 41 3e 21 c7 11 3e 02 ec 43 3e
       0.047319077 0.18894073 0.14236118 0.19132999
000130 8b d1 36 3c 7a 41 c5 bc 07 0c d0 bb 44 ee 1a 3e
       0.011158357 -0.024079073 -0.00634909 0.15129954
000140 df f8 c0 bd bf 5d 23 3e e8 75 25 bc a7 e6 e4 bd
       -0.094224684 0.1595373 -0.010098912 -0.11176806
000150 68 18 81 39 24 64 01 3e d9 f6 59 bc 0b e3 21 3e
       0.0002462298 0.12635857 -0.013303482 0.15809266
000160 54 f2 bb 3d 04 2f b7 3d b4 af 48 3d 39 ad e6 bd
       0.0917708 0.089445144 0.04899569 -0.11263508
000170 47 5a 8c 3d 5f 28 e8 3d 18 67 31 3e 03 7b 24 be
       0.068531565 0.11335825 0.17324483 -0.1606255
000180 7a 91 b2 bd d9 16 24 3c c8 27 30 3d 02 65 2d 3e
       -0.08719154 0.010015213 0.04300669 0.16933063
000190 a8 24 57 bc ff 36 2f 3e ae c9 7e 3e b4 6d 61 bd
       -0.013131298 0.17110823 0.24881622 -0.05503626
0001a0 2d 49 e9 bd 0c a4 5c bd e0 16 b5 3d 5f c7 ac 3e
       -0.1139091 -0.053867385 0.08842254 0.33745858
0001b0 6a 38 3d 3d 89 5c 52 3c bb 69 87 3e e9 e9 b0 3d
       0.04619638 0.012839445 0.26447853 0.08638365
0001c0 ac cc 43 bd 37 f3 83 3d f5 30 1d 3d 8e 41 d6 3d
       -0.047802612 0.06442874 0.038376767 0.10461722
0001d0 dd 2a 0b 3e 6a ce 7f 3e ba 0d 38 3d a5 5a 06 3e
       0.1359057 0.24981084 0.044934966 0.13120516
0001e0 18 f4 20 3d 7b 76 50 bd ac cc 19 be be 79 89 3e
       0.039295286 -0.05089424 -0.15019482 0.26850694
0001f0 22 e2 e4 3d dc a9 97 bb df 9c 89 3e cc 44 1a 3e
       0.11175944 -0.004628403 0.26877496 0.15065306
000200 58 7e 5b 3e 18 37 0b 3d e2 ea ce bd 1a c6 b9 3e
       0.21434915 0.03398809 -0.10103394 0.36283952
000210 eb f4 7d bd e6 25 d6 3b e0 4a 41 3e 16 5a ae bd
       -0.06200115 0.0065352796 0.18876219 -0.08513276
000220 48 7a 01 be 8d 2c 2c bd 76 3e e0 bd a3 39 57 bd
       -0.12644303 -0.042034674 -0.109494135 -0.0525452
000230 3f b8 0c be 50 b8 bd 3c 57 dc ca bc 71 71 b9 ba
       -0.1374216 0.023159176 -0.02476327 -0.0014148188
000240 a0 5e 41 3e c8 29 85 3d d9 72 24 be 4c 92 b7 bc
       0.18883753 0.0650211 -0.16059436 -0.022408627
000250 0e 35 5b 3e 3c 4e cc 3e 6e d4 3f be 18 69 b0 3d
       0.21406958 0.39903438 -0.18733379 0.08613795
000260 03 8e 81 3e 0f 97 13 bc 71 56 2c be e1 d6 00 be
       0.2530366 -0.009008183 -0.1682985 -0.1258197
000270 2b 64 ad 3d 13 2a eb bd 8b cd 2b 3e f9 5a 2a be
       0.08466371 -0.114826344 0.16777627 -0.16636266
000280 49 eb 06 be 27 5c ce 3d 27 f4 a0 be 32 c0 db bd
       -0.13175692 0.100761704 -0.31436273 -0.10730018
000290 13 5e 19 bd 4a 43 e3 be e8 c4 12 3e f9 fe 81 3e
       -0.03744323 -0.44387275 0.14332926 0.2538984
0002a0 fd b5 79 3d a7 dd 33 3e fc da 2f 3e f6 b7 8e bb
       0.060964573 0.17565022 0.1717338 -0.004355426
0002b0 2f e0 d7 3d 03 a3 87 3d 1f 84 ba 3d 36 41 1c be
       0.105408065 0.06622889 0.09107231 -0.15259251
0002c0 d3 62 0b be 87 ab a3 3c e4 c0 96 be e1 e9 33 bd
       -0.13611917 0.019979252 -0.2944404 -0.043924216
0002d0 e7 dc 81 bd fa 51 cf bc dc 4c 47 3d cd a4 ad 3d
       -0.06340962 -0.025307644 0.048657283 0.08478699
0002e0 55 65 75 3d 02 5b 92 be 05 47 83 bd d0 59 dc 3c
       0.05991109 -0.28585058 -0.0641003 0.026898295
0002f0 76 55 72 bd 6b 56 cc bd 34 60 ac 3e c0 6a 4b be
       -0.059163533 -0.099774204 0.33667147 -0.1986494
000300 96 2d dd 3e 08 58 c2 3d 70 3d 76 3e b4 82 7b 3d
       0.43198842 0.09489447 0.24046874 0.061403945
000310 5b 0c 36 3e 79 f7 14 3e c7 e2 9f 3e bc c5 c0 3e
       0.1777815 0.14547528 0.31227705 0.3765086
000320 6e 15 a7 3e 8a c9 a1 3e a1 8b 5b 3e e3 0e 01 3d
       0.32633537 0.31599075 0.21439983 0.031508338
000330 37 bb d9 bd a5 46 ce 3e fa 41 74 3d 95 87 3f bc
       -0.106314115 0.40288273 0.059633233 -0.01169004
000340 07 97 1d 3e 75 79 82 3d 2f 43 a2 3e 3e 89 9d 3e
       0.15389644 0.06370822 0.31691882 0.3076877
000350 0b 16 f6 3e 9b 41 74 be d5 7a 1f be 2f 22 6a 3e
       0.48063692 -0.23853152 -0.155742 0.22864603
000360 ee 77 cd 3e 19 83 ca 3e 50 86 43 3e ec 35 50 3e
       0.40130562 0.39553145 0.19094205 0.2033307
000370 b8 ad 06 3e c7 1a 40 3e 31 2c 04 3d cb 91 3f 3d
       0.13152206 0.18760215 0.032268707 0.0467699
000380 de 72 22 3e a2 e9 95 3e 93 ad 14 be 9b 14 a5 3e
       0.15864131 0.2927981 -0.14519338 0.32242283
000390 cf 5e 3c 3f 95 c6 63 3e 06 68 f0 3e 9f 95 cb 3e
       0.73582166 0.22243722 0.46954364 0.3976259
0003a0 95 93 88 bb 42 9b 82 3e 47 d1 bb 3e 47 2a d7 3e
       -0.004167984 0.25509077 0.36683103 0.42024443
0003b0 e8 83 2e 3e 8f c3 a8 3e 73 3d de 3e 43 68 f1 3d
       0.17042506 0.329617 0.43406257 0.117874645
0003c0 7a 2a b2 3e e9 ed 72 3e f1 71 a0 3e 05 5c d6 3e
       0.34798032 0.23723568 0.3133693 0.4186708
0003d0 27 86 9e be 78 ff 0e 3e 1f c3 59 3c 3f d0 a5 3e
       -0.30961725 0.13964641 0.013291149 0.32385442
0003e0 42 3b 0b 3f cd 4f 55 be bf 2d 58 bd 5e a1 8f 3e
       0.54387295 -0.20831223 -0.052778002 0.280528
0003f0 64 26 b0 3e b7 22 33 3e ee d2 36 3e 80 80 aa 3e
       0.3440429 0.17493711 0.17853901 0.33301163

lstm.bias_hh_l0 f4 [256]
000000 83 a3 f3 3e 2a 43 d5 3e 31 30 43 3e d0 85 44 3e
       0.47585687 0.41652805 0.19061352 0.1919167
000010 fb f1 b8 3e c8 98 74 3e 5f 26 77 3e 3f 0e 5f 3e
       0.36122116 0.23886406 0.24135731 0.21782778
000020 cd 49 1f 3e b1 fb 67 bd 16 3e c5 3d d7 52 72 3e
       0.15555497 -0.056636516 0.096309826 0.23664413
000030 f8 a3 94 bd 99 19 21 3e 25 88 ab 3e 9a d5 82 3e
       -0.07257837 0.15732421 0.33502308 0.2555359
000040 b5 a3 44 3e fd cf 5d 3e 96 92 a2 3e a3 4c 8b 3e
       0.19203074 0.21661372 0.3175246 0.27206907
000050 44 4f b6 3e 8a ae 69 be ea e0 7b be 29 05 0b 3e
       0.3560735 -0.22820488 -0.24597517 0.13576187
000060 bd 1d c0 3e 05 03 a7 3e f8 42 70 3e 00 15 20 3e
       0.37522689 0.3261949 0.23463047 0.15633011
000070 1f 44 4c 3e 1d 7a 2a 3e 32 c5 4e 3e 92 39 b7 3c
       0.19947861 0.16648145 0.20192412 0.022366319
000080 b8 05 a1 3e 08 e4 8e 3e fa 7d 4a bd f0 e1 01 3e
       0.31449676 0.2790835 -0.049436547 0.12683845
000090 44 00 3a 3f 2d c5 05 3f 2a 17 f9 3e e2 9d 06 3f
       0.72656655 0.5225399 0.48650485 0.5258466
0000a0 97 6f a7 bd 5c a3 61 3e 4f f7 9a 3e 34 30 f3 3d
       -0.08175581 0.22034973 0.30266806 0.118744284
0000b0 b9 7b 60 bd 9a 83 bf 3e f1 95 3f 3f ee d4 b4 3e
       -0.05480549 0.37405092 0.7483817 0.35318702
0000c0 6f f6 1e 3e c6 2a ba 3d 8b 2f 97 3e ba 9a 00 3f
       0.15523694 0.0909019 0.2952846 0.50236094
0000d0 72 72 1a be 38 41 a4 3c 76 bc 28 3e 7a 33 b4 3e
       -0.1508272 0.02005063 0.16478142 0.35195524
0000e0 76 e3 d9 3e 63 a9 6d be 6c be 2b 3d d0 cd 5a 3e
       0.4255635 -0.23209147 0.041929647 0.21367574
0000f0 4e 2b 80 3e 80 57 58 3e 19 9a c1 3e 57 ee c2 3e
       0.2503304 0.21127129 0.3781288 0.38072464
000100 f3 38 2f 3e dc 98 1a 3e 78 39 12 3e 1c f2 6d 3e
       0.17111568 0.15097374 0.14279735 0.23236889
000110 f5 15 00 3e 75 36 38 3e fe f4 06 3e d6 dc 53 3e
       0.12508376 0.17989524 0.13179395 0.20689711
000120 a4 a0 99 3d 52 fa 1d 3e 96 e7 b6 3c f5 34 d5 3d
       0.07501343 0.15427521 0.022327226 0.104104914
000130 67 e2 1c 3d 50 2e 69 ba 73 73 b9 bc de c2 2c 3e
       0.03830185 -0.0008895146 -0.022638058 0.16871211
000140 79 7a 9b 3d c0 1e 6e 3d 87 21 9c bd 17 25 d8 3d
       0.07591719 0.058134794 -0.07623582 0.10553949
000150 33 39 ee 3d 6b 6b b2 3b 9b fb e3 3d e5 18 21 3d
       0.11632004 0.005444934 0.11131974 0.039330382
000160 d6 17 8b bd df 8d e3 3c 0c e9 a5 3d e4 44 89 bc
       -0.06791656 0.02777761 0.08101091 -0.016756482
000170 a2 7a 46 3e 33 be 46 3e 8e e5 61 3e a7 08 be bd
       0.19382718 0.19408493 0.22060224 -0.09278994
000180 ea 8e d7 3d 5a 59 8e bd 8c e9 4a bd d7 72 e4 3c
       0.105253056 -0.06950636 -0.049539134 0.027886791
000190 67 b8 8b 3d 71 d4 41 3e e7 ad 05 3e 16 b1 89 bd
       0.06822281 0.18928696 0.1305462 -0.067232296
0001a0 85 5f 04 be ea df 25 bd 72 88 ab bd 31 d3 c4 3e
       -0.12927063 -0.040496744 -0.08375634 0.38442376
0001b0 87 bb 66 3e 16 5c 98 bd 66 c8 5b 3e 87 81 60 3d
       0.22532474 -0.07439439 0.21463165 0.054811027
0001c0 3a 84 9f 3d 9f 97 1e 3c 3a c8 e1 bb 0f c4 71 3d
       0.07788892 0.009679704 -0.006890324 0.059024867
0001d0 90 7b 82 3d 61 31 8f 3e f2 44 d1 bc b3 da f8 3c
       0.06371224 0.2796736 -0.025545571 0.030377721
0001e0 98 96 b8 3d 74 7a 12 3c 53 b2 55 bc 5b 86 26 3e
       0.090130985 0.008940328 -0.013043004 0.1626219
0001f0 64 96 1f 3e f6 82 b1 bc 9d 11 ae 3e d8 1d 08 3e
       0.15584713 -0.021668892 0.33997813 0.13292634
000200 0b 5d cf 3d da e3 46 3d 7d 32 9f bb 5e 9d bf 3e
       0.101251684 0.04855714 -0.0048583136 0.3742475
000210 0b 4e 53 be 03 c2 79 bc 31 f4 c1 3d e4 59 e5 3d
       -0.2063524 -0.01524401 0.09470404 0.11198786
000220 f2 b4 76 be 0a 7f f1 bc ae f3 d9 bd 67 d9 7a be
       -0.24092463 -0.029479522 -0.10642181 -0.24496995
000230 f7 44 f4 bd 5e 02 fa bb 14 fa 8a 3d a5 65 6b bc
       -0.119272165 -0.0076296767 0.0678598 -0.014367496
000240 bf f7 15 3d dc 58 b2 3d b7 7a a9 bd 70 8b 09 be
       0.036613222 0.08708355 -0.08275359 -0.13432097
000250 10 81 3d 3e 08 55 df 3e f6 b5 4d be 23 ea 45 bd
       0.18506265 0.4361956 -0.20088944 -0.048318993
000260 95 6e a9 3e fb ca 5e 3c 92 75 84 3d bb ee 4b be
       0.3309218 0.013598199 0.06467737 -0.19915287
000270 81 b5 06 3e e5 2c d1 bc 47 16 9f 3e 46 b0 a7 bd
       0.13155176 -0.025534103 0.31071684 -0.08187918
000280 d1 56 36 be d8 6f 21 bc 97 2b 3c be 4b 73 9c bc
       -0.17806555 -0.009853326 -0.18376003 -0.019097945
000290 d7 a3 2c 3c e2 df d8 be 29 3e 81 3d bc ce 27 3e
       0.010537109 -0.4235831 0.06310684 0.16387457
0002a0 f7 07 73 3e 31 26 bb 3d 03 86 91 bc a7 63 d8 3d
       0.23733507 0.09138144 -0.017764097 0.10565882
0002b0 37 d1 5d 3e 12 44 93 3e b7 43 dd 3d de a6 4e be
       0.2166184 0.2876287 0.10803931 -0.20180842
0002c0 ce 05 ba bd 41 b4 a5 3d 8a 1b 97 be 53 85 27 bc
       -0.090831384 0.08091021 -0.29513198 -0.010224658
0002d0 83 dc 0f 3e 4b a1 ed bd b4 96 18 bd 5f fb 9a 3c
       0.14048962 -0.1160303 -0.037253097 0.018918691
0002e0 e8 bf 64 3c d6 45 91 be 6f 10 8b bc 74 cb a8 3d
       0.01396177 -0.28373593 -0.01697561 0.082419306
0002f0 00 7b 0d be a7 42 b8 bd 16 8d 8a 3e 64 f9 82 be
       -0.13816452 -0.08997088 0.27060765 -0.25580895
000300 4c 79 a1 3e e8 07 c2 3d ba 6c cb 3e 2d d8 26 bd
       0.31537855 0.09474164 0.3973139 -0.040733505
000310 5e b1 ac 3e 2b c8 92 3e 3b ff 40 3e ae 61 f2 3e
       0.3372907 0.2866834 0.18847363 0.4734015
000320 54 54 32 3e e4 7d 2f 3e f5 f6 53 3e 25 ba c0 bd
       0.17414981 0.17137867 0.20699675 -0.09410504
000330 83 4a ef 3c 25 36 b5 3e 02 81 82 3e 72 50 b9 3d
       0.029210335 0.35392871 0.2548905 0.09048547
000340 ed 83 dc 3d 75 0b 5f 3e f9 70 ae 3e 6f b6 44 3e
       0.1076735 0.21781714 0.34070566 0.19210218
000350 66 68 fa 3e f7 01 4f be dc f8 b7 3c a5 a3 1c 3e
       0.48907775 -0.20215593 0.022457533 0.152968
000360 66 09 56 3e 6f e8 c3 3e 56 73 b0 3e a4 5c 21 3e
       0.20902023 0.3826327 0.34462994 0.15757996
000370 0c 9e b9 3e 0d 21 35 3e dc a4 a0 3d e8 84 d2 bd
       0.36253393 0.17688389 0.078439444 -0.10279256
000380 d4 36 36 3e 8e 5a 94 3e b9 11 5d bd 07 93 c2 3e
       0.17794353 0.28975338 -0.05397198 0.38002798
000390 5d 0c 46 3f de 4a 5c 3d f8 67 c1 3e 6f 6c d2 3e
       0.77362615 0.053782336 0.37774634 0.41098353
0003a0 1f b9 89 bb 51 1b b1 3e d9 6a 0c 3f 17 e5 9e 3e
       -0.0042029764 0.34591153 0.54850537 0.31034157
0003b0 36 d5 d6 3d a5 af c2 3e 27 24 2c 3f b9 38 4a 3e
       0.104898855 0.3802463 0.67242664 0.197482
0003c0 96 81 a3 3e 25 9d 34 3e a3 70 98 3e d7 1f df 3e
       0.31934804 0.17638071 0.29773435 0.4357898
0003d0 ba 85 fa bd 9a b9 42 3e 0a a1 a8 3d f5 1b b8 3e
       -0.122325376 0.19016114 0.08233841 0.3595883
0003e0 61 5c 04 3f a4 88 81 be c7 dc a8 3c 26 7a 90 3e
       0.5170346 -0.2529956 0.020613087 0.28218192
0003f0 ea 37 8f 3e 98 33 38 3d f1 ba be 3e ee 1c aa 3e
       0.27972347 0.04497108 0.37252 0.33225197

lstm.weight_ih_l0_reverse f4 [256, 25]
000000 9f fc ca 3c be c1 1c 3e ff 7e bf be c2 03 68 3f
       0.024778662 0.15308282 -0.37401578 0.90630734
000010 4a ed 78 bf d6 d1 89 be ee fb 00 3f b4 a0 df bb
       -0.97237074 -0.26917905 0.50384414 -0.006824577
000020 6f 14 79 be 3b ba 14 3f b5 fd 68 bf 8d c9 71 3f
       -0.24324201 0.58096665 -0.91012126 0.9444817
000030 b7 49 c7 bd 20 b0 58 bc 5b c9 7f be 21 07 06 bf
       -0.09730857 -0.013225585 -0.24979155 -0.5235463
000040 01 69 0d 3d 65 02 79 bf 3e 4d a0 3b 07 7f 01 3f
       0.034523968 -0.9726928 0.0048920205 0.50584453
000050 09 ce ba 3e 47 fa 12 3f 6e 96 70 bf e4 5c 0f bf
       0.36485317 0.5741314 -0.9397954 -0.56001115
000060 00 ea 8b bf 4f 23 1f 3c 5f 1e bd be 80 a4 e6 be
       -1.0930786 0.009713008 -0.36937234 -0.4504738
000070 4d 9c 41 bd cd 6e 6d 3e 11 0e b5 be d0 a6 95 3e
       -0.0472682 0.23186798 -0.35362294 0.2922883
000080 54 7b 66 bd 6b 68 fc be 6e 94 7a 3e eb e1 9b 3e
       -0.05626996 -0.49298415 0.24470684 0.304458
000090 b7 88 a6 bd fe 5a 29 bf 26 11 0d 3f 8c 87 06 3c
       -0.08131545 -0.6615447 0.5510429 0.008211028
0000a0 7d 6d 28 3f f1 41 87 3f f7 59 d4 be 86 96 93 be
       0.65792066 1.0566999 -0.41474888 -0.28825778
0000b0 ea 6b 44 be 9d 67 33 bf 23 8f 28 be 01 a0 0e bd
       -0.19181791 -0.70079976 -0.16460852 -0.03482056
0000c0 7c 7a ff be 96 86 9e 3d eb 4a e8 bd 9e f0 7d 3e
       -0.49898136 0.07740514 -0.113424145 0.2479882
0000d0 b0 f2 ed 3c 40 fe d7 3d 61 8c b3 be 60 d2 c8 3e
       0.029046386 0.10546541 -0.35068038 0.39223003
0000e0 f1 d5 72 3f 84 4e 8f bb 0c 14 0c bf 7f 30 c9 3e
       0.948577 -0.0043733735 -0.5471809 0.39294812
0000f0 86 95 59 bf 26 9b 41 3e 0f 67 44 bf 32 99 88 3e
       -0.8499378 0.1890684 -0.76719755 0.2667938
000100 14 2a 65 bf 40 cc 61 be a0 cb 06 3f 48 e3 82 3d
       -0.8951733 -0.22050571 0.5265446 0.06391007
000110 50 1b 1d bf cf 9e 5a bf 72 17 4c be f7 0d c4 bd
       -0.613698 -0.8539857 -0.19930819 -0.09572976
000120 7d db 64 3e 0a 7d 08 3f ac a4 82 be e2 ed e1 3d
       0.22349353 0.53315794 -0.2551626 0.11031701
000130 d7 e4 0a bf 3d c5 96 3d 8f 3d 13 3f 5d 99 e3 3d
       -0.5425543 0.07361839 0.57515806 0.11113236
000140 3e 2c 8e 3e 2e 85 28 3f 7b 6e 80 3e ed 1f 01 bc
       0.2776813 0.65828216 0.2508429 -0.007881147
000150 fd 47 97 3c 5b 86 80 bf cb 5c 43 be 6f a5 59 bd
       0.018466944 -1.0041002 -0.19078366 -0.053136285
000160 a0 fd 5b bf 6a 68 5f bf 41 99 51 3f e8 b6 f9 3e
       -0.85933876 -0.872687 0.8187447 0.4877236
000170 32 5e 0f be 22 b8 b6 3e 53 a5 6d 3f ae 5e dd 3e
       -0.14000776 0.35687357 0.9283039 0.43236297
000180 87 de ef 3e 8f cc 5e 3e 88 6f 53 3f 11 c1 a8 bd
       0.46849462 0.2175772 0.8259206 -0.082399495
000190 10 ac 96 be 2f 84 b8 be b7 fb da 3e b1 27 3a 3f
       -0.29428148 -0.36038348 0.42770168 0.72716814
0001a0 41 22 9f be c2 b6 a1 bd 32 0c 7f be bb 58 e6 be
       -0.3108082 -0.078961864 -0.24906996 -0.4498957
0001b0 c8 ad 21 be a0 1f 09 bf e2 65 f9 bc 98 5c 96 3d
       -0.15788949 -0.5356388 -0.03044409 0.073418796
0001c0 87 23 01 bd 9d 32 83 be 6c 2e 8f bd c3 c8 3c bc
       -0.031528022 -0.25624552 -0.06991276 -0.011522475
0001d0 26 36 a4 3e 8c 57 ad 3e e4 2f 52 3e 83 f5 9d 3e
       0.32072562 0.33855855 0.20526081 0.30851373
0001e0 b2 c2 81 3e d8 1c d9 3e e8 2a ac bd 20 bb a5 bd
       0.25343853 0.4240482 -0.08406621 -0.08092332
0001f0 f8 03 1d bf d0 a6 81 be 10 44 0b 3e d0 38 ba 3e
       -0.6133418 -0.2532258 0.13600183 0.3637147
000200 8a d7 2d be ac d9 19 3f 94 ed 52 be ee 9b 2e be
       -0.16976753 0.60097766 -0.20598441 -0.1705167
000210 bd e0 72 be c5 07 a1 3e 5d 58 63 be 8f b1 0f 3f
       -0.23718543 0.3145124 -0.22201677 0.5613031
000220 ec 9f 51 3d 04 c8 c4 bd 8f 74 9c 3d 00 74 6f 3e
       0.051177904 -0.096084625 0.07639419 0.23384094
000230 8e f6 2c be 7f 04 5e 3e 8e e9 9c 3d 0b 37 28 be
       -0.16890928 0.21681403 0.076617345 -0.16427247
000240 22 a3 d8 3e 47 a5 be 3e af 76 07 bf b6 1c 85 be
       0.4231196 0.37235472 -0.5291547 -0.25998467
000250 4d 6a d7 be dc c4 7f be a4 70 3d 3e e2 e6 11 bf
       -0.4207329 -0.2497744 0.185 -0.56992924
000260 af 12 6d 3e 80 42 a4 be 14 ff a1 be d0 19 9a bd
       0.23151658 -0.32081985 -0.31639922 -0.075244546
000270 2e 2f 37 3f a5 2d 34 3f 3c b9 88 be a2 7a 8b 3e
       0.71556365 0.7038215 -0.26703823 0.27242
000280 49 16 2f 3f 85 ca 67 be da 7f 83 be ad e2 80 bf
       0.6839338 -0.22635849 -0.2568348 -1.0069176
000290 85 35 97 3e e8 de 26 3e 46 ae 99 3c 00 e1 fd 3e
       0.2953302 0.1629597 0.018759858 0.49585724
0002a0 b3 b1 06 bf df ca 05 be 01 f0 5f 3f 60 bf 5c 3f
       -0.526149 -0.1306567 0.8747559 0.86229515
0002b0 c8 ab 78 be fc ba 98 3e 63 f9 b3 3e 01 49 71 3e
       -0.2428428 0.29830158 0.35151204 0.23563005
0002c0 f4 34 7b be cb 59 d7 3e ea 00 2f bf 25 49 89 bf
       -0.24531919 0.42060694 -0.6836077 -1.0725447
0002d0 db b3 d2 bd a4 53 99 3e 79 b5 de 3e 1b af db be
       -0.10288211 0.29946625 0.43497828 -0.42907032
0002e0 10 de 1d bf 30 75 9e 3e b3 d8 9a be 33 6e d9 be
       -0.61666965 0.30948782 -0.30243453 -0.42466888
0002f0 89 a4 12 3e c8 1f 9d 3f 6e f4 84 be 71 11 8f be
       0.14320578 1.2275324 -0.25967735 -0.27942994
000300 25 9f 2f 3f 60 90 94 be 05 e8 db be ed 21 b5 bd
       0.6860221 -0.290164 -0.42950454 -0.088443615
000310 e6 da f8 be f5 07 bb be 91 02 70 3e 8e 5e ed 3e
       -0.48604506 -0.36529508 0.23438479 0.46361202
000320 16 bf 85 3e dc 6c 0f be 3a c8 a2 3e 7f 83 b2 be
       0.2612235 -0.1400637 0.31793386 -0.3486595
000330 db b4 f3 be 24 aa 92 be b6 72 5d 3e 59 da f5 bd
       -0.4759892 -0.28645432 0.2162579 -0.12004537
000340 57 ab 29 bf 63 06 0f be 53 f7 3d 3e e0 9a 13 3d
       -0.6627707 -0.1396728 0.18551378 0.036036372
000350 2e 7e 0e 3c 98 e8 a0 bd 9a 81 b5 be f4 ed be 3e
       0.008697076 -0.07856864 -0.3545044 0.3729092
000360 1a be 5d 3d 1d ee 22 bf c2 10 d9 bc 84 30 5f bc
       0.054136373 -0.6364458 -0.026497249 -0.013622407
000370 c7 17 e0 be c9 99 bb 3c e4 48 03 3f 65 91 25 3e
       -0.4376814 0.022900479 0.512831 0.16168745
000380 be 17 8e 3e 92 f7 aa 3d 2b 79 45 be 9f df 36 bf
       0.2775249 0.083480015 -0.19284503 -0.7143497
000390 3d 59 ed 3e cb 0b 9b be 43 f9 01 3f 6d 96 a6 bd
       0.46357146 -0.30282435 0.5077097 -0.0813416
0003a0 d5 75 d2 3e 8f 5d 11 3f 4a 11 d7 bd 2b 92 2e be
       0.41105524 0.56783384 -0.105013445 -0.17047946
0003b0 74 61 1f 3e 22 3b bb be f3 a7 4a be ea ed 1b 3f
       0.15564519 -0.36568552 -0.1979063 0.60909903
0003c0 29 3d 14 bf 65 0f e7 bd 00 d0 81 3d 34 04 7d be
       -0.57905823 -0.11282233 0.06338501 -0.24708635
0003d0 cd ea e5 3e 5a e6 35 3f cc c7 7e 3d fc c8 5f be
       0.449057 0.71054614 0.06220226 -0.21854013
0003e0 ae ac f1 3e a6 23 c8 be be fa 39 3f aa f8 25 3f
       0.47202057 -0.39089698 0.7264823 0.64832556
0003f0 24 b2 97 be f3 65 9c 3d a4 37 54 bf 18 73 28 3e
       -0.29628098 0.07636633 -0.828974 0.16450155

lstm.weight_hh_l0_reverse f4 [256, 64]
000000 f5 50 80 3e dd 25 5b 3f 74 47 38 3e b4 39 c8 3d
       0.25061765 0.8560465 0.17996007 0.09776631
000010 48 89 ce be 46 cd 68 bd db a1 2d 3f 49 8a 8f 3c
       -0.40339112 -0.05683639 0.67825097 0.017521994
000020 9e 6f dc 3d 9b 09 01 3e 5c 7d 48 be 36 23 fc 3d
       0.10763477 0.1260132 -0.19579071 0.123114035
000030 f1 9c 5f 3e 0d c9 08 3f 23 7e 87 3d b1 8d eb 3e
       0.21837212 0.5343178 0.066158555 0.4600654
000040 d9 d9 23 3e 51 27 14 3d e7 ad ff 3c 34 75 05 3f
       0.16001071 0.036170308 0.031210853 0.5213196
000050 09 4f 2e be 27 12 87 3e 35 20 4a 3d 48 65 cc bc
       -0.17022337 0.26381037 0.04934712 -0.024950638
000060 38 78 d0 bd b5 98 76 3e 1e 94 09 bf 79 2e 1d 3e
       -0.1017918 0.2408169 -0.53741634 0.15349759
000070 21 a2 65 be 14 8a ba 3e e9 73 cb 3d 01 0b a1 3d
       -0.22425129 0.3643347 0.099342175 0.07863427
000080 4e 96 0e 3e 45 98 2d 3e c6 b7 ae 3e 43 8a 55 be
       0.13924524 0.16952617 0.34124583 -0.20853524
000090 6c 3f 09 3e bd b2 bd 3e 67 5f 04 3e 31 63 ff be
       0.134031 0.3705043 0.12927018 -0.49880365
0000a0 da 66 db be 38 74 44 3d 35 b6 f7 be 1d 9d de 3a
       -0.42851907 0.047962397 -0.483812 0.0016984079
0000b0 96 10 b3 be 13 1e 4f be 73 19 24 3d 8e 45 02 be
       -0.34973592 -0.20226316 0.040063333 -0.12721846
0000c0 d4 f7 bb 3d cc 3d 48 3c 4b 70 2c 3d 9a ed 91 be
       0.09178129 0.012221765 0.04209928 -0.28501588
0000d0 ce ab 0a 3e cf 31 41 bd 49 1e a4 3e b4 fb 92 be
       0.13542101 -0.04716664 0.32054356 -0.2870766
0000e0 c6 b8 d1 be c1 cb 63 bf 4f f7 17 3c 53 e8 9b 3d
       -0.40961283 -0.8898278 0.009275272 0.07612672
0000f0 6e 7a e3 be eb a3 0d 3e 52 60 11 3e ef 82 3f 3e
       -0.44429344 0.13832061 0.141969 0.18702291
000100 b0 ba c6 3e 96 64 23 3f f0 9a 92 bb 8c 1c 58 bd
       0.38814306 0.63825357 -0.0044740364 -0.0527616
000110 42 c9 23 3f d0 dd 75 bd 6f b7 ba 3d db e5 15 3e
       0.6397897 -0.06002599 0.091170184 0.14638464
000120 93 e2 98 3e 72 ab de 3d 98 cb 08 3e 2f 15 1a 3d
       0.29860362 0.10872544 0.13358915 0.03761786
000130 99 e7 5e bc 97 79 0f 3c fd 4c 2e be 3b 0c 2d be
       -0.013605022 0.008757017 -0.17021556 -0.16899197
000140 9d 40 20 3e 44 b7 94 3f c3 96 4c 3e b7 4c 83 3d
       0.15649648 1.1618428 0.19979386 0.064111166
000150 19 93 21 be 10 92 57 be 3b f6 ac bd c6 7c 86 bd
       -0.1577877 -0.21051812 -0.08445402 -0.065667674
000160 ea 0f f9 3d 99 85 ad 3e 40 d9 98 3e 39 e0 3a 3e
       0.121612385 0.3389099 0.2985325 0.18249597
000170 a1 1a 16 bf b3 e2 58 be d7 23 9a bc bf 76 56 3e
       -0.5863438 -0.21180229 -0.018815918 0.20943736
000180 73 70 8b 3e d9 be 65 be 90 4d 09 3f b2 4f d1 3e
       0.2723423 -0.22436084 0.53633976 0.40881115
000190 58 72 d9 bd fd c5 32 3e ec be 1c 3e 57 2c 85 be
       -0.106175125 0.17458339 0.15307206 -0.2601039
0001a0 66 8b 8c bc 42 8d 49 be 47 6e c7 3e db 0c 78 3e
       -0.017156314 -0.19682792 0.38951322 0.24223654
0001b0 e9 71 26 be db 64 00 be 91 18 5c be d6 aa 48 bf
       -0.16254391 -0.12538473 -0.21493746 -0.78385675
0001c0 89 b4 28 be cf 98 20 3d f1 ae 25 be 4c 50 a0 3d
       -0.16475119 0.03920823 -0.16180016 0.078278154
0001d0 29 08 21 3e 8d d8 26 bd c9 5d 6d 3d 38 9a 30 3e
       0.15725769 -0.040733863 0.05795077 0.1724633
0001e0 b9 5e 54 3e d3 62 43 bf 03 57 ad 3e 9f c5 11 be
       0.20739259 -0.7632267 0.33855447 -0.14235543
0001f0 bc b6 0d bf 9b db 06 3e 6d b5 38 bf ac 31 37 3e
       -0.55356956 0.1316971 -0.72151834 0.17890042
000200 f8 c6 3f 3d 90 b8 f7 3d c9 55 d7 3c 39 37 a9 3d
       0.04682061 0.120957494 0.026286023 0.08262486
000210 9f 63 23 3e d7 cf 04 3f 6f c9 32 be 07 8f b7 3e
       0.15955971 0.5187964 -0.17459653 0.3585131
000220 2b d5 ec be 89 b5 02 be 78 de 2c 3e 33 ad ad 3e
       -0.46256384 -0.12764563 0.1688174 0.33921203
000230 48 e3 aa 3e 31 5e 69 be 86 c5 06 3e 9e 79 d4 3c
       0.33376527 -0.22789837 0.13161287 0.025936898
000240 c6 e4 65 3e a9 42 7a be 15 04 0e 3b 4e 58 1b 3c
       0.22450551 -0.24439491 0.0021669914 0.009481503
000250 02 08 9e 3e d3 9c 1c 3e f9 68 29 be 36 39 ac 3d
       0.30865484 0.15294199 -0.1654395 0.084093496
000260 35 fd ce 3e cf 22 10 bf 3b 68 cf be cc 4d 75 3d
       0.40427557 -0.56303114 -0.4050921 0.059888646
000270 b7 08 46 3f 49 52 1e 3e 66 d2 d0 3e 6a 4c 07 be
       0.7735705 0.15461077 0.4078552 -0.13212743
000280 99 19 e6 bd 40 fe eb 3b 15 5d 9e bd 4c 2d 01 bd
       -0.11235351 0.00720194 -0.07732598 -0.03153734
000290 2f 75 9a 3d c4 0d 8b bc 5f b7 2b 3e 9f 24 4e 3e
       0.07541882 -0.016974337 0.1676917 0.20131157
0002a0 88 69 1d 3d 08 4c ad 3d e9 c8 13 be ba 19 dd bd
       0.03843072 0.084617674 -0.1443211 -0.107959226
0002b0 d3 d0 87 3d c1 a2 b1 3e 49 d3 8d bd 51 cc 5c 3e
       0.06631627 0.34694484 -0.06925065 0.21562316
0002c0 79 3e db 3c c7 41 8e bd 15 c7 d7 3c 18 aa 11 3e
       0.026763188 -0.0694614 0.026340047 0.14225042
0002d0 bb 96 48 be e2 97 b5 be 19 93 4c bd f0 1c c8 bd
       -0.19588749 -0.3546744 -0.04994497 -0.097711444
0002e0 93 c7 97 be 1c b1 4c 3e 22 c5 bb be b8 c1 4d 3e
       -0.2964445 0.19989437 -0.36673838 0.20093429
0002f0 70 9b f4 3e 5a 7a 9f be 24 a2 0d be 3f 93 a4 3c
       0.4777484 -0.31148034 -0.13831383 0.020089744
000300 98 65 69 be ad 52 3d 3f 32 aa f6 bd fc 08 dc 3d
       -0.22792661 0.7395428 -0.12044181 0.10743901
000310 df 45 45 3f aa fb 60 3e ad 36 30 3f 4a bd ea 3e
       0.7705974 0.21971002 0.6883343 0.4584754
000320 ee 21 81 3d e4 ab 0b be 8f e1 d3 3e 88 0b 6e bd
       0.063053 -0.1363979 0.41383025 -0.058116466
000330 a0 04 90 3d 0e 25 af 3e 34 e4 78 3c b9 30 50 3e
       0.07032132 0.34207958 0.015191127 0.20331086
000340 e0 09 93 3e ea 1d d0 bd ce a7 86 3d 9c 0e e8 3e
       0.28718472 -0.10161956 0.06574975 0.45323646
000350 40 35 5b be 04 c9 e0 3d a4 b0 b7 3e fc bc a3 3d
       -0.21407032 0.10975841 0.35876954 0.0799503
000360 9f 81 5f be ed 21 94 be 4e ea cb 3e 86 ab db bc
       -0.2182679 -0.28932133 0.39827198 -0.026815187
000370 31 4e 2e 3c d8 03 0f 3e 4d 4c ec bc 88 42 96 3d
       0.0106387595 0.1396631 -0.028844977 0.073369086
000380 c4 6c 93 bd 08 a4 d2 3e fe 94 39 be 01 be 9b bd
       -0.0719848 0.4114077 -0.18123242 -0.076046
000390 8f 75 42 be 53 36 5d 3e 58 a3 9a 3e 3b 50 c4 3d
       -0.18990158 0.21602754 0.30202746 0.09585615
0003a0 73 ed 58 bd c8 ed 42 3c 09 bb 39 be 96 a8 e6 be
       -0.052960824 0.011897512 -0.18137754 -0.45050496
0003b0 dd 29 b8 3c 5d fc 19 3c 25 36 c7 bd 6d e0 36 3f
       0.0224809 0.009398547 -0.09727124 0.71436197
0003c0 cd d7 7a 3e d9 94 ee be b8 6c 21 bc 52 19 93 bd
       0.24496384 -0.46597937 -0.009852581 -0.07182564
0003d0 0f 83 12 3e 58 5d 01 be aa 99 c5 3d 22 80 bf 3e
       0.14307807 -0.12633264 0.0964845 0.37402445
0003e0 ed 49 ec 3c d1 fd fe bd ec b1 43 3e b2 b8 b1 be
       0.028843844 -0.124507554 0.1911084 -0.34711224
0003f0 bd 81 19 be 62 e9 bd be 8e f2 dd 3d de 6d 35 bf
       -0.14990897 -0.3709212 0.10837279 -0.7087077

lstm.bias_ih_l0_reverse f4 [256]
000000 36 3e 0e 3e da 8f 75 bd 0a 46 ba 3e a6 64 49 3e
       0.13890919 -0.05995164 0.3638156 0.196673
000010 75 a4 0c 3c ad ad 9f 3e b0 a9 63 3e 6f 29 13 3e
       0.0085841315 0.31187192 0.222327 0.14371274
000020 cc 03 23 be 7c 06 2f 3f e6 f7 e7 3d d0 34 aa be
       -0.15919417 0.6836927 0.1132658 -0.33243418
000030 39 09 f8 3e af 65 a8 3d b2 7f 96 3d 5d 7b 90 3d
       0.48444536 0.082225196 0.07348575 0.0705478
000040 cc 92 8f 3e bf 22 23 3e 5d 76 de 3e e0 97 bb 3d
       0.28041685 0.15931223 0.4344968 0.09159827
000050 8e b5 0a 3e 42 ae 66 3e 67 07 7a 3e 19 0f ac 3e
       0.1354582 0.22527412 0.24416886 0.3360527
000060 c9 d9 8e 3e 87 df 5f 3e e8 94 06 be 6f e3 b8 3e
       0.27900532 0.21862613 -0.1314274 0.36111018
000070 66 29 2c 3e b9 b8 83 3e 3f 21 9f 3e d5 0e 4d 3e
       0.16812667 0.2572687 0.31080052 0.20025189
000080 11 d2 56 3e fa aa b2 3e 6d 7c 39 bd b7 bf 76 3d
       0.20978571 0.3489607 -0.045284677 0.060241427
000090 f0 66 ce 3e 59 cf 77 3e 41 35 b5 3d 24 a0 77 3d
       0.4031291 0.2420019 0.08848048 0.060455456
0000a0 ff 75 a0 be 85 42 93 3e 30 de 99 bd 25 03 f3 3e
       -0.31340024 0.28761688 -0.07513082 0.47463337
0000b0 38 fb 51 3e b7 05 16 be 3f eb 7b 3e b0 55 a2 3d
       0.20505989 -0.14650618 0.24601458 0.079265
0000c0 65 46 37 be a0 9a 7c 3e 08 a0 92 3e d7 3c 49 3e
       -0.17897947 0.2466836 0.2863772 0.19652115
0000d0 42 8e 8f 3e 38 27 b6 3d 8f b5 13 3f 0b b4 9b bd
       0.28038222 0.08894199 0.5769891 -0.076027
0000e0 ee fc 0a 3d a0 85 f4 3d ee 9c 16 3d 26 26 1d 3e
       0.03393262 0.119395494 0.036770754 0.15346584
0000f0 0e 12 30 be 1c a4 95 3b fc 87 79 3e 83 7d 2c 3e
       -0.17194387 0.0045666825 0.2436828 0.16844754
000100 1f 57 14 be bd c2 98 3d 07 d9 4f 3d 85 57 df 3c
       -0.14486359 0.074590184 0.050744083 0.027263412
000110 d7 ee 8e 3d 3d a9 d6 3d 61 9a 7a bd 02 1e 24 bd
       0.06979149 0.104814984 -0.061182383 -0.04006768
000120 06 2f 26 bd d7 1a cc bb e9 36 26 be ac 9d 8a bd
       -0.04057219 -0.0062287855 -0.16231884 -0.06768355
000130 b6 1f 2c 3e 6f ac 24 3e c4 15 0b bd f3 bb 56 3a
       0.16808972 0.16081403 -0.033956304 0.0008191459
000140 72 f5 6c bd 5c ba 94 3e 5a b2 e8 bc 67 d5 f6 3d
       -0.057851262 0.2904843 -0.028405357 0.12052422
000150 8f 31 e6 bc 32 1b 66 3d f2 55 d8 3d 0b 27 d6 3d
       -0.028099803 0.05617828 0.10563268 0.104566656
000160 73 22 19 3e 4f f6 4a bc 34 ee 18 3e 9a e4 91 bd
       0.14954548 -0.012387826 0.14934617 -0.071236804
000170 34 2a e9 bd b8 a0 19 3e 8b c5 47 3d 71 8c bd 3c
       -0.11385003 0.15002716 0.048772376 0.023138257
000180 e1 e0 6a 3e 6f fa 29 3e d2 65 33 bd dc 73 da bd
       0.22937347 0.16599439 -0.043798275 -0.1066663
000190 13 30 46 bd 3c 36 15 3c 09 4c ac 3d 4b 0a 69 bd
       -0.04838569 0.009107169 0.0841294 -0.05689458
0001a0 64 ec 38 3d f8 7e d9 3d 4e 15 23 3e 68 a9 88 3c
       0.045147315 0.106199205 0.15926096 0.016682342
0001b0 b0 65 0d 3e 30 ad ac bd a8 66 00 3e c7 28 6d 3e
       0.13808322 -0.084314704 0.1253916 0.23160087
0001c0 ee de 20 3d 43 d0 23 3d ae cd 30 3d dd 1f e4 3d
       0.039275102 0.039993536 0.0431649 0.1113889
0001d0 2c 0e b8 3c aa 6c 31 3e 14 f0 e6 3d ea 25 bf 3b
       0.022467695 0.17326608 0.1127626 0.005833377
0001e0 29 81 21 3e 63 f5 b1 3d 23 4b 55 be 01 0c fe bd
       0.15771927 0.08689382 -0.20829444 -0.12404633
0001f0 09 d6 ad bc cf 38 5d 3c da cc 08 3e bf db bc bd
       -0.021220224 0.013502314 0.13359395 -0.09221601
000200 fb 6a 62 be 9c c7 ba be 6f e9 79 3d cb cc 98 3d
       -0.22111122 -0.36480415 0.061013635 0.07460936
000210 e2 64 bb bd 4e 6b d4 3d 55 8f ff bd 1e af 49 3c
       -0.09150101 0.10372029 -0.1247851 0.012309818
000220 80 30 85 be 6f cd e9 be bb 98 3b bd 71 f9 ad bd
       -0.26013565 -0.45664546 -0.045799952 -0.08494843
000230 8b 3b a2 3e bf 1a c2 bd fd fe 4b be d4 eb 07 3e
       0.31686053 -0.09477758 -0.19921489 0.13273555
000240 50 a5 84 3e 63 d9 2d 3e c6 cc 7d 3e a1 3d 2d 3d
       0.25907373 0.16977458 0.24785146 0.042295102
000250 ce f2 f7 3c 9b 02 13 3d d8 42 d3 3e 0f ea 7a 3e
       0.030267145 0.035891157 0.41261935 0.24503349
000260 1e 7b 05 be 65 c0 cb bc 6b 2c f3 3d 91 ad d1 3e
       -0.13035247 -0.024872014 0.118737064 0.40952733
000270 58 58 8b 3e b0 b6 9c be e4 2c f3 3e 8f 54 4a 3e
       0.27215838 -0.3060813 0.47495186 0.19758819
000280 14 d0 7e 3e ee 52 7e be 49 46 fb bd ae 4d 0f be
       0.24884063 -0.24836323 -0.12269265 -0.13994476
000290 cd 9b 0f bf 3f ab ec bc 9a b0 cb 3d 16 ae 96 bd
       -0.5609711 -0.02889025 0.099457934 -0.07357423
0002a0 b8 7e fb 3e fd a1 df bd fc 93 59 3e 38 f9 e2 bd
       0.49120116 -0.10919569 0.21247858 -0.11082691
0002b0 22 15 fc 3d 98 49 5d 3d 10 3f f2 bd 9a e3 ae 3d
       0.12308718 0.054025263 -0.118284345 0.08539505
0002c0 aa 3d 1b 3d 15 1a a1 be 01 0b 4f bb 73 6e ed 3e
       0.037900604 -0.31465212 -0.0031592252 0.4637333
0002d0 1e 32 4e be df f3 3e bd 3c eb 1e 3f 6a d3 55 bd
       -0.20136306 -0.046619292 0.6207769 -0.052203573
0002e0 69 bf 1e be 37 2f d1 3d b0 a2 0e be 21 5f d8 3c
       -0.15502705 0.10214084 -0.13929248 0.026412548
0002f0 a1 b4 a8 3e b7 50 c8 3d ff b7 88 be 16 f7 1e 3d
       0.3295031 0.0978102 -0.26702878 0.03880986
000300 ae f9 83 ba c0 a5 65 be 82 46 eb 3e ce dc 0b 3e
       -0.0010068917 -0.2242651 0.4595223 0.13658449
000310 d5 20 18 bd 2c de 34 3e 6d 95 63 3e 2f 9d bb 3e
       -0.037140686 0.17662877 0.2222497 0.3664336
000320 2e c4 ca bd 6d 58 a1 3e a7 e9 b7 3e d9 93 b7 3d
       -0.099006996 0.31512776 0.3592045 0.089637466
000330 e1 e2 a6 3e 1c 67 8b bd f8 3f 9a 3e a4 8a 09 3f
       0.3259497 -0.06806776 0.3012693 0.53727174
000340 b5 f0 5b 3e c7 25 89 3d c7 b9 cf 3d 7e b3 8f 3e
       0.21478541 0.066966586 0.10142856 0.2806663
000350 f5 76 e7 3e 8a b8 8b 3e b1 5c 9f 3e 56 60 3d 3e
       0.45207945 0.2728923 0.31125405 0.1849378
000360 68 b5 51 3e 58 f7 a7 3e 8b c4 a9 bd e8 3b 96 3e
       0.20479357 0.32805896 -0.08289441 0.2934258
000370 36 64 b0 3e 06 6a 9c 3e a6 ee 84 3e c8 ea d8 3e
       0.34451455 0.3054964 0.25963324 0.42366624
000380 12 a1 92 3e 75 89 5d 3d 35 ed 0d 3d fa 58 df bc
       0.28638512 0.054086167 0.034650046 -0.027264107
000390 40 37 99 3e 79 5e 89 3e 97 7a 83 3d 70 01 55 3e
       0.29924965 0.2682989 0.064198665 0.2080133
0003a0 19 30 20 3d 08 4d 72 3e 72 39 29 3e b3 0a ca 3e
       0.03910837 0.23662198 0.1652582 0.39461288
0003b0 de 48 2b 3e 8a 6a 5a be 73 99 6b 3e ae 71 89 3e
       0.16727015 -0.21329704 0.23007755 0.26844543
0003c0 af 75 f0 3d fc 63 78 3e 47 0c c3 3e fa 9f 44 3e
       0.11741196 0.24256891 0.38095304 0.19201651
0003d0 8c b8 d4 3d d5 f4 2f 3e 23 83 ea 3d 49 2b 7d bd
       0.10386762 0.1718324 0.114507936 -0.061808858
0003e0 67 6b 46 3e 59 89 c7 3e c6 25 22 3f a2 a2 05 3f
       0.19376908 0.38971975 0.6333889 0.5220128
0003f0 90 d5 73 3d 99 03 88 3e ab b8 76 3e b0 8e 4f 3e
       0.05952984 0.26565245 0.24093883 0.20269275
