models/61-BiLSTM_Loss_0.102537525134197.pt (torch_old, 191938 bytes, 10 tensors)

lstm.weight_ih_l0 f4 [256, 25]
000000 34 1f c4 be f6 5f 55 bd ac 98 de 3e 4c a2 b3 be
       -0.38305056 -0.05209347 0.43475854 -0.3508476
000010 fc f9 45 bf b1 8d 2b 3f 4b ba c7 3d da a0 6c 3e
       -0.7733457 0.6701308 0.097523294 0.23108235
000020 38 e8 67 be 84 c4 8e bd 85 86 c7 3e 7d 60 95 3d
       -0.22647178 -0.06971076 0.38969818 0.07293794
000030 62 25 ad 3d 1f f0 80 be 31 5a d2 3e c8 e8 8b 3e
       0.08454396 -0.25183198 0.41084436 0.27326035
000040 75 2f ff be 34 5b dd 3d a5 9c 67 bd c7 dd fb 3e
       -0.49840894 0.10808411 -0.056545872 0.4919264
000050 06 00 94 3e 93 29 79 3f ad e7 26 bf a1 ea 76 3e
       0.28906268 0.9732906 -0.6519726 0.24112941
000060 cf 1b 2e 3f 30 89 ac 3d d0 e4 26 3e aa ee b6 3e
       0.6801118 0.08424604 0.16298223 0.3572896
000070 41 b3 b6 be 54 6d 4b bf 95 6d a3 bd b1 43 7b 3c
       -0.35683635 -0.79463696 -0.079798855 0.015335963
000080 00 49 9d 3d 62 d9 0f 3f 6b 4e 1e bf 11 db 8e be
       0.07679939 0.56191075 -0.61838406 -0.2790151
000090 70 c0 5b be d7 1f ad be b5 eb 1d bf ca eb 8f bc
       -0.21460128 -0.33813354 -0.61687785 -0.017568488
0000a0 f8 fe 17 bd aa c2 55 bf 90 86 ff 3e f1 49 08 bd
       -0.03710839 -0.8350016 0.4990735 -0.03327364
0000b0 20 26 8d be eb 08 24 3f 32 69 15 bf 2b 34 29 3e
       -0.2756815 0.6407611 -0.5836364 0.16523807
0000c0 ec a5 0a 3e 59 e2 1c bf 34 ef d8 be e6 00 18 bf
       0.13539857 -0.6128288 -0.42369998 -0.5937637
0000d0 d3 85 5d 3e 0e a0 67 3f d5 b9 a2 3e 6b 69 3b bf
       0.21633081 0.904786 0.31782404 -0.7320773
0000e0 7f ca f7 3e 1d 34 3c bd 65 db df be e4 d8 1d bf
       0.4839668 -0.045948137 -0.43722072 -0.61659074
0000f0 0f 18 46 3e c7 93 2f 3f 93 98 53 be 8f f6 65 be
       0.19345115 0.68584865 -0.20663671 -0.22457336
000100 93 a0 84 3f 86 d9 81 bf e6 56 19 3d bd f0 a7 be
       1.0361503 -1.0144508 0.03743639 -0.32800856
000110 66 78 74 3e f5 2e 44 be 99 32 e5 3e 85 3d f1 3e
       0.23874053 -0.19158538 0.44765165 0.47117248
000120 90 b5 a3 be 79 e7 cf be 99 0b 13 bf 0f e1 02 bf
       -0.3197446 -0.40606287 -0.5743957 -0.5112466
000130 67 6a 87 3c f2 c6 fe 3e d1 d1 7d 3f dd dd f0 be
       0.016530229 0.49761158 0.9914828 -0.47044268
000140 e7 80 ef 3d fb d1 86 3f 90 5b e7 be 6d 28 95 be
       0.11694508 1.0532831 -0.45187044 -0.29132405
000150 24 7f 0e 3e 09 87 d8 be b5 ef 0a 3f c9 15 11 bf
       0.13915688 -0.42290524 0.54272014 -0.56673867
000160 f9 08 e6 bf 48 2b a4 be e6 70 d7 3e 67 66 05 bf
       -1.7971488 -0.3206427 0.42078322 -0.5210938
000170 64 a9 b1 be 31 f6 e9 bc 1c 85 0d bf 92 b3 0b 3f
       -0.34699547 -0.028559776 -0.55281234 0.5457088
000180 89 0a 89 3e 1d 3d 7a bd 5d 38 e4 bd bb cc 5d be
       0.2676585 -0.06109344 -0.11143563 -0.2166013
000190 6e 60 c4 3e 13 6d 8e 3e 90 5f 75 3e 84 93 79 3f
       0.3835482 0.27817592 0.23962235 0.97490716
0001a0 c9 d5 b6 be 24 08 52 3d 5a 61 99 be 8f 24 19 bf
       -0.3570998 0.051277295 -0.29957086 -0.5982141
0001b0 4e 9e 07 bf 7c 12 fd be 19 ce e4 bd 3f 5f 3f 3d
       -0.5297593 -0.49428165 -0.111721225 0.046721693
0001c0 56 72 0f bf 21 29 b4 3e 45 92 31 bf 51 17 24 bf
       -0.5603384 0.3518763 -0.69363815 -0.6409808
0001d0 d2 6a 61 be cb 3c 01 3b ad 32 82 3e 46 49 01 bf
       -0.22013405 0.0019720073 0.25429288 -0.5050243
0001e0 2f 83 37 bd 6a ab 19 3f 06 8d 3c 3f f8 48 1c 3d
       -0.04480284 0.6002718 0.73652685 0.038155526
0001f0 6b a6 5f be e2 4e 54 be bd 30 f3 bd 37 46 1a 3f
       -0.21840827 -0.20733216 -0.118745305 0.6026339
000200 4d d8 2c 3d 03 d5 24 be f6 35 2b 3f d3 1e 51 3e
       0.042198468 -0.16096883 0.6687921 0.20421915
000210 8e 94 bb be 0c dc 04 bf b1 ce 20 3d e5 c2 c4 be
       -0.36636776 -0.51898265 0.039259616 -0.38429943
000220 62 9a 91 bd f9 7d 4b be 73 93 a5 bf f1 62 8e be
       -0.07109524 -0.19872274 -1.2935623 -0.2780986
000230 4f 4e cb 3e cb d0 d5 be 0d 47 ae bc ef 3f 86 bd
       0.39708182 -0.4176086 -0.021274114 -0.06555163
000240 04 53 b2 bd c7 de 60 3f 57 6c 9e 3a cc 44 e6 bd
       -0.0870724 0.8783993 0.0012086731 -0.11243591
000250 83 a0 bb be c4 1f 51 3f ef 87 6b bd d3 6e de bd
       -0.36645898 0.81689095 -0.057502683 -0.10860982
000260 36 84 a0 be 08 af 7f 3e d2 db 84 be f3 8b 84 bf
       -0.3135087 0.24969113 -0.2594896 -1.0355209
000270 97 7b f3 be 8a 57 6c 3e 7c 99 92 3e a3 84 0c bf
       -0.4755523 0.23080269 0.28632724 -0.5488989
000280 8c 5b aa bc 5b ef c3 3e 14 e6 9a 3d 57 d0 87 bc
       -0.020795606 0.3826855 0.07563415 -0.016578836
000290 e2 1e 2d 3f 95 6a 05 3f 15 28 e6 bd c7 52 e5 3e
       0.6762525 0.52115756 -0.11238114 0.44789717
0002a0 3d 0d 80 3c 47 3a e1 3e 2e b1 63 3e 4b 4f b0 be
       0.015631313 0.43989775 0.22235557 -0.34435496
0002b0 38 6e bd bd 14 28 40 bf 51 60 7f be ba 8e a4 bd
       -0.09249538 -0.75061154 -0.24939086 -0.080350354
0002c0 11 96 66 3f 73 dd 4d 3f 30 31 be 3c 9e d9 b5 be
       0.90072733 0.8041603 0.023216814 -0.3551759
0002d0 58 73 79 3d f7 c7 df bd 30 fc 7d 3e af 48 29 bd
       0.060901016 -0.10926812 0.24803233 -0.041329082
0002e0 16 db 61 be 82 5a f4 3e ad de 0c 3e 21 93 98 bd
       -0.22056231 0.47725302 0.13756819 -0.074499376
0002f0 27 c9 14 bf 8d 82 04 3f d6 1d f7 be 12 95 e9 bc
       -0.58119434 0.51761705 -0.4826495 -0.028513465
000300 fb a7 83 3e a7 92 c2 3e 88 6e af 3e 60 a8 1d 3f
       0.25714096 0.38002512 0.34264016 0.61585045
000310 d7 b3 85 be a7 9c 21 bf cc 2c fc be 5a 48 09 3e
       -0.2611377 -0.6312966 -0.49252927 0.13406506
000320 b7 0a ea be b6 ae 80 be 8c 7f 5e 3e bf f9 96 3e
       -0.457113 -0.25133294 0.21728343 0.29487416
000330 09 df a8 3e 18 af b6 3e b3 f5 7c be 35 b7 06 3f
       0.32982662 0.3568046 -0.24703102 0.526233
000340 06 db 43 3f 12 06 9d be 47 36 33 3f 63 3f 88 3d
       0.7650608 -0.30668694 0.70004696 0.06652715
000350 27 1b b2 be be 8a db be cb e5 d0 be 67 4a 6b be
       -0.3478634 -0.4287929 -0.40800318 -0.22977601
000360 91 b8 15 bf 52 ab df 3e f9 53 1a bf 5a 8d bb 3d
       -0.5848475 0.43685395 -0.6028438 0.0915782
000370 05 8a 04 bf a0 b5 a9 be d9 42 ad bc e1 5a 8e be
       -0.517731 -0.3314638 -0.02115004 -0.2780371
000380 0c e9 a9 3e 8c 1e 45 3c 3d ae e6 bd e6 50 90 bd
       0.33185613 0.012031209 -0.11263702 -0.0704668
000390 ae 94 2b be 3b 9d 90 be a1 06 9a be 54 8a b1 3e
       -0.16755936 -0.28244957 -0.30083182 0.34675848
0003a0 09 b8 60 bd c7 78 32 bf c4 5d 40 3e 33 9c 81 3c
       -0.05486301 -0.6971554 0.18785769 0.015821552
0003b0 10 1a cc 3e ac b4 89 bd 5d 47 76 3e ed 42 38 bd
       0.39863634 -0.067239136 0.2405066 -0.0449857
0003c0 e1 be ad 3e 3f 01 5f 3f 0d 49 c0 3e 99 9f 7d be
       0.33934692 0.87111276 0.37555733 -0.24767913
0003d0 a7 84 b6 be 6d e7 6a 3e 80 7a dc bb 6f 05 be bb
       -0.3564808 0.22939844 -0.0067284703 -0.0057989876
0003e0 25 0e 61 3e 20 b3 04 bf 8d 52 bc be 15 5d 30 3f
       0.21978052 -0.51835823 -0.3678173 0.6889203
0003f0 ec 5c 36 3e 74 35 46 3e 10 cf ac be ef 52 d2 be
       0.17808884 0.19356328 -0.33751726 -0.41078898

lstm.weight_hh_l0 f4 [256, 64]
000000 21 a8 09 be 74 27 b3 be ae 31 11 3e 5b 06 27 be
       -0.13443042 -0.34991038 0.14179108 -0.16311018
000010 50 10 0a be 90 09 fb 3e 71 cd a4 3d 5d c3 22 be
       -0.13482785 0.49030733 0.08046997 -0.15894838
000020 51 d9 ee bd 18 59 06 bd f3 28 1a bf e7 bb 57 3e
       -0.116625436 -0.03279981 -0.60218734 0.21067773
000030 2c d5 84 bd 9d 5d 47 be fa c0 9b 3d 43 0e b4 be
       -0.06485972 -0.19469304 0.07605167 -0.3516713
000040 8b 42 0d 3e cc 2a 16 bd 61 95 56 be 31 12 4a be
       0.13794915 -0.036661908 -0.20955421 -0.19733502
000050 d2 a0 9d 3e 22 42 34 bf 09 29 55 3f d3 41 fa 3e
       0.3078676 -0.7041341 0.8326574 0.48878345
000060 65 fe 0a bd e7 8b a7 3e ec ce 9a be 2c ab e6 3e
       -0.033934016 0.32723925 -0.30235994 0.4505247
000070 a9 ac 4c 3e 57 e0 4f be 35 9b 21 3e fd 2f 8a 3e
       0.1998774 -0.20300423 0.15781863 0.26989737
000080 af b5 b0 3c cd 1c 39 3e 85 81 59 3f b3 d3 a5 bd
       0.021571008 0.18077393 0.84963256 -0.08097019
000090 e2 ae b7 bd b8 ac 13 3f b7 aa 90 3b 35 46 a9 3e
       -0.08968903 0.5768542 0.004414882 0.33061376
0000a0 14 a5 c6 bd 6c 51 15 be 72 f5 9e bd 12 27 26 3d
       -0.09699455 -0.14581841 -0.07761659 0.040564604
0000b0 b2 63 0c bd 88 59 8f be c1 24 15 be 71 67 80 3e
       -0.034274764 -0.27997994 -0.14564802 0.2507892
0000c0 c2 73 72 be 62 a2 bf bc a7 6f 68 bc 56 db 2a bf
       -0.2367697 -0.02339286 -0.014186776 -0.6674093
0000d0 b8 11 6f 3e 80 22 d0 bc 38 59 73 3e 42 67 93 be
       0.23346603 -0.025407076 0.23764503 -0.28789717
0000e0 90 ad a8 be d9 c1 18 bf cd ea a9 bd b2 69 a7 be
       -0.32944918 -0.5967079 -0.08296738 -0.32697827
0000f0 c3 e6 f9 bd b2 8c 1b bf 0c d5 3e be 46 13 4b be
       -0.122022174 -0.6076156 -0.18635958 -0.19831571
000100 67 7f 94 3d 03 43 df 3e 17 03 f3 bd b3 5f 99 be
       0.072508626 0.43605813 -0.11865824 -0.29955825
000110 19 bd b1 3e bd 7a 6b 3e d0 5c 0f be f0 93 fb bd
       0.34714583 0.2299604 -0.14000249 -0.12284076
000120 01 dd b2 3e 8c c9 ce bd 13 01 ab 39 cb 7f 9f 3e
       0.34934238 -0.10097036 0.00032616462 0.31152186
000130 2e 41 63 3f 99 9f 51 3e 87 d4 15 3f 78 db 52 bf
       0.8877133 0.20471038 0.58527416 -0.8236613
000140 b0 21 d9 3c f6 53 1f bf bf 60 83 3e 06 84 dd be
       0.026505321 -0.6223749 0.2565975 -0.43264788
000150 7b a9 ba be d2 ab 8d bf ef 84 26 3f e2 62 46 3d
       -0.36457428 -1.106806 0.6504659 0.048434146
000160 f1 67 d9 3b 02 84 52 3f c6 fa b0 3e 42 3f 99 be
       0.0066347052 0.8223268 0.34566325 -0.29931074
000170 1b 3f 81 be c7 6d 0c 3d a4 37 2a be f4 31 6a 3e
       -0.25243458 0.03428438 -0.16622788 0.22870618
000180 0a 2a 77 3d 2f 2e f1 bd 86 04 76 3e eb 79 66 3e
       0.060342826 -0.11776387 0.24025163 0.22507446
000190 aa 1e e3 3e d3 af 8a 3e be de c3 be f8 b1 cb 3c
       0.44359332 0.27087268 -0.38255876 0.024865136
0001a0 fc 39 ef 3e 33 00 63 3e f5 b8 77 3e 4c 29 10 3d
       0.46723926 0.22168045 0.2419165 0.035195634
0001b0 9f f6 20 bf ec e1 a0 be f6 78 84 3e 6e 17 d2 be
       -0.62876314 -0.31422365 0.25873536 -0.410335
0001c0 5d f4 c1 3d 4c 0b 3d bd db 2c 1f be d0 d6 40 3e
       0.09470437 -0.04615335 -0.15544455 0.18831944
0001d0 2e 40 24 bf 86 2c 98 be ea 30 96 3e 59 2b 49 3e
       -0.6416043 -0.2972147 0.29334193 0.19645442
0001e0 5f 2e d7 bd d2 f0 8e 3f 06 3e d5 3d 10 6a cc be
       -0.105068915 1.1167243 0.10412221 -0.3992467
0001f0 5f e3 0c 3f 4d f0 45 3e 3f 16 95 be 2b 37 be 3d
       0.5503444 0.19329949 -0.29118535 0.09287866
000200 a0 f8 8f bd 17 de de 3a 58 94 be 3e 9f 81 d6 3e
       -0.07029843 0.0017003444 0.37222552 0.41895768
000210 8e e2 8c bf 7e 83 b4 be ee 95 74 3e a8 44 0f 3f
       -1.1006639 -0.3525657 0.23885319 0.55964136
000220 27 e6 48 bf b8 b6 ca 3e 05 b0 af bd 4a 14 07 bf
       -0.78476185 0.39592528 -0.08578495 -0.52765334
000230 b9 ce 92 3e c3 72 f3 3d f5 46 a8 3e 84 9a f0 3e
       0.28673342 0.118871234 0.32866636 0.46992886
000240 d3 f0 f4 3d 0d 4f ae 3e 2f 09 68 be d9 c2 0f bf
       0.11959996 0.34044686 -0.22659753 -0.5615669
000250 ca c3 d0 3e d7 33 dd 3e 66 47 09 bf d6 f3 96 3e
       0.40774375 0.43203613 -0.5362457 0.29482907
000260 7e e1 30 3e 57 1d e5 be 1b 7f a8 bb 70 8b bf 3e
       0.17273518 -0.44748947 -0.0051421053 0.3741107
000270 a6 4f bf 3e 61 c6 27 bd 08 8e d7 3d 3e a4 4a bd
       0.37365454 -0.040960673 0.10525137 -0.04947304
000280 65 a7 99 bc 3a 61 14 bd 36 7d 18 3e 44 c6 13 be
       -0.018756578 -0.036225535 0.14891514 -0.14431101
000290 01 be 91 be 76 71 cc be b7 02 0a 3e d7 b1 9a 3e
       -0.28465274 -0.39930314 0.13477598 0.30213806
0002a0 dc 9e d3 be 4a 26 fb 3e 45 c0 e4 bd bb 85 08 3d
       -0.41332138 0.4905265 -0.11169485 0.03333066
0002b0 ac 90 fc 3d db a3 a1 be 64 6f bf 3b 52 36 08 3c
       0.123322815 -0.31570324 0.005842136 0.008313732
0002c0 99 88 a5 3d 04 c3 35 bd f0 be a8 be 86 74 7b 3e
       0.080826946 -0.044375435 -0.32958174 0.24556169
0002d0 2f bf 83 3e f0 8a 20 3d 36 46 f3 bd 9e 55 c1 3e
       0.257318 0.039195 -0.11878626 0.37760633
0002e0 8e c7 db bd 93 47 bd 3e 16 34 d8 be ee b1 d0 be
       -0.107314214 0.3696867 -0.42227238 -0.4076075
0002f0 19 76 98 bd fa 6a a4 3d 12 cd 47 3e 03 6f 18 be
       -0.074444 0.08028217 0.19511822 -0.14886098
000300 90 5e 89 be dc b4 db 3e 6b 4e fe be f4 95 cb 3e
       -0.26829958 0.42911422 -0.49669203 0.39762843
000310 eb e5 02 3f 4d 01 31 3e 96 fe 2f be 19 f9 0e 3f
       0.51132077 0.17285652 -0.1718696 0.5584884
000320 1c d4 02 3e 65 2d 0a 3f 46 f1 39 bf 80 d7 49 3f
       0.12776226 0.53975517 -0.7263378 0.7884445
000330 28 33 28 bf 51 71 46 be 2f bf a4 3d 5a 49 06 bf
       -0.6570306 -0.19379164 0.08044278 -0.52455676
000340 05 3a 25 bf 8a f5 5b be d1 67 bb 3d 49 44 15 3e
       -0.64541656 -0.21480384 0.09150661 0.1457683
000350 6a 36 0c 3f 2e e4 64 be c1 b3 f8 3e 12 5e c7 be
       0.5477053 -0.22352669 0.4857464 -0.38938957
000360 69 1e 12 bf dd 52 09 bf fd fe ff 3d 43 c4 a1 bd
       -0.5707765 -0.53642064 0.12499807 -0.07898762
000370 d1 ef 78 3d 82 40 14 bf 73 d4 e4 bb 10 fc d3 3e
       0.06077558 -0.5791093 -0.0069833337 0.41403246
000380 d4 c5 80 3e a8 de 06 be e4 01 23 3e ab f0 09 bd
       0.2515093 -0.13170874 0.1591869 -0.033676784
000390 59 19 f6 be da 48 98 3e ce 6c 8a 3d fe d3 a3 3c
       -0.48066214 0.2974308 0.06759034 0.019998547
0003a0 8e 94 07 3f 08 38 0d 3e d5 97 e6 3e 60 6f 31 be
       0.5296105 0.13790905 0.45037714 -0.17327642
0003b0 f4 9e 3c bf 0a f5 c1 3e b9 b7 d3 bd 27 2d df be
       -0.73680043 0.37882262 -0.10337777 -0.43589136
0003c0 f2 78 f0 be 51 e8 a2 3d 4b de 87 3d 8f 1f eb be
       -0.46967274 0.07954467 0.06634196 -0.45922515
0003d0 61 52 3b 3f c3 a0 a8 3e de ed 41 bf 52 c9 05 be
       0.73172575 0.3293515 -0.7575358 -0.13065079
0003e0 ab 98 2d bd f7 ad d7 be 4f 41 a0 3e de 63 24 3f
       -0.042381924 -0.42124912 0.31299827 0.64214885
0003f0 f8 af 92 3d 49 ac cd 3e e9 14 8e bd a0 92 0f bd
       0.071624696 0.40170506 -0.06937582 -0.035051942

lstm.bias_ih_l0 f4 [256]
000000 68 a4 e2 3e fa 33 e6 3e bf ab 96 3d c7 5a 4a 3e
       0.44266057 0.4496153 0.07356977 0.19761191
000010 25 d7 d4 3e e3 a9 be 3d fd 18 65 3e 05 7e 7b 3e
       0.41570392 0.09309747 0.22372814 0.24559791
000020 7c 73 65 3e 16 62 a8 3c 48 be 39 3e e6 a2 6f 3e
       0.22407335 0.020554584 0.18138993 0.23401985
000030 f5 d9 44 be 96 85 8d 3e 44 7f ad 3e c9 6f 30 3e
       -0.19223769 0.2764098 0.33886158 0.17230143
000040 ff 51 91 3e 74 c8 5b 3d ad 34 a1 3e a7 46 c5 3d
       0.2838287 0.053657964 0.314855 0.096326165
000050 aa be b9 3e 6a c2 9e be d2 b4 64 be d3 29 00 3e
       0.36278278 -0.310077 -0.22334602 0.12515955
000060 b7 2e bd 3e cd d2 c0 3e 46 8e 97 3e b9 16 50 3e
       0.36949703 0.37660828 0.29600734 0.20321168
000070 ee 1d 80 3e 49 bd b0 3e 07 e7 8d 3e 0b b0 00 be
       0.25022835 0.34519413 0.27715322 -0.12567155
000080 e6 c3 9d 3e a9 80 2c 3d 07 5d 3f 3c 10 a0 66 3e
       0.3081352 0.042114887 0.011679894 0.22521996
000090 17 62 40 3f 45 c5 11 3f ac d5 b3 3e 76 ac af 3e
       0.75149673 0.56941634 0.35123956 0.34311265
0000a0 ae 69 24 3d 30 23 bf 3e b2 aa ac 3d 29 83 be 3d
       0.040139847 0.37331533 0.08430995 0.093023606
0000b0 68 ed 0c be 62 e2 0d 3f 52 75 0b 3f 42 f2 57 3e
       -0.13762438 0.5542356 0.5447589 0.21088508
0000c0 48 b2 7d 3e bd d0 7d 3e dc d2 ac 3e 23 a4 cd 3e
       0.2477504 0.24786659 0.33754623 0.4016429
0000d0 ab fa a1 be 86 62 5d 3d f9 35 62 3e 40 c4 87 3e
       -0.31636557 0.054049037 0.22090901 0.26516914
0000e0 0a 95 cf 3e c2 8e 9e be 40 8d f4 3c f8 6f 3d 3d
       0.40543395 -0.3096829 0.02985251 0.04624936
0000f0 1d a8 1b 3e 47 f4 39 3e 62 1f c2 3e ef cc dc 3e
       0.15200849 0.1815959 0.37914568 0.43125102
000100 d7 a3 5a 3e 29 1a 2d 3e 4c c9 32 3d d5 86 e5 3e
       0.21351562 0.1690451 0.043649003 0.4482943
000110 f4 8f 48 3e c1 15 b6 3d bd 87 84 3e c8 9d b6 3e
       0.19586164 0.08890868 0.2588481 0.35667253
000120 1f 6c 4a 3d d1 77 4e 3e 0b e9 0b 3e 24 0d 4f 3e
       0.04941952 0.20162894 0.13663118 0.20219857
000130 fc e1 3c 3c 30 97 be bc d1 7e 0b 3c 51 c6 33 3e
       0.011528488 -0.023265451 0.008514122 0.1755612
000140 0b be b7 bd 84 10 21 3e 20 51 0e bc 5d 79 ca bd
       -0.08971795 0.15728956 -0.008686334 -0.098864295
000150 a2 ea 82 3a f7 3c 24 3e d5 61 a8 bb 18 88 0f 3e
       0.0009988139 0.16038881 -0.0051386156 0.1401676
000160 3f 44 c4 3d 4a 64 b6 3d 47 56 41 3d 0c f2 eb bd
       0.095833294 0.08905847 0.04720142 -0.11520776
000170 06 4b a5 3d fc d6 ee 3d 38 66 48 3e 77 87 2b be
       0.0807095 0.11662099 0.19570243 -0.16750894
000180 0a 84 a2 bd 27 4b d3 3c 12 7e 50 3d d4 84 39 3e
       -0.07935341 0.025792671 0.05090148 0.18117076
000190 77 14 94 bc f2 17 4a 3e 4a e1 88 3e be 0d 14 bd
       -0.018076165 0.19735697 0.26734382 -0.036145918
0001a0 c7 55 0c be 5a 17 8e bd 4a e8 dd 3d f6 02 ae 3e
       -0.13704596 -0.06938048 0.10835321 0.33986634
0001b0 f8 e6 74 3d fe f3 bf 3c 89 b8 95 3e 61 f4 bb 3d
       0.05979058 0.023431774 0.29242352 0.09177471
0001c0 62 19 6c bd c8 e1 72 3d b1 f8 41 3d 70 82 ee 3d
       -0.057641394 0.059297353 0.04735631 0.11645973
0001d0 ab dd 09 3e e5 68 81 3e a0 92 3b 3d 1e 28 09 3e
       0.13463466 0.2527534 0.04579413 0.1339421
0001e0 5f b5 be 3c 5f 49 78 bd 3c 9d 22 be 10 97 87 3e
       0.023279844 -0.060616847 -0.15880293 0.2648244
0001f0 a9 78 ec 3d 21 3e bd 3b 25 b9 91 3e a5 c0 33 3e
       0.115464516 0.0057752286 0.28461567 0.17553957
000200 20 47 56 3e 54 e7 14 3d 25 8e dd bd 60 79 c6 3e
       0.2092557 0.036353424 -0.108181275 0.38764477
000210 e6 9b 6b bd 3e 81 1d 3a fa 01 45 3e 96 9d b1 bd
       -0.057521723 0.00060083333 0.19239035 -0.08672635
000220 cc 21 06 be 9b 65 49 bd 21 da ce bd 62 46 63 bd
       -0.1309883 -0.049169164 -0.101001985 -0.055487044
000230 4e e2 1e be a2 16 0d 3d 50 14 e1 bc 71 8c d3 bb
       -0.15516016 0.034445412 -0.027475506 -0.006455951
000240 f6 88 4a 3e dd 08 94 3d 7a 36 33 be 4a 0c 92 bc
       0.19778809 0.07228253 -0.1750125 -0.017828126
000250 e7 df 64 3e 5c d0 d6 3e 38 70 41 be 17 b5 c2 3d
       0.22351037 0.4195584 -0.18890464 0.095071964
000260 28 d5 85 3e de 3f 57 bc 6b be 1f be 51 4e 10 be
       0.26139188 -0.013137786 -0.15599982 -0.14092375
000270 d8 3a d6 3d 8a c2 d7 bd ce 8e 30 3e ca 26 33 be
       0.10460442 -0.10535152 0.17241976 -0.17495266
000280 94 3b 0e be 96 cc d1 3d f1 e9 aa be 5b ef da bd
       -0.13889915 0.102441 -0.33381608 -0.10690185
000290 20 ad e2 bc 0c db eb be e6 13 1b 3e 0f 1b 8e 3e
       -0.027670443 -0.46065557 0.1514431 0.2775502
0002a0 57 0e 76 3d 8b 5d 39 3e 20 c8 2f 3e f4 89 64 bc
       0.06007227 0.1810209 0.17166185 -0.013948906
0002b0 16 ff e6 3d 8a b9 9f 3d 4e ed de 3d 72 a6 29 be
       0.112791225 0.07799061 0.10885106 -0.165674
0002c0 35 2b fa bd e5 cc a1 3c 3f b6 9b be d6 0b 24 bd
       -0.12215272 0.019751022 -0.3041248 -0.04005035
0002d0 cd c2 81 bd b7 10 fa bc 9b f8 2f 3d b9 f3 a0 3d
       -0.063359834 -0.030525548 0.042961698 0.078589864
0002e0 28 8d 75 3d ab ed 99 be 5c cf 91 bd 7c 00 21 3d
       0.05994907 -0.3006414 -0.07119629 0.039307103
0002f0 97 b0 8a bd 21 1e ce bd 78 78 af 3e 69 db 4b be
       -0.06771963 -0.100643404 0.34271598 -0.19907917
000300 38 c6 de 3e 4d fa c5 3d d8 e3 88 3e 34 20 6b 3d
       0.43510604 0.09666882 0.2673633 0.05740376
000310 dc 88 3a 3e 72 b6 1c 3e 34 b5 a7 3e 57 9b cd 3e
       0.1821627 0.15303972 0.32755435 0.40157577
000320 9c 2e bb 3e 52 9f ae 3e 94 33 56 3e 8b ae 06 3d
       0.36558998 0.34105927 0.20918113 0.0328813
000330 fd 1c 70 bd fc 99 ce 3e 95 c4 9a 3d b6 99 9f bc
       -0.058621395 0.40351856 0.07557026 -0.019482475
000340 7f 9c 2e 3e 73 74 47 3d 85 3e bd 3e 18 99 9a 3e
       0.17051886 0.04869504 0.3696176 0.30194926
000350 23 55 00 3f 98 3b 81 be b6 01 fa bd 7e a6 78 3e
       0.5012991 -0.2524078 -0.122073576 0.24282262
000360 ab b6 d1 3e 13 16 da 3e 24 b2 4b 3e 55 4e 62 3e
       0.40959677 0.42594966 0.19892174 0.22100194
000370 46 49 19 3e bf 53 34 3e d4 ad 9a 3c 77 75 e4 3c
       0.14969358 0.17610072 0.018881716 0.027888043
000380 46 e2 30 3e c1 d0 a5 3e 64 d7 2a be 78 16 b2 3e
       0.17273816 0.3238583 -0.16683728 0.34782767
000390 e0 5a 48 3f e4 21 5f 3e db f0 f3 3e 41 7f da 3e
       0.78263664 0.21790272 0.47644696 0.42675212
0003a0 e7 42 9c bb 3a d0 8d 3e cd 85 bf 3e 39 a3 e2 3e
       -0.0047687176 0.27697927 0.3740677 0.44265154
0003b0 5f 51 3d 3e f2 63 ae 3e 4f a5 ed 3e c1 fe c7 3d
       0.18488072 0.34060627 0.46415183 0.09765387
0003c0 cb 19 b1 3e 30 59 63 3e a9 b8 ad 3e d3 a7 e5 3e
       0.3458999 0.22201991 0.33929947 0.44854602
0003d0 fe 17 8f be b4 9c 10 3e 83 a6 86 3c e9 2b ab 3e
       -0.27947992 0.14122277 0.01643682 0.33431938
0003e0 81 68 0d 3f 68 56 69 be ab 6e 31 bd 03 d5 87 3e
       0.55237585 -0.22786868 -0.04331843 0.26529703
0003f0 10 b3 b6 3e 33 9f 3e 3e de 49 3c 3e e8 c6 c1 3e
       0.3568349 0.18615417 0.18387553 0.37847066

lstm.bias_hh_l0 f4 [256]
000000 92 ed fe 3e 6e ac d4 3e 3d 00 42 3e 29 ea 3b 3e
       0.49790627 0.41537803 0.18945403 0.18351044
000010 fb 2e bc 3e 04 0a 75 3e 6f ef 62 3e 95 4b 60 3e
       0.36754593 0.23929602 0.22161649 0.21903832
000020 8e 27 2e 3e 29 d2 87 bd 75 4e c8 3d 08 fd 8e 3e
       0.17007276 -0.06631882 0.097805895 0.27927423
000030 d6 80 d4 bd 33 bf 05 3e 2a 73 af 3e ab 4b 78 3e
       -0.10376136 0.13061218 0.3426755 0.24247615
000040 f8 98 39 3e 06 72 57 3e 55 58 a6 3e 07 0a 8b 3e
       0.18124759 0.2103959 0.32489267 0.27156088
000050 86 67 be 3e 0c 8d 84 be 48 0a 7a be 19 d7 09 3e
       0.37188357 -0.2588886 -0.24417984 0.1346096
000060 ad 47 c1 3e 25 ec ba 3e 48 60 84 3e b9 24 2e 3e
       0.37749997 0.3650829 0.25854707 0.17006196
000070 c3 b9 55 3e 65 ea 26 3e ee 17 58 3e 10 f7 d4 bc
       0.20871644 0.16300352 0.21102878 -0.025996715
000080 38 2a a7 3e 40 36 8b 3e 6c b4 53 bd de 96 16 3e
       0.32649398 0.27189827 -0.051685736 0.14705989
000090 dd f2 41 3f 69 bf 0b 3f 91 2e 02 3f c3 89 0c 3f
       0.75761205 0.54588944 0.50852305 0.5489771
0000a0 cb 75 c4 bd a0 6c 78 3e fc 56 8d 3e 35 5f 07 3e
       -0.0959278 0.24260187 0.27605426 0.13219912
0000b0 e8 24 fc bd af b1 d4 3e d8 f5 45 3f b4 84 bd 3e
       -0.12311727 0.41541812 0.7732825 0.37015307
0000c0 53 3c 27 3e f9 e2 de 3d 20 df a1 3e f4 fd 03 3f
       0.16331606 0.10883135 0.31615543 0.51559377
0000d0 d8 51 40 be 7c e8 f3 3c 81 eb 27 3e d2 57 bc 3e
       -0.18781221 0.029773943 0.16398431 0.36785752
0000e0 f6 ac c9 3e 3e 23 8c be a6 56 a3 3c f0 47 54 3e
       0.3938977 -0.27370638 0.019938778 0.20730567
0000f0 e6 23 84 3e 51 01 3e 3e c4 7e d2 3e 47 79 ca 3e
       0.25808638 0.1855519 0.4111234 0.39545652
000100 d9 cd 3e 3e 5b 90 21 3e 1f 10 1c 3e 27 3f 88 3e
       0.18633212 0.15777723 0.15240525 0.2661068
000110 9c 45 03 3e dc 5c 3f 3e 16 37 0e 3e 92 12 72 3e
       0.12819523 0.18687767 0.13888201 0.23639897
000120 4d ed 9d 3d 75 f8 2a 3e 6b f9 87 3c 2b 77 eb 3d
       0.07711277 0.16696341 0.016598424 0.11497339
000130 3d 66 1e 3d bf 54 9f b8 d4 c3 fe bb eb 9a 45 3e
       0.03867172 -7.597496e-05 -0.0077748094 0.19297378
000140 4d b5 a4 3d f9 e7 64 3d 6c 3d 99 bd 65 92 f2 3d
       0.08042393 0.05588529 -0.074824184 0.11844329
000150 af c4 ef 3d 6a af 21 3d c0 b3 f4 3d ad 51 af 3c
       0.11707436 0.03947393 0.11948347 0.02140125
000160 be c5 82 bd 96 60 e0 3c c8 3c a2 3d 10 57 9e bc
       -0.063853726 0.027389806 0.07921749 -0.019328624
000170 e7 f1 52 3e 6c 15 4a 3e b5 e4 78 3e 8b 21 cc bd
       0.20600091 0.19734734 0.24305995 -0.09967335
000180 40 9c e7 3d e6 12 5c bd 48 93 2a bd 3a bd 22 3d
       0.11309099 -0.05372896 -0.041644365 0.03973124
000190 83 97 81 3d 64 b5 5c 3e 41 a6 18 3e b4 02 46 bd
       0.06327727 0.2155357 0.14907171 -0.04834242
0001a0 cb 10 1c be fd 6a 65 bd d0 b6 82 bd c8 0e c6 3e
       -0.15240781 -0.056010235 -0.06382525 0.38683152
0001b0 64 a7 74 3e e2 aa 82 bd 19 67 78 3e 3c 95 76 3d
       0.2389198 -0.063802496 0.24258079 0.060200915
0001c0 a8 5e 8b 3d 37 0a 95 3b 8e de 08 3b 0b 23 91 3d
       0.068051636 0.004548337 0.0020884606 0.07086762
0001d0 df c8 7f 3d a5 b2 90 3e 55 3a ca bc 58 a1 07 3d
       0.062447425 0.28261295 -0.024686018 0.033112854
0001e0 fa c9 97 3d 83 f9 4c ba 4c 5e b1 bc c7 c0 22 3e
       0.07411571 -0.00078191626 -0.02165141 0.15893851
0001f0 c0 61 23 3e 77 91 38 bc e3 2d b6 3e b1 99 21 3e
       0.15955257 -0.01126515 0.35581884 0.15781285
000200 63 ef c4 3d 1c 94 50 3d 28 b5 44 bc a4 50 cc 3e
       0.09615972 0.050922498 -0.012006082 0.39905274
000210 e8 b7 4e be 65 7f ad bc 2c 62 c9 3d 64 16 e2 3d
       -0.20187342 -0.02117891 0.09833178 0.11039427
000220 e2 5c 7b be cd f8 15 bd 59 8f c8 bd f8 dc 7d be
       -0.2454715 -0.036614228 -0.097929664 -0.24791324
000230 00 4c 0c be 34 a6 6f 3b 04 6c 85 3d 03 fe 9e bc
       -0.13700867 0.003656757 0.06514743 -0.019408232
000240 bc 9f 3a 3d f1 37 c1 3d b8 02 c7 bd ef d9 04 be
       0.04556249 0.09434498 -0.097173154 -0.1297376
000250 e9 2b 47 3e 28 d7 e9 3e c0 51 4f be d6 4e 21 bd
       0.19450344 0.45671964 -0.20246029 -0.039381824
000260 ba b5 ad 3e ec 21 1b 3c e8 a5 9d 3d 23 66 5b be
       0.3392771 0.009468537 0.0769766 -0.21425681
000270 ac 21 1b 3e 23 8d 83 bc 78 77 a1 3e 05 48 b9 bd
       0.15149564 -0.01605851 0.3153646 -0.0904694
000280 1c a7 3d be 22 ee 05 bc 28 16 50 be 47 30 99 bc
       -0.18520778 -0.008174451 -0.20320952 -0.018699778
000290 2a 61 a6 3c a4 77 e1 be d8 da 91 3d e9 08 40 3e
       0.020310003 -0.4403659 0.07121819 0.18753399
0002a0 1b 1e 72 3e 8d 25 c6 3d 21 1e 92 bc c9 bd c4 3d
       0.23644297 0.09675131 -0.017836632 0.09606511
0002b0 42 61 65 3e 7f 48 99 3e 3b d6 00 3e 1a 0c 5c be
       0.22400382 0.29938123 0.12581722 -0.21488991
0002c0 25 6c 9d bd 32 3d a5 3d e5 10 9c be 19 23 d0 bb
       -0.076866426 0.08068313 -0.3048164 -0.00635184
0002d0 1b ea 0f 3e 80 50 f8 bd f5 ea 2f bd c7 6c 50 3c
       0.14054148 -0.12124729 -0.04294868 0.012721247
0002e0 91 5c 65 3c 7f d8 98 be 3c 32 c5 bc 2e 34 c2 3d
       0.01399912 -0.29852673 -0.024071805 0.09482609
0002f0 75 3e 16 be 5d 0a ba bd 5a a5 8d 3e 19 32 83 be
       -0.14672263 -0.09084008 0.27665216 -0.2562416
000300 ee 11 a3 3e 2d aa c5 3d 9a 31 d9 3e f2 39 37 bd
       0.31849617 0.09651599 0.42420655 -0.044732995
000310 3c ef ae 3e 18 a8 96 3e 29 a5 50 3e 45 37 ff 3e
       0.34166896 0.2942512 0.20375504 0.49846855
000320 a9 84 5a 3e c8 29 49 3e e8 9e 4e 3e 15 ea bd bd
       0.21339668 0.19644845 0.20177805 -0.09273163
000330 9a 7e 9d 3d 7c 89 b5 3e 54 a9 8a 3e 8f 5a a9 3d
       0.07690163 0.35456455 0.27082312 0.08269226
000340 45 90 fe 3d 6c ac 4f 3e 4f 6c c9 3e e9 d4 3e 3e
       0.12429861 0.20280617 0.39340445 0.18635906
000350 e6 7e 02 3f 32 36 5d be 49 e5 65 3d f4 27 2b 3e
       0.5097488 -0.21602705 0.056126866 0.1671446
000360 6e 83 5e 3e 69 7b d3 3e 5b 89 b4 3e 0d 75 33 3e
       0.21729824 0.41305092 0.35261044 0.1752512
000370 68 eb c2 3e 05 5a 29 3e 86 3b 85 3d 82 30 f9 bd
       0.38070226 0.16538246 0.06505494 -0.12167455
000380 3c a6 44 3e ad 41 a4 3e b9 db 9a bd e4 94 cf 3e
       0.19204038 0.32081357 -0.0756144 0.40543282
000390 6e 08 52 3f 85 b9 49 3d cd f0 c4 3e 11 56 e1 3e
       0.8204411 0.04924919 0.38464966 0.44010976
0003a0 7d 68 9d bb 48 50 bc 3e d9 44 0e 3f 09 5e aa 3e
       -0.0048037157 0.3678 0.55573803 0.33274868
0003b0 d4 6f f4 3d 08 50 c8 3e fa d7 33 3f c8 83 35 3e
       0.11935392 0.3912356 0.7025143 0.17726052
0003c0 e7 70 a2 3e 6c 08 25 3e 5b b7 a5 3e a5 6b ee 3e
       0.31726763 0.16116494 0.32366452 0.465665
0003d0 7e ce bc bd d6 56 44 3e f3 12 af 3d 9f 77 bd 3e
       -0.09219073 0.1917375 0.08548536 0.37005326
0003e0 a1 89 06 3f eb 8b 8b be d7 5a f6 3c df ad 88 3e
       0.52553755 -0.27255186 0.030072613 0.26695153
0003f0 96 c4 95 3e 3a 26 66 3d 1a 76 c1 3e 56 63 c1 3e
       0.29251546 0.0561888 0.37785417 0.377711

lstm.weight_ih_l0_reverse f4 [256, 25]
000000 0a ac 8f 3d c6 b2 0c 3e e6 9c c1 be 26 46 80 3f
       0.07015236 0.13740072 -0.37815017 1.0021408
000010 45 dd 86 bf 4c eb 5b be de 45 09 3f c2 57 f9 bb
       -1.0536276 -0.21476477 0.53622234 -0.0076093385
000020 12 b7 55 be 1c 56 1e 3f b5 9f 7e bf 8e 3f 78 3f
       -0.20870617 0.6185014 -0.99462444 0.96971977
000030 4b db a4 bd 32 a5 f6 3b 45 cb 78 be 21 87 16 bf
       -0.08049639 0.007527017 -0.24296291 -0.5879994
000040 a7 94 b5 bc 04 68 81 bf b5 42 3f 3d 5d f5 e8 3e
       -0.02216561 -1.0109868 0.046694476 0.45499697
000050 8e 57 d6 3e cc 5f 1a 3f 64 e1 74 bf 65 63 0d bf
       0.41863674 0.60302424 -0.9565642 -0.5522979
000060 aa 05 9c bf f7 1e 15 3d 38 a2 c8 be 63 64 04 bf
       -1.2189229 0.036406484 -0.39186263 -0.5171568
000070 c4 39 04 be 99 0e 8b 3e a7 4c e1 be 4b a6 af 3e
       -0.12912661 0.27159575 -0.44003794 0.3430656
000080 c4 b2 41 bd 9c b2 03 bf 15 7b 8b 3e f5 06 b7 3e
       -0.047289625 -0.5144441 0.27242342 0.35747495
000090 52 b6 96 bd cf 24 2d bf 1a dd 22 3f 90 6e da 3c
       -0.073589936 -0.6763429 0.63618624 0.026664048
0000a0 0f 69 2d 3f ac bd 94 3f 73 27 fd be c8 5b 97 be
       0.6773843 1.1620383 -0.4944416 -0.2956221
0000b0 6d 8a 5c be 3a da 51 bf 44 1b 36 be 8e 49 e2 bd
       -0.2153718 -0.8197361 -0.17783839 -0.11049186
0000c0 76 ef 0d bf f8 a7 2c 3d 39 23 f8 bd 77 d1 21 3e
       -0.55443513 0.042152375 -0.12116093 0.15802561
0000d0 bf 10 03 3d a8 05 dd 3d f1 f2 c4 be e2 05 eb 3e
       0.031998392 0.107920945 -0.384666 0.45902926
0000e0 56 a2 74 3f 16 95 0c bd ba d0 15 bf 8f 00 d5 3e
       0.95560205 -0.034321867 -0.58521616 0.4160199
0000f0 b5 1d 52 bf 24 51 08 3e 7b 18 4f bf ca 21 7a 3e
       -0.8207658 0.13312203 -0.8089673 0.24426952
000100 23 55 67 bf bd 8f 55 be 59 26 20 3f fd e7 04 3e
       -0.90364283 -0.20855613 0.62558514 0.12979122
000110 06 95 2d bf 13 20 56 bf 86 f6 83 be 61 15 e5 bd
       -0.67805517 -0.8364269 -0.2577402 -0.11185718
000120 f3 ea 5c 3e 31 ff fb 3e 52 98 69 be 8e a5 ee 3d
       0.21574001 0.49218133 -0.22812012 0.11652671
000130 c9 d6 fd be a8 c8 12 3d f8 61 13 3f 9a 75 22 3e
       -0.4957793 0.035835892 0.57571363 0.15865174
000140 42 e9 6c 3e 2a c4 2b 3f 31 35 73 3e 0f ce 05 3a
       0.23135856 0.670962 0.2375076 0.00051042525
000150 35 96 58 bd 79 01 8c bf 81 50 6a be bb 48 6c bd
       -0.052877624 -1.093795 -0.22882272 -0.05768655
000160 e6 b0 63 bf 1c 9a 80 bf 99 4c 57 3f 86 1b 0b 3f
       -0.889418 -1.004703 0.84101254 0.5433887
000170 08 03 17 be 72 df d0 3e da d5 72 3f 37 99 f2 3e
       -0.1474725 0.40795475 0.9485756 0.4738252
000180 d3 16 02 3f 4f ab 9d 3e 67 2f 74 3f 6e 4e 30 be
       0.50816077 0.3079476 0.9538483 -0.17217419
000190 1a af 96 be 93 b1 be be 12 78 00 3f 5f dc 48 3f
       -0.29430467 -0.37244853 0.5018321 0.7846126
0001a0 3e 75 68 be 84 09 05 be 90 46 9c be c8 90 fe be
       -0.22700974 -0.12991911 -0.30522585 -0.49719834
0001b0 1d 95 58 be c4 2d 14 bf 9d e7 46 bd 37 ee 3f 3c
       -0.21150632 -0.5788233 -0.048560727 0.01171451
0001c0 84 a9 e5 bc c6 88 32 be b5 4f 82 bd b9 ce c9 3b
       -0.028034933 -0.17434987 -0.06362859 0.0061586765
0001d0 da 99 c0 3e 4b 74 ce 3e 61 81 2b 3e 3d 44 a2 3e
       0.3761738 0.403231 0.16748573 0.31692687
0001e0 08 5b 98 3e 19 dd f7 3e ce a5 f4 bd 13 bf 0c be
       0.2975695 0.48410872 -0.11945687 -0.13744764
0001f0 39 7a 1e bf 69 15 8d be 72 57 ed 3d 6c 41 cc 3e
       -0.61905247 -0.27555397 0.115889445 0.39893663
000200 9a 23 87 be 6f 6a 33 3f 5f d6 41 be 40 a3 40 be
       -0.2639435 0.7008428 -0.18929432 -0.18812275
000210 3a 57 84 be bc ff af 3e 87 74 68 be e2 fb 17 3f
       -0.258478 0.34374797 -0.22700702 0.5936872
000220 da 25 55 3d 09 69 bf bd f7 50 4a 3d e6 2f 97 3e
       0.05203805 -0.09346206 0.04939362 0.2952873
000230 4a 14 6f be ad 97 85 3e dd 52 c1 3d 4f d2 bb bd
       -0.23347583 0.26092282 0.09439633 -0.091709726
000240 59 8d cf 3e ce 13 cf 3e 82 e9 00 bf 87 d4 90 be
       0.40537527 0.40444797 -0.50356305 -0.28287145
000250 6b fb dc be 97 32 a2 be b8 88 85 3e d4 60 11 bf
       -0.43160567 -0.31679222 0.2608087 -0.56788373
000260 e6 79 8c 3e e2 0d b1 be 80 97 6d be c1 90 f6 bd
       0.2743675 -0.34580904 -0.23202324 -0.12039328
000270 0f ac 41 3f 90 9e 34 3f 93 e6 84 be 61 45 8e 3e
       0.75653166 0.7055445 -0.25957164 0.27787307
000280 b3 45 38 3f 17 5b 7a be b1 d5 71 be 47 8e 87 bf
       0.7198135 -0.2444881 -0.23616673 -1.0590295
000290 e6 17 c6 3e 17 b6 1a 3e d1 15 32 3d 6d 72 f8 3e
       0.38690108 0.15108524 0.043477837 0.485248
0002a0 99 9a 09 bf e6 d8 07 be a6 e5 6b 3f 53 ab 68 3f
       -0.5375152 -0.13266334 0.9214729 0.9088642
0002b0 68 89 8a be a9 44 97 3e 44 4f c0 3e 76 57 6b 3e
       -0.27057958 0.2954457 0.37560475 0.22982582
0002c0 26 60 45 be 88 53 f8 3e 50 a7 3d bf 35 95 94 bf
       -0.19274959 0.4850123 -0.74083424 -1.1608034
0002d0 b4 88 50 be c6 2c 8e 3e 5d 62 e2 3e 8c 55 ab be
       -0.20364648 0.27768534 0.4421567 -0.33463705
0002e0 5e c1 39 bf ff 45 b9 3e 6f 9e ba be df 9b ed be
       -0.7256068 0.36186215 -0.36449 -0.46407983
0002f0 11 14 76 3e d1 bc a8 3f f0 ca 8e be 1c 15 6b be
       0.24031092 1.3182622 -0.27889204 -0.22957271
000300 3a 88 42 3f 8f 03 9b be 22 ea f9 be 00 3d 41 be
       0.75989115 -0.30276152 -0.48811442 -0.18870926
000310 e6 13 16 bf 25 f0 b5 be a8 ea 42 3e 90 0f f0 3e
       -0.5862411 -0.35534778 0.19034827 0.46886873
000320 d3 4c 87 3e ac 65 e1 bd a2 e6 ad 3e 7b 28 a9 be
       0.264258 -0.110057205 0.3396502 -0.33038697
000330 37 6a 07 bf e6 f0 99 be b2 e8 60 3e 87 d2 f4 bd
       -0.52896446 -0.30066603 0.21963766 -0.119542174
000340 4b 0c 36 bf c1 8b df bd a4 1e 39 3e 35 6b 22 3a
       -0.7111251 -0.10915328 0.18078095 0.00061957847
000350 41 c2 9a 3c ad cf c8 bd 47 36 a2 be 07 1f ce 3e
       0.018891456 -0.09805236 -0.31682035 0.40258047
000360 eb 9c f3 3d 3c 22 2e bf 8f ff 8e bc e0 e1 72 bb
       0.11895164 -0.6802099 -0.017455844 -0.0037060902
000370 f7 50 eb be 9e 34 a2 3d 81 3c 07 3f a0 c1 7e 3e
       -0.4596021 0.07920192 0.52826697 0.2487855
000380 fc eb a7 3e 0e c8 81 3c 3c ad 4a be 72 f9 2a bf
       0.3279723 0.015842464 -0.19792646 -0.66786873
000390 56 fa e7 3e ea 30 81 be 6c 1f ed 3e 09 00 2d bd
       0.4530818 -0.2523263 0.46313035 -0.04223636
0003a0 b3 f1 d7 3e a9 4e 27 3f a2 86 3a be 87 94 27 bd
       0.4217659 0.653544 -0.18215421 -0.04091313
0003b0 a0 e5 2d 3e 72 24 b5 be 97 84 7d be 95 04 10 3f
       0.16982126 -0.35379368 -0.2475761 0.5625699
0003c0 c8 f3 19 bf bc 26 43 3d a9 5e d1 3d ac a2 96 be
       -0.60137606 0.04764436 0.10223133 -0.29420984
0003d0 00 58 0f 3f 62 53 36 3f 91 58 eb 3c 4c 3f 0f be
       0.5599365 0.7122098 0.028728755 -0.1398899
0003e0 a8 f0 de 3e e2 f0 b9 be 1b 20 3e 3f a2 ad 27 3f
       0.4354298 -0.36316592 0.7426774 0.6549932
0003f0 e2 58 55 be 02 74 12 3e 10 a4 63 bf 5c 2f 16 3e
       -0.20834687 0.14302066 -0.88922215 0.14666504

lstm.weight_hh_l0_reverse f4 [256, 64]
000000 7f cc 6f 3e b0 d1 56 3f de d7 6b 3e 69 17 c7 3d
       0.23417853 0.8391371 0.23031566 0.09721262
000010 31 b6 00 bf 99 7a 97 3b 92 2d 46 3f d2 87 1f bd
       -0.50278 0.004622769 0.77413285 -0.038947888
000020 c1 28 dd 3d c4 9a 28 3e 24 3f 8e be b9 7c 25 3e
       0.10798789 0.16465288 -0.27782547 0.16160859
000030 3e 8b 63 3e 6d d9 0a 3f 63 ed 09 3e 0b 3f 19 3f
       0.22221085 0.54238015 0.13469462 0.5986182
000040 ee 0a 59 3e 5b e6 8b bc e5 1e 18 3d 25 35 2e 3f
       0.21195576 -0.017077615 0.03713884 0.6804984
000050 81 e9 6e be 9a 74 8b 3e 2f ea 41 3d 7b c4 fe 3c
       -0.23331262 0.27237397 0.047342476 0.031099549
000060 32 9a 70 bd bb 8c 57 3e 7f 95 23 bf 51 c3 43 3e
       -0.058740802 0.21049778 -0.6389999 0.19117476
000070 62 c2 de bd 56 1a d6 3e 56 4c bb 3d 40 25 e0 3d
       -0.10876919 0.41816968 0.09145419 0.10944605
000080 73 ee 07 3e 2c 56 3f 3e aa 36 e2 3e f6 87 99 be
       0.13274555 0.18685216 0.4418233 -0.29986542
000090 28 bb 2c 3e 61 e9 f2 3e da df 1c 3e 2a 0a 13 bf
       0.1686827 0.4744368 0.15319768 -0.57437384
0000a0 8d 70 fb be ca 5f 42 3d a0 39 12 bf d1 a2 0d 3d
       -0.49109307 0.047454633 -0.5711918 0.034579102
0000b0 eb 39 a6 be bf b4 31 be 5a bb f4 3c 7f ac 19 be
       -0.32466063 -0.17354105 0.029874492 -0.15007208
0000c0 6e 24 3e 3e 18 73 84 3d 0d 28 c0 3c 3e d0 a1 be
       0.18568584 0.06467265 0.023456598 -0.3160419
0000d0 80 8e 03 3e 70 2e f2 bd 2b 37 d5 3e 57 1c 8d be
       0.12847328 -0.118252635 0.41643652 -0.27560684
0000e0 49 c8 f5 be d3 fa 78 bf 88 32 4d 3d dd ef 3b 3d
       -0.48004368 -0.9725773 0.05009702 0.04588305
0000f0 f2 0e 04 bf a9 2e 70 3e 14 75 cb 3d ce 6a da 3d
       -0.51585305 0.234553 0.0993444 0.106649026
000100 a1 e0 ee 3e 15 5d 43 3f c8 c7 88 bb 93 2e d6 bd
       0.46655753 0.76313907 -0.0041742064 -0.10458102
000110 de fe 4d 3f f8 ba 0f be 15 bb 0d 3d 05 9b 41 3e
       0.8046702 -0.14036167 0.034602243 0.18906792
000120 e7 4e a5 3e a7 48 ea 3d 8c cc 13 3e 75 1c 39 3d
       0.3228676 0.114396386 0.14433497 0.045193154
000130 2d 7b 17 bd 26 aa c0 bd df 8b 8e be d3 43 1e be
       -0.036982704 -0.09407453 -0.27841088 -0.1545556
000140 bd c4 50 3e 23 d1 a4 3f 8e 4e 98 3e c6 cb 08 3e
       0.2038755 1.2876323 0.29747432 0.13358983
000150 d4 ae 2a be 33 a3 5c be 9c 8d b3 bd 9a a0 98 bd
       -0.16668254 -0.2154663 -0.08767244 -0.07452507
000160 7d e9 68 3e 11 81 a7 3e da f1 94 3e c5 86 6e 3e
       0.22745319 0.32715657 0.29090768 0.23293598
000170 8c f6 19 bf 44 a4 80 be ac 04 86 bd f8 94 5c 3e
       -0.60141826 -0.25125325 -0.0654386 0.21541202
000180 de 59 4c 3e d7 af 6c be 1f 45 19 3f 45 6a cf 3e
       0.19956157 -0.23113953 0.59871095 0.40510765
000190 8b 83 0b be cb c7 71 3e c2 df 35 3e 17 96 9c be
       -0.13624398 0.23611371 0.17761138 -0.3058326
0001a0 a5 44 82 bc f3 c9 5e be 0e 6b e2 3e db 80 91 3e
       -0.015901873 -0.21756725 0.442223 0.2841862
0001b0 92 2a 0e be 0b 4f 24 be ff 4e 6c be 9b b5 54 bf
       -0.13883427 -0.16045777 -0.2307701 -0.8308961
0001c0 3c 32 3b be 39 30 d2 3c b7 77 92 be 6f be 97 3b
       -0.18280882 0.02565776 -0.2860696 0.0046308558
0001d0 df 6b 40 3e c2 94 5b 3c 12 fb 8a 3d 82 67 59 3e
       0.1879115 0.013402166 0.06786169 0.21230891
0001e0 76 4b 57 3e a7 68 57 bf 19 ef b5 3e 0d c3 1c be
       0.2102488 -0.8414406 0.3553398 -0.15308781
0001f0 27 42 27 bf 35 f1 72 3e 0d 29 45 bf 53 e2 00 3e
       -0.65335315 0.23724826 -0.77015764 0.12586336
000200 46 c2 3c 3e 5e 0d 05 3e bf 86 c8 bc 82 2f e5 3d
       0.18433484 0.1299338 -0.024478314 0.11190702
000210 d5 6a 04 3e d2 7e 19 3f e9 94 56 be 32 8c b8 3e
       0.12931378 0.5995914 -0.20955242 0.3604446
000220 b1 48 f3 be 2e 0c e6 bd 88 3c 84 3e c1 ff af 3e
       -0.47516397 -0.11232792 0.25827432 0.34374812
000230 2f 2a b4 3e 53 72 5c be bc 6b f6 3d 58 65 da 3d
       0.35188434 -0.21527986 0.120322675 0.10663861
000240 cb 32 5d 3e 15 f4 89 be 93 14 3b bb 35 fb df 3c
       0.21601407 -0.26944032 -0.0028546199 0.027341465
000250 5d ce b4 3e 66 5a 42 3e 8e 76 85 be ef de 83 3d
       0.35313693 0.18979797 -0.26067013 0.064390056
000260 e3 cd fa 3e 1a e8 19 bf a2 e1 02 bf 37 bc c5 3d
       0.48985204 -0.60119784 -0.5112554 0.0965504
000270 f2 d8 5f 3f 4e 5e 68 3e e4 24 cb 3e 40 e7 a8 bd
       0.8744041 0.22692224 0.39676583 -0.082472324
000280 c1 2d 16 be 1e 2f 1a 3d 77 84 03 be 9d 7b af bd
       -0.14665891 0.03764259 -0.128435 -0.08568499
000290 a9 58 5e 3d cd bf 86 3d 4f f5 8a 3e c8 88 41 3e
       0.05428377 0.06579552 0.2714028 0.18899834
0002a0 0b 74 db 3d 18 7e 3a 3e b7 e9 02 be 9f 2d f1 bd
       0.10715493 0.18212163 -0.12784468 -0.1177628
0002b0 87 79 18 3d 46 d5 bf 3e 0b 27 14 be 64 b3 0d 3e
       0.037225273 0.37467402 -0.14468019 0.13837963
0002c0 ac 6b c7 3d 1d c4 90 bd bf 8b 25 3d 6c 2d 23 3e
       0.09737334 -0.07068656 0.040416475 0.15935296
0002d0 81 9c 4e be f5 c2 f5 be cb 23 39 bd 5d 02 00 be
       -0.20176889 -0.48000303 -0.04520015 -0.12500902
0002e0 e7 35 90 be 3a 97 62 3e d7 64 cb be 9d 7c 8f 3e
       -0.28166124 0.22128001 -0.39725372 0.2802476
0002f0 31 d1 dd 3e 6f 32 5d be af 30 28 be a7 70 dd bc
       0.43323663 -0.2160127 -0.16424821 -0.027031256
000300 ad 41 56 be b7 56 5f 3f 03 02 cb bd 5d 81 a3 3d
       -0.20923491 0.8724169 -0.09912493 0.079836585
000310 cd f3 5a 3f f9 04 79 3e d9 25 3b 3f e3 e9 f1 3e
       0.8552826 0.24318303 0.73104626 0.47248754
000320 f7 0f 91 3d 92 56 0d be 6a 2b f5 3e 54 fa fa bd
       0.07083123 -0.13802555 0.47884685 -0.122547776
000330 44 bc 08 3d 50 90 d4 3e a1 e7 15 bd d1 cd 53 3e
       0.03338267 0.41516352 -0.03659785 0.20683981
000340 e8 12 81 3e 90 d7 97 bd f7 05 9d 3d 6d 90 2a 3f
       0.25209737 -0.07414162 0.07667153 0.66626626
000350 66 fa 8d be 24 99 06 3e 67 f4 b7 3e 0b 61 12 3e
       -0.277301 0.13144356 0.35928652 0.14294831
000360 e4 1c 7f be 74 98 95 be 84 a2 fc 3e d7 01 41 3d
       -0.24913365 -0.29217875 0.4934274 0.047120895
000370 bf 0d 2e bd fa b9 3b 3e 8b 24 de bc a7 58 09 3e
       -0.042493578 0.18332663 -0.027117034 0.13412724
000380 44 f8 1f be c0 3d e5 3e 25 fe a0 bd 3b e0 16 3c
       -0.1562205 0.44773674 -0.07860974 0.009208734
000390 e2 71 64 be 4c d0 87 3e ab 78 ae 3e 5f 9b 1f 3e
       -0.22309068 0.26526105 0.34076437 0.15586613
0003a0 c8 67 70 bc 9d b5 99 3c 21 68 43 be 36 9d da be
       -0.014673181 0.018763358 -0.19082691 -0.42698067
0003b0 40 0e 91 3a 6c ce 41 3d 52 0a c5 bd 62 97 4a 3f
       0.0011066869 0.047316 -0.09621109 0.7913724
0003c0 ef d5 99 3e 53 7e 0f bf d0 7b 4a bd 35 cf d0 bd
       0.3004603 -0.5605213 -0.049434483 -0.101957716
0003d0 ab 13 43 3e d5 6a 83 bd 93 96 05 3e 15 e2 f7 3e
       0.19050471 -0.06416861 0.13045721 0.48414674
0003e0 0b 10 50 3c 0a d9 2a be 30 1a 64 3e 4c 82 b9 be
       0.012699137 -0.16684356 0.22275615 -0.3623222
0003f0 6a 23 e3 bd 84 39 fa be c1 9a 18 3e fc c1 40 bf
       -0.11090739 -0.48872006 0.14902784 -0.75295997

lstm.bias_ih_l0_reverse f4 [256]
000000 0d 8f ef 3d 4c f0 70 bd ee ff b8 3e 16 be 4d 3e
       0.11697207 -0.058822915 0.3613276 0.20092043
000010 f1 e5 9e 3b 1d 46 ab 3e c4 25 59 3e 73 ae 1f 3e
       0.0048491885 0.3345193 0.21205813 0.15593891
000020 f4 26 2a be 69 b3 34 3f bd a1 df 3d a0 ce a4 be
       -0.16616422 0.7058626 0.10919521 -0.32188892
000030 84 84 fa 3e 7e db cb 3d d5 1f a1 3d 01 03 a6 3d
       0.48929226 0.09953974 0.078673996 0.08106042
000040 ad 40 8f 3e fd 8d 24 3e df 9c ed 3e 14 c9 ec 3d
       0.2797903 0.16069789 0.46408746 0.1156179
000050 bc 20 17 3e 82 a5 51 3e 34 2c 87 3e b5 11 ae 3e
       0.14758581 0.20473292 0.26400912 0.33997884
000060 a2 82 8e 3e 12 18 7a 3e b6 9b e7 bd 37 fa c5 3e
       0.2783404 0.24423245 -0.113089964 0.3866746
000070 2d b3 44 3e 7d 50 77 3e 0f c8 96 3e 14 8d 54 3e
       0.19208975 0.24151798 0.29449508 0.20756942
000080 bf e8 5c 3e f2 e3 af 3e b6 7e 84 bd 72 b5 b3 3d
       0.2157316 0.34353596 -0.06469481 0.08774842
000090 be ee db 3e aa 8c 80 3e 63 ff f3 3d fc 96 78 3d
       0.42955583 0.25107318 0.119139455 0.060690865
0000a0 f1 f0 9f be 0b ca a1 3e 9d e4 c9 bd 89 85 00 3f
       -0.3123851 0.3159946 -0.09858058 0.5020376
0000b0 a5 f1 7d 3e ca ab 10 be 9f 6a 6a 3e 9f f0 bf 3d
       0.24799211 -0.14128032 0.22892235 0.09372067
0000c0 a6 97 35 be dc d5 8c 3e 57 f4 92 3e 95 fe 3e 3e
       -0.1773363 0.27506912 0.28702042 0.18651803
0000d0 02 95 97 3e 99 84 c1 3d af 32 27 3f 1e d0 e5 bd
       0.2960587 0.09449119 0.6531171 -0.11221336
0000e0 15 83 bb 3c 0c d2 08 3e 76 18 5b 3d 59 05 0c 3e
       0.022889653 0.13361377 0.053490125 0.13673915
0000f0 19 19 43 be b4 0c ef bb 5a 24 5e 3e 87 18 2f 3e
       -0.19052543 -0.0072952155 0.21693555 0.170992
000100 56 10 1b be ac 73 75 3d 6e b3 2e 3d 27 d8 ae 3c
       -0.1514295 0.059924766 0.042651586 0.021343304
000110 0e 11 9c 3d ce 2d e2 3d 3b c9 93 bd 16 56 45 bd
       0.076204404 0.11043893 -0.07216116 -0.0481778
000120 4a 9e ed bc bb 47 36 3b 23 fe 1c be 62 83 73 bd
       -0.029006142 0.002781375 -0.1533132 -0.05945147
000130 d3 bf 31 3e 81 31 3b 3e 07 d7 a4 bc d4 e6 84 3c
       0.17358331 0.18280603 -0.020122064 0.016223349
000140 19 2b 12 bd 85 6d 94 3e 47 99 64 bb 76 03 f9 3d
       -0.035685632 0.28989807 -0.00348814 0.12158863
000150 03 0a 99 bc 2b db 96 3d 21 5d e8 3d 8a 93 fe 3d
       -0.018681532 0.07366022 0.11345888 0.124304846
000160 29 45 0c 3e fc a5 43 bb 4f d2 2c 3e 11 4d 38 bd
       0.13698258 -0.0029853573 0.16877101 -0.04499537
000170 65 60 d9 bd cb 08 18 3e 8d ca 79 3d 87 b4 9f 3c
       -0.10614089 0.14847104 0.060984183 0.019495262
000180 26 58 7e 3e a6 bc 24 3e b8 b5 2d bd 31 02 f2 bd
       0.24838313 0.16087589 -0.04240963 -0.11816824
000190 b7 3a dd bc 1d a1 e4 3a c6 90 cf 3d c1 b4 34 bd
       -0.027005536 0.0017443035 0.10135035 -0.044117693
0001a0 27 8a 38 3d 37 8c 03 3e 78 df 18 3e 60 88 16 3c
       0.045053627 0.12846456 0.14928997 0.009187788
0001b0 f5 d0 16 3e 58 93 9f bd 99 45 fc 3d 70 5c 74 3e
       0.14728148 -0.077917755 0.12317962 0.23863387
0001c0 36 0b 58 3d 8e ae 04 3d d6 a7 45 3d 41 93 eb 3d
       0.052745067 0.03239303 0.048255764 0.11502696
0001d0 46 c0 db 3c 39 5c 3c 3e 3b 42 cc 3d 2a a9 83 bb
       0.026825082 0.18394555 0.0997357 -0.0040179687
0001e0 41 39 41 3e b1 dc 93 3d 8b 89 57 be a9 e1 fb bd
       0.18869497 0.07219828 -0.21048562 -0.12298901
0001f0 2b d4 d5 bc f2 78 e0 3c c6 8e 11 3e e0 34 ae bd
       -0.026102146 0.027401421 0.1421462 -0.08506179
000200 3c a9 70 be 8c 80 b9 be 76 1f 92 3d 1d 0f 92 3d
       -0.23502058 -0.36230886 0.07134907 0.07131789
000210 81 ea ab bd 94 70 dc 3d 48 2d 04 be 88 fe af 3c
       -0.083943374 0.1076366 -0.12907898 0.021483675
000220 4b 2b 86 be 70 d1 ea be e2 cd 1a bd 6f 2b ae bd
       -0.26204905 -0.45862913 -0.037794 -0.08504378
000230 8f 2b aa 3e 59 e4 b2 bd f5 2d 44 be 1b 32 11 3e
       0.33236358 -0.0873496 -0.19158156 0.1417927
000240 d9 8a 8f 3e 41 1c 2e 3e 1d 5d 70 3e 32 81 33 3d
       0.2803562 0.17002966 0.2347302 0.043824382
000250 ab 91 03 3c bd bd 08 3d 73 e8 d3 3e e0 6b 7b 3e
       0.008030335 0.033384074 0.41388282 0.2455287
000260 8e 2c 09 be d8 93 ed bc 01 d1 f1 3d e2 76 dc 3e
       -0.13395903 -0.029001161 0.118074425 0.4305945
000270 a5 73 90 3e ca 8c 9e be b7 20 f0 3e a0 f7 51 3e
       0.2821323 -0.3096679 0.4689996 0.20504618
000280 fa d9 7b 3e f5 1c 7f be 43 3e 0d be af fa 28 be
       0.2459487 -0.2491339 -0.13793282 -0.16501878
000290 c0 f7 11 bf a2 e5 4a bc 9e cf b8 3d e8 db 9d bd
       -0.5701866 -0.01238385 0.09023975 -0.077079594
0002a0 8f 1c fb 3e 87 a1 c7 bd af 44 50 3e e8 c8 fa bd
       0.49045226 -0.09747606 0.203387 -0.12245351
0002b0 07 7c 05 3e c9 bf 71 3d e6 da d9 bd 8f 51 b6 3d
       0.13035594 0.05902079 -0.10637455 0.08902275
0002c0 f4 46 6a 3d bd e8 a9 be 8e 14 ba bc 93 bb f5 3e
       0.057196572 -0.33185378 -0.02271488 0.4799467
0002d0 d7 d0 46 be 46 b8 2a bd 71 82 31 3f 7d 9a 6b bd
       -0.19415604 -0.041679643 0.6933966 -0.05752038
0002e0 e1 09 34 be 41 74 d4 3d ae e3 0e be d3 50 16 3d
       -0.17581894 0.10373736 -0.1395404 0.036698174
0002f0 28 11 a6 3e ca fe cc 3d 04 04 8c be 03 16 13 3d
       0.32434964 0.10009535 -0.27346814 0.035909664
000300 4f e4 92 ba 75 ff 66 be c5 ba f0 3e 9d de 0b 3e
       -0.0011206957 -0.22558387 0.47017494 0.13659139
000310 d0 c7 51 bd 6a 7f 58 3e 26 63 65 3e 6d 50 c6 3e
       -0.051215947 0.21142355 0.22401103 0.38733235
000320 b7 6d e2 bd 6a da c2 3e 74 bc c1 3e bb 16 a3 3d
       -0.11056083 0.38057262 0.3783909 0.0796332
000330 ea 76 a9 3e 79 00 90 bd a0 3b a5 3e ef 5c 10 3f
       0.33098537 -0.0703134 0.32272053 0.56391805
000340 31 05 65 3e e2 a2 ae 3d c8 b7 fe 3d 81 b1 9d 3e
       0.22365262 0.08527161 0.12437397 0.30799487
000350 6d de ef 3e 26 5d 99 3e c5 dd a8 3e 89 19 59 3e
       0.46849385 0.2995388 0.32981697 0.21201147
000360 3c af 5a 3e 3f b9 ad 3e 6f e7 9f bd 53 7f a7 3e
       0.21355909 0.33930394 -0.07807814 0.32714328
000370 97 41 b2 3e 5b 6a a8 3e 3c 88 8d 3e 22 80 df 3e
       0.34815666 0.32893643 0.27643 0.43652445
000380 06 80 92 3e ba 35 61 3d f9 e3 d2 3c 90 cf 04 bd
       0.286133 0.05498288 0.025743471 -0.03242451
000390 88 24 a8 3e 48 cd 91 3e 98 7e a0 3d 07 78 5e 3e
       0.3284037 0.2847693 0.07836646 0.21725474
0003a0 d7 61 7a 3d 24 84 8b 3e a6 56 45 3e 75 dd d1 3e
       0.061128464 0.27249253 0.19271335 0.4098927
0003b0 5d d3 33 3e ea bf 43 be 61 45 7e 3e fe 11 93 3e
       0.17561097 -0.19116178 0.24831153 0.28724664
0003c0 9d 2f 0d 3e 5e 9d 77 3e 4d f6 d3 3e 28 e0 47 3e
       0.13787694 0.24181125 0.4139885 0.19519103
0003d0 4f 15 cb 3d a1 3d 3c 3e fe 4c 16 3e 98 f0 9d bd
       0.09916174 0.18382885 0.14677808 -0.07711905
0003e0 3c fc 5e 3e b1 a6 d4 3e dd 47 29 3f e6 9b 0d 3f
       0.21775907 0.41533425 0.6612528 0.5531601
0003f0 d1 cc 53 3d 7f 44 99 3e 6f 45 71 3e 4e 27 71 3e
       0.051709 0.2993507 0.23561643 0.2355015
