models/71-BiLSTM_Loss_0.09155423128380817.pt (torch_old, 191938 bytes, 10 tensors)

lstm.weight_ih_l0 f4 [256, 25]
-0.3667953 0.015321055 0.40844926 -0.32719266 -0.71215695 0.73340285 0.11482483 0.25312933
-0.24641287 -0.056112137 0.40608367 -0.00555504 0.08769986 -0.27700767 0.40705025 0.2659747
-0.50691044 0.1091706 -0.07684962 0.47687078 0.26418617 0.9187302 -0.66201425 0.3106536
0.7317598 0.08344719 0.20039733 0.2696905 -0.44293064 -0.8852725 -0.14437103 0.03919902
0.09504724 0.6257495 -0.65124905 -0.33414418 -0.2660154 -0.368059 -0.55319214 0.029435078
-0.06350213 -0.8740182 0.5563001 -0.028698977 -0.31226078 0.6762858 -0.6548881 0.14862354
0.16154781 -0.61565626 -0.44549587 -0.5938939 0.2558125 0.91697127 0.37099192 -0.8106696
0.50613296 -0.03344122 -0.44408163 -0.58635324 0.17969593 0.7345081 -0.18644087 -0.19420202
1.0710561 -1.0958068 0.16902862 -0.294961 0.2791785 -0.18059485 0.54733646 0.5597704
-0.36585575 -0.39801094 -0.59630466 -0.56432205 0.028201263 0.5696846 0.99937046 -0.5141637
0.13781387 1.1153061 -0.54765594 -0.35837853 0.15392286 -0.39123562 0.5828524 -0.5773256
-1.9457664 -0.3131603 0.430105 -0.49778947 -0.399869 -0.016794326 -0.57654345 0.5121301
0.28827456 -0.051715676 -0.19958618 -0.28081036 0.37239507 0.24402206 0.1646143 1.0560449
-0.37193882 0.07700468 -0.31785116 -0.6347136 -0.45748484 -0.54097676 -0.10927374 -0.019985102
-0.55996877 0.43835312 -0.77282894 -0.7402618 -0.29285097 -0.08072256 0.18323965 -0.5672099
-0.08797966 0.6075036 0.76209563 0.0325062 -0.23254846 -0.24579301 -0.09709341 0.6117524
-0.013396628 -0.15706521 0.7676128 0.23125014 -0.3799402 -0.53198785 0.084280185 -0.3823485
-0.055398997 -0.20161656 -1.3240163 -0.25255167 0.41674426 -0.48356307 -0.05074899 -0.064123794
-0.14171402 0.95710474 -0.06331105 -0.062623166 -0.36850974 0.8890288 -0.03869545 -0.1627409
-0.23062497 0.13195229 -0.26549667 -1.1049646 -0.51784396 0.25236154 0.26302832 -0.5403697
-0.022717979 0.39469445 0.108248726 0.025543578 0.6522919 0.6201035 -0.113241896 0.52432275
-0.06095934 0.425875 0.32315308 -0.35188398 -0.065995164 -0.7855233 -0.17841615 -0.08572376
0.95546246 0.8838608 0.04612978 -0.37007418 0.027073478 -0.097881585 0.29431087 -0.064927295
-0.1536388 0.5162462 0.1706881 -0.0897448 -0.5867009 0.5189425 -0.4490564 -0.006156803
0.25542 0.39506942 0.34359825 0.5751973 -0.3797616 -0.61303145 -0.5404742 0.14148057
-0.52427924 -0.2714881 0.2844441 0.28198475 0.4188558 0.3503152 -0.26541704 0.5072272
0.82834613 -0.24975534 0.6788368 0.02517602 -0.3638484 -0.4224853 -0.45735836 -0.19352545
-0.58848155 0.44657212 -0.68137276 0.09350196 -0.6183823 -0.34461337 -0.055323888 -0.2969953
0.38488236 -0.00078762544 -0.08906167 -0.043470655 -0.1925704 -0.27100608 -0.35908753 0.3223421
-0.04833411 -0.6751004 0.19635382 0.037765834 0.41833732 -0.06918685 0.23761398 -0.09793259
0.40008682 0.95581293 0.37927008 -0.3489343 -0.3532476 0.20069964 0.012153527 -0.0019763326
0.25042525 -0.5392656 -0.41705206 0.6906954 0.1621292 0.23594795 -0.34446338 -0.46010217
00000000: 98cc bbbe 2a05 7b3c 4320 d13e cc85 a7be
00000010: eb4f 36bf 4ac0 3b3f 4829 eb3d 2b9a 813e
00000020: a853 7cbe d7d5 65bd 33ea cf3e 0e07 b6bb
00000030: fc9b b33d f3d3 8dbe e468 d03e d62d 883e
00000040: e2c4 01bf d694 df3d 5563 9dbd 6828 f43e
00000050: 6943 873e e731 6b3f c479 29bf fd0d 9f3e
00000060: 9c54 3b3f 5ce6 aa3d f534 4d3e e014 8a3e
00000070: cec7 e2be 38a1 62bf 00d6 13be 278f 203d
00000080: 21a8 c23d 1f31 203f 42b8 26bf f214 abbe
00000090: 2c33 88be 3b72 bcbe 009e 0dbf d521 f13c
000000a0: 680d 82bd a8bf 5fbf af69 0e3f 1e1a ebbc
000000b0: a5e0 9fbe 1121 2d3f bfa6 27bf c530 183e
000000c0: ca6c 253e a69b 1dbf 0918 e4be 6e09 18bf
000000d0: dbf9 823e a1be 6a3f a7f2 bd3e 0b88 4fbf
000000e0: ee91 013f a9f9 08bd ab5e e3be 3f1b 16bf
000000f0: 3602 383e b908 3c3f 5bea 3ebe e5dc 46be
00000100: 5e18 893f 6643 8cbf d715 2d3e 2105 97be
00000110: 7cf0 8e3e dbed 38be 3e1e 0c3f 1d4d 0f3f
00000120: 7251 bbbe 17c8 cbbe 6ca7 18bf 6977 10bf
00000130: 5606 e73c dad6 113f bed6 7f3f 3ba0 03bf
00000140: 141f 0d3e 5ac2 8e3f 2e33 0cbf 647d b7be
00000150: f49d 1d3e 0950 c8be d135 153f 9ccb 13bf
00000160: e00e f9bf 8c56 a0be b936 dc3e 43de febe
00000170: a1bb ccbe 4194 89bc 5a98 13bf f51a 033f
00000180: b998 933e d1d3 53bd 5260 4cbe 60c6 8fbe
00000190: 91aa be3e ebe0 793e a790 283e 7b2c 873f
000001a0: c46e bebe a1b4 9d3d 63bd a2be 977c 22bf
000001b0: 743b eabe 747d 0abf e9ca dfbd ccb7 a3bc
000001c0: 1d5a 0fbf d26f e03e 1ed8 45bf cc81 3dbf
000001d0: 90f0 95be df51 a5bd 2da3 3b3e ab34 11bf
000001e0: ae2e b4bd 5b85 1b3f b318 433f 3925 053d
000001f0: 2f21 6ebe 2ab1 7bbe e9d8 c6bd ce9b 1c3f
00000200: 887d 5bbc b4d5 20be 4682 443f d6cc 6c3e
00000210: 8687 c2be 5b30 08bf 179b ac3d 2fc3 c3be
00000220: 0fea 62bd 9274 4ebe 5e79 a9bf 744e 81be
00000230: 815f d53e 9495 f7be 2cde 4fbd 5653 83bd
00000240: 7b1d 11be d104 753f 39a9 81bd 9340 80bd
00000250: 4fad bcbe 6497 633f 1f7f 1ebd 8da5 26be
00000260: f428 6cbe 801e 073e 2eef 87be 7b6f 8dbf
00000270: 6c91 04bf 8835 813e a6ab 863e ab55 0abf
00000280: 0e1b babc 6415 ca3e 82b1 dd3d c440 d13c
00000290: 9afc 263f 1abf 1e3f 5eeb e7bd 043a 063f
000002a0: 80b0 79bd 4a0c da3e 5274 a53e 232a b4be
000002b0: 7928 87bd 0e18 49bf b9b2 36be f08f afbd
000002c0: 3099 743f b444 623f 95f2 3c3d 5d7a bdbe
000002d0: 33c9 dd3c 2476 c8bd eaaf 963e 9af8 84bd
000002e0: 7d53 1dbe b628 043f dcc8 2e3e 1fcc b7bd
000002f0: 0832 16bf 6ad9 043f b8ea e5be 02bf c9bb
00000300: 69c6 823e 8a46 ca3e 1cec af3e 2140 133f
00000310: 1d70 c2be a1ef 1cbf 845c 0abf 48e0 103e
00000320: 2a37 06bf 7d00 8bbe a8a2 913e 4e60 903e
00000330: 4474 d63e 845c b33e bee4 87be a4d9 013f
00000340: 7e0e 543f ddbf 7fbe 40c8 2d3f f13d ce3c
00000350: 564a babe fe4f d8be e02a eabe 892b 46be
00000360: baa6 16bf 1aa5 e43e 726e 2ebf f57d bf3d
00000370: 4d4e 1ebf 2a71 b0be 4d9b 62bd c50f 98be
00000380: 4d0f c53e a678 4eba f765 b6bd 490e 32bd
00000390: 2d31 45be 4fc1 8abe 52da b7be 060a a53e
000003a0: fdf9 45bd 61d3 2cbf fa10 493e 59b0 1a3d
000003b0: 4f30 d63e d6b1 8dbd 1451 733e e290 c8bd
000003c0: 2ed8 cc3e 28b0 743f b02f c23e 84a7 b2be
000003d0: dfdc b4be 3584 4d3e 961f 473c 5c85 01bb
000003e0: bd37 803e 4f0d 0abf d987 d5be 6ad1 303f
000003f0: 3205 263e 579c 713e 815d b0be 8392 ebbe

lstm.weight_hh_l0 f4 [256, 64]
-0.15119663 -0.43022054 0.16367134 -0.19280289 -0.13530491 0.54453146 0.075911924 -0.11978879
-0.124813184 -0.06976684 -0.6323642 0.17423296 -0.10446184 -0.1720282 0.0951438 -0.40223622
0.20619051 -0.038927495 -0.17506857 -0.17060442 0.31870726 -0.77142566 0.90262926 0.56592315
0.029097661 0.41540018 -0.3297528 0.5203138 0.21277232 -0.21905945 0.2314009 0.29117432
0.017085623 0.20497045 0.974449 -0.11075005 -0.022169363 0.6408 0.024775479 0.33197066
-0.13667876 -0.157887 -0.03259828 0.047196925 -0.023300555 -0.33791324 -0.19848688 0.25900033
-0.28301787 -0.0596076 -0.04563193 -0.67966306 0.28687698 0.011333116 0.3080696 -0.37872934
-0.34666142 -0.6464434 -0.09304228 -0.3232615 -0.17516817 -0.72794765 -0.20920232 -0.24130665
0.059218936 0.45157936 -0.10826796 -0.29962522 0.39670512 0.21463312 -0.15442258 -0.14401829
0.34007797 -0.11429294 0.077348866 0.292252 0.9813016 0.16596311 0.6195578 -0.8028635
0.039381422 -0.6844743 0.26778302 -0.46839195 -0.47534016 -1.1647421 0.682109 0.10788113
-0.03853557 0.8772019 0.451385 -0.3730799 -0.2569097 0.014829685 -0.1446148 0.22007096
0.024331857 -0.053758238 0.28537655 0.21131687 0.48656142 0.21404275 -0.37763518 -0.0068177027
0.4226877 0.26951435 0.27470037 0.05695698 -0.57947916 -0.4433821 0.31969064 -0.4355461
0.073353514 0.03130515 -0.13269426 0.1785034 -0.7012684 -0.33002865 0.29272237 0.19146824
-0.15003945 1.1793929 0.077917986 -0.40376854 0.5781105 0.1797333 -0.28437778 0.11674705
-0.2393663 0.025228411 0.4013389 0.44783434 -1.2914904 -0.42551222 0.23817499 0.5894484
-0.8938593 0.4655778 -0.055899944 -0.55336297 0.2678748 0.13739125 0.40929723 0.5088924
0.11760115 0.34877145 -0.25209066 -0.5554827 0.4511211 0.3769126 -0.59835637 0.3216468
0.27425912 -0.44589514 0.02296954 0.4481824 0.4461563 0.022748861 0.18701334 -0.0009801254
0.029275022 -0.077678524 0.23552974 -0.1889883 -0.27279824 -0.44707045 0.17488986 0.30440456
-0.4459456 0.54191864 -0.149457 0.012076418 0.20291325 -0.40787843 -0.008375149 0.06274347
0.14791383 -0.12372519 -0.30958697 0.27480933 0.21851277 0.024631815 -0.10551858 0.40746272
-0.23212072 0.4832011 -0.44991162 -0.4339507 -0.18374497 0.10511841 0.20687167 -0.11403825
-0.25701404 0.4412722 -0.6238817 0.50531536 0.57307404 0.21408041 -0.1796213 0.53012437
0.18828753 0.55910146 -0.7214203 0.78552705 -0.640333 -0.30451074 0.057829313 -0.4579437
-0.73210883 -0.17713349 0.09339761 0.1239623 0.5707305 -0.21262845 0.6673306 -0.5063889
-0.5688281 -0.6719921 0.17827411 0.054793842 -0.03792742 -0.565608 0.055822074 0.47014
0.2447247 -0.186059 0.26701173 -0.07777673 -0.5337479 0.3678503 0.074512154 0.12602982
0.51782125 0.18479168 0.5204854 -0.16627043 -0.75957596 0.34409392 -0.10144545 -0.45840988
-0.53365386 0.21023847 0.0717122 -0.49310005 0.8082047 0.3596169 -0.8061699 -0.13839914
-0.12838624 -0.5493536 0.30889097 0.6377416 0.10964967 0.41538975 -0.04903043 -0.03702342
00000000: 4ad3 1abe de45 dcbe 7699 273e 1f6e 45be
00000010: 5f8d 0abe 6a66 0b3f b677 9b3d d353 f5bd
00000020: 0e9e ffbd ebe1 8ebd 9fe2 21bf 206a 323e
00000030: 17f0 d5bd 2928 30be c1da c23d e8f1 cdbe
00000040: 9b23 533e 7072 1fbd 2d45 33be edb2 2ebe
00000050: 992d a33e 277c 45bf b612 673f 57e0 103f
00000060: 385e ee3c 55af d43e 5cd5 a8be 4933 053f
00000070: fde0 593e 1f51 60be 5cf4 6c3e cd14 953e
00000080: 26f7 8b3c c6e3 513e 7d75 793f ecd0 e2bd
00000090: 869c b5bc 780b 243f f2f5 ca3c 0ff8 a93e
000000a0: 84f5 0bbe 21ad 21be c685 05bd 9051 413d
000000b0: cee0 bebc f702 adbe 2540 4bbe b19b 843e
000000c0: b8e7 90be 1927 74bd 8ce8 3abd 66fe 2dbf
000000d0: 8ae1 923e 89ae 393c 4cbb 9d3e d0e8 c1be
000000e0: 9b7d b1be 517d 25bf f38c bebd 8882 a5be
000000f0: 495f 33be c75a 3abf 2239 56be 1719 77be
00000100: 8e8f 723d 6935 e73e 98bb ddbd 7a68 99be
00000110: ef1c cb3e c9c8 5b3e f420 1ebe 8879 13be
00000120: b31e ae3e 6b12 eabd 1569 9e3d 0ea2 953e
00000130: 9536 7b3f 3cf2 293e 579b 1e3f 7688 4dbf
00000140: 6a4e 213d b539 2fbf db1a 893e 12d1 efbe
00000150: c95f f3be 4516 95bf b29e 2e3f c8f0 dc3d
00000160: 79d7 1dbd 4e90 603f ef1b e73e 5404 bfbe
00000170: ab89 83be 35f8 723c e715 14be 485a 613e
00000180: 9a53 c73c 9931 5cbd e01c 923e 7363 583e
00000190: 941e f93e 062e 5b3e 6659 c1be 0967 dfbb
000001a0: 866a d83e c9fd 893e 87a5 8c3e b94b 693d
000001b0: bf58 14bf fb02 e3be 7eae a33e e6ff debe
000001c0: 5e3a 963d d439 003d 01e1 07be 98c9 363e
000001d0: 5386 33bf 84f9 a8be b5df 953e 4010 443e
000001e0: f1a3 19be 59f6 963f 7793 9f3d c0ba cebe
000001f0: 0dff 133f 020c 383e f799 91be 1419 ef3d
00000200: 701c 75be d0ab ce3c 4b7c cd3e 8b4a e53e
00000210: 8f4f a5bf bddc d9be 25e4 733e 17e6 163f
00000220: f7d3 64bf 3760 ee3e 57f7 64bd 32a9 0dbf
00000230: e326 893e 4bb0 0c3e 688f d13e c646 023f
00000240: dfd8 f03d 2c92 b23e 0712 81be 1d34 0ebf
00000250: 58f9 e63e b0fa c03e e22d 19bf e4ae a43e
00000260: b16b 8c3e 5e4c e4be 9e2a bc3c 2a78 e53e
00000270: 996e e43e d25b ba3c 6d80 3f3e 8d77 80ba
00000280: 2cd2 ef3c eb15 9fbd b52e 713e 2686 41be
00000290: 36ac 8bbe 6be6 e4be 5416 333e eada 9b3e
000002a0: fb52 e4be 2ebb 0a3f 410b 19be 2bdc 453c
000002b0: 7ec8 4f3e 71d5 d0be ec37 09bc a67f 803d
000002c0: b976 173e a263 fdbd 2f82 9ebe cfb3 8c3e
000002d0: d0c1 5f3e a9c8 c93c 201a d8bd f49e d03e
000002e0: 0eb1 6dbe 2266 f73e d15a e6be c92e debe
000002f0: a427 3cbe 5248 d73d 2bd6 533e e38c e9bd
00000300: 5897 83be 6eee e13e b6b6 1fbf 595c 013f
00000310: fbb4 123f e537 5b3e a5ee 37be 3bb6 073f
00000320: 72ce 403e 4621 0f3f 00af 38bf 4d18 493f
00000330: ddec 23bf d5e8 9bbe 6ede 6c3d 9977 eabe
00000340: 7c6b 3bbf 7b62 35be 3f47 bf3d f2df fd3d
00000350: 651b 123f 46bb 59be 2ed6 2a3f b4a2 01bf
00000360: b89e 11bf ad07 2cbf 7d8d 363e 826f 603d
00000370: c859 1bbd b0cb 10bf b0a5 643d 31b6 f03e
00000380: 1d99 7a3e 4086 3ebe c3b5 883e 6849 9fbd
00000390: b4a3 08bf e056 bc3e d499 983d f60d 013e
000003a0: ef8f 043f 083a 3d3e 883e 053f cc42 2abe
000003b0: 9273 42bf 142d b03e a2c2 cfbd b3b4 eabe
000003c0: 8a9d 08bf c148 573e d9dd 923d 9c77 fcbe
000003d0: 81e6 4e3f b51f b83e 2761 4ebf 81b8 0dbe
000003e0: af77 03be 70a2 0cbf f526 9e3e 0943 233f
000003f0: 0290 e03d f7ad d43e 22d4 48bd dfa5 17bd

lstm.bias_ih_l0 f4 [256]
0.46252522 0.46598065 0.060057066 0.18311134 0.42132813 0.08270642 0.19466917 0.24909212
0.23556285 0.027812706 0.1976394 0.28381225 -0.20644952 0.24700649 0.34539595 0.18506514
0.27284005 0.04643039 0.31924284 0.09839325 0.3806593 -0.33114445 -0.21298748 0.11731529
0.3732225 0.39683342 0.3186689 0.21463218 0.25669897 0.3457678 0.29061663 -0.18584557
0.3257762 0.036413632 0.004689892 0.24724463 0.775029 0.5800757 0.3693542 0.35792434
0.02625342 0.3877966 0.07008233 0.105459146 -0.1745424 0.5923035 0.55152124 0.22109836
0.2602354 0.26711744 0.356469 0.40771732 -0.322524 0.07378855 0.21910588 0.2683472
0.37467408 -0.3712271 0.008474363 0.036791034 0.14787422 0.15735196 0.40529186 0.4377859
0.23000497 0.18693165 0.0344508 0.4816575 0.20345087 0.11129637 0.27348343 0.37301725
0.04082705 0.2173202 0.13307405 0.21922055 0.012232212 -0.03187285 0.0246056 0.1940547
-0.096268095 0.15391836 -0.0076146577 -0.09059059 0.005449998 0.1964466 0.0040733037 0.12348943
0.10162151 0.09145508 0.057595007 -0.111603595 0.09147428 0.12024949 0.22551826 -0.17488262
-0.07025108 0.043974202 0.053503927 0.18098563 -0.019139025 0.21998575 0.28632823 -0.018560605
-0.16085438 -0.09739924 0.13097401 0.33563048 0.08486976 0.031410746 0.31082633 0.093729876
-0.059198026 0.06337211 0.059194334 0.12521733 0.13290177 0.24516699 0.051511582 0.1358871
0.008616586 -0.07134762 -0.16318946 0.26723963 0.10614108 0.018295975 0.3002546 0.20433617
0.20960447 0.02966034 -0.119171984 0.40308294 -0.0492652 -0.011245667 0.20076717 -0.09322681
-0.13404472 -0.06108975 -0.089566045 -0.056255877 -0.17186177 0.037999976 -0.030818673 -0.013317136
0.20893273 0.078414574 -0.18866546 -0.013155814 0.23307505 0.43645507 -0.19498391 0.09918336
0.26828167 -0.017149676 -0.14324854 -0.1470769 0.1228476 -0.09576335 0.18480138 -0.17859404
-0.14779074 0.10928667 -0.35402152 -0.10474826 -0.021225438 -0.4688168 0.15802194 0.2978531
0.061487902 0.19411583 0.17577918 -0.02259076 0.12130007 0.0886815 0.11789689 -0.181365
-0.11358662 0.017322464 -0.309149 -0.04780309 -0.07208268 -0.029327676 0.0410843 0.077455424
0.056046605 -0.3103502 -0.0782498 0.04809041 -0.07554193 -0.09649338 0.35253227 -0.20655715
0.4347028 0.09556901 0.27812234 0.05279274 0.19662558 0.16165896 0.33956823 0.42491513
0.4086173 0.3594404 0.21262836 0.04385145 -0.02321631 0.39600223 0.08132717 -0.020399906
0.18221234 0.04041317 0.4180776 0.2975003 0.52283394 -0.26188758 -0.0905703 0.25741532
0.42387918 0.45428735 0.2122904 0.23471184 0.1562496 0.18089156 0.00857045 -0.009739379
0.20308755 0.34784764 -0.19303001 0.36095035 0.8308478 0.21629031 0.48322135 0.4652728
-0.0034694497 0.28438526 0.391614 0.45725733 0.20032953 0.35620648 0.4849034 0.088551305
0.34162843 0.21959895 0.3528132 0.48347345 -0.25094104 0.14261982 0.016188923 0.34234697
0.5630575 -0.24182633 -0.03173352 0.25497657 0.35794693 0.18900669 0.17705344 0.40911567
00000000: 1bd0 ec3e 0495 ee3e 66fe 753d 8a81 3b3e
00000010: 52b8 d73e fc61 a93d 5b57 473e 0112 7f3e
00000020: 6337 713e 79d7 e33c fc61 4a3e d74f 913e
00000030: 8167 53be 45ef 7c3e bdd7 b03e b781 3d3e
00000040: b1b1 8b3e cb2d 3e3d cc73 a33e 6682 c93d
00000050: c7e5 c23e c48b a9be 6419 5abe 0043 f03d
00000060: 0517 bf3e c02d cb3e 9228 a33e 8ac8 5b3e
00000070: 0c6e 833e 7a08 b13e b4cb 943e 4d4e 3ebe
00000080: 23cc a63e 7626 153d aaad 993b b22d 7d3e
00000090: 4d68 463f d77f 143f fe1b bd3e dc41 b73e
000000a0: 6a11 d73c 478d c63e 5387 8f3d f7fa d73d
000000b0: 3ebb 32be 34a1 173f 7f30 0d3f 9c67 623e
000000c0: 933d 853e 9ec3 883e 1b83 b63e 53c0 d03e
000000d0: de21 a5be 741e 973d 4b5d 603e ce64 893e
000000e0: 48d5 bf3e 7a11 bebe 0ed8 0a3c 32b2 163d
000000f0: 576c 173e df20 213e 6a82 cf3e 7925 e03e
00000100: 6c86 6b3e 036b 3f3e 481c 0d3d d09b f63e
00000110: 6d55 503e 5aef e33d 0506 8c3e 1efc be3e
00000120: 443a 273d 3089 5e3e 9044 083e 5a7b 603e
00000130: 9e69 483c 1b8d 02bd af91 c93c 46b6 463e
00000140: 3528 c5bd c69c 1d3e 6184 f9bb 8f87 b9bd
00000150: e695 b23b 4c29 493e 5979 853b 07e8 fc3d
00000160: f01e d03d cd4c bb3d bee8 6b3d 6d90 e4bd
00000170: de56 bb3d 5d45 f63d 42ee 663e 6e14 33be
00000180: ccdf 8fbd 4b1e 343d ef26 5b3d 4c54 393e
00000190: 72c9 9cbc f243 613e 9d99 923e 690c 98bc
000001a0: 03b7 24be 4179 c7bd 0d1e 063e c2d7 ab3e
000001b0: 32d0 ad3d 8ea8 003d a124 9f3e 73f5 bf3d
000001c0: a179 72bd 3dc9 813d c275 723d f938 003e
000001d0: 6717 083e 0e0d 7b3e cffd 523d fd25 0b3e
000001e0: 952c 0d3c b31e 92bd 231b 27be a2d3 883e
000001f0: 7f60 d93d 71e1 953c f9ba 993e 803d 513e
00000200: 8ea2 563e 3efa f23c 7110 f4bd e360 ce3e
00000210: 4eca 49bd bf3f 38bc e995 4d3e b3ed bebd
00000220: 0543 09be 3f39 7abd 676e b7bd 906c 66bd
00000230: 88fc 2fbe dda5 1b3d 7177 fcbc 1e30 5abc
00000240: 76f2 553e d297 a03d 8531 41be 7c8b 57bc
00000250: 3aab 6e3e 0a77 df3e dda9 47be a520 cb3d
00000260: 375c 893e 7a7d 8cbc bfaf 12be 549b 16be
00000270: 8697 fb3d 931f c4bd 933c 3d3e 5be1 36be
00000280: 7556 17be b1d1 df3d 4f42 b5be 4186 d6bd
00000290: f8e0 adbc c108 f0be 81d0 213e 3480 983e
000002a0: bdda 7b3d 4dc6 463e 75ff 333e 4210 b9bc
000002b0: 2c6c f83d a59e b53d ed73 f13d bfb7 39be
000002c0: 1aa0 e8bd d7e7 8d3c c748 9ebe 2ccd 43bd
000002d0: 16a0 93bd 9840 f0bc 0348 283d f3a0 9e3d
000002e0: 2091 653d 39e6 9ebe 6e41 a0bd 73fa 443d
000002f0: bab5 9abd 529e c5bd 1c7f b43e b883 53be
00000300: 5e91 de3e afb9 c33d 0d66 8e3e 333d 583d
00000310: 3758 493e ed89 253e e3db ad3e 7a8e d93e
00000320: 4936 d13e 9208 b83e 40bb 593e 949d 333d
00000330: 2230 bebc cec0 ca3e dc8e a63d b41d a7bc
00000340: df95 3a3e 4888 253d 440e d63e f651 983e
00000350: 72d8 053f 2116 86be ec7c b9bd f1cb 833e
00000360: b106 d93e 5a98 e83e a862 593e 4d58 703e
00000370: e5ff 1f3e a33b 393e 136b 0c3c eb91 1fbc
00000380: 2ff6 4f3e 1619 b23e a9a9 45be 7cce b83e
00000390: 71b2 543f 357b 5d3e ca68 f73e 3d38 ee3e
000003a0: b55f 63bb f29a 913e a181 c83e a21d ea3e
000003b0: 2f23 4d3e b260 b63e 4245 f83e 635a b53d
000003c0: ece9 ae3e 8cde 603e efa3 b43e d589 f73e
000003d0: 587b 80be ee0a 123e a29e 843c 1a48 af3e
000003e0: 8924 103f 52a1 77be 02fb 01bd 4a8c 823e
000003f0: d244 b73e f88a 413e 7f4d 353e 9c77 d13e

lstm.bias_hh_l0 f4 [256]
0.5177734 0.43174338 0.17594376 0.16900986 0.37317014 0.22890379 0.19255753 0.22253378
0.18156148 -0.05905961 0.11406009 0.32906982 -0.11797508 0.1012082 0.34920987 0.25523564
0.17025816 0.20316863 0.3292805 0.2736274 0.3897601 -0.27995604 -0.2338213 0.12676613
0.38122544 0.38530803 0.28120863 0.18148246 0.21519057 0.16357623 0.22449979 -0.08616955
0.34413496 0.26619628 -0.058675583 0.1690846 0.7811443 0.5565488 0.5266505 0.5637874
-0.109813295 0.25707808 0.261829 0.1446326 -0.16003373 0.45350713 0.78004485 0.38036618
0.17579974 0.12808652 0.3350782 0.52165544 -0.19396994 0.049511906 0.16218118 0.37103558
0.36313784 -0.33525056 -0.0014390963 0.19784826 0.2539513 0.16130795 0.43726957 0.4019914
0.20282146 0.17566378 0.14320408 0.29947 0.13578461 0.2092652 0.1535148 0.25274915
0.06852081 0.18265468 0.013042643 0.1319946 0.039375983 -0.008683231 0.008316227 0.21146727
0.07387378 0.052516878 -0.07375213 0.12671925 0.12152689 0.07553173 0.12869573 0.004724406
-0.058065232 0.02978664 0.08961256 -0.015725167 0.21676616 0.20097835 0.2728761 -0.107044525
0.12219451 -0.035548028 -0.03904211 0.03954718 0.06221399 0.23816448 0.1680621 -0.030756678
-0.17621623 -0.08402877 -0.041202497 0.38259566 0.26400134 -0.05582345 0.2609869 0.062155668
0.066493936 0.0086233495 0.013925863 0.07962612 0.06071257 0.27502504 -0.018969348 0.035060596
0.059450205 -0.011513343 -0.026036503 0.1613529 0.15022674 0.0012554488 0.3714578 0.18660945
0.096511 0.044228975 -0.022995666 0.4144909 -0.1936145 -0.033025675 0.10670789 0.10389381
-0.24852847 -0.048534293 -0.08649372 -0.24867642 -0.15371028 0.007211199 0.06180475 -0.026269406
0.05670418 0.100477025 -0.11082716 -0.12506442 0.20406812 0.4736163 -0.20853956 -0.035270855
0.34616688 0.005456419 0.08972482 -0.22040996 0.16973929 -0.0064699864 0.32774273 -0.09411188
-0.19409938 -0.001329639 -0.22341332 -0.016546408 0.026754975 -0.44852713 0.07779615 0.20783879
0.23786221 0.10984179 -0.013720536 0.08742284 0.23251697 0.31006435 0.1348611 -0.23058091
-0.06830043 0.078254506 -0.3098406 -0.014105065 0.13181926 -0.12005057 -0.044826027 0.011586322
0.010096972 -0.30823556 -0.031125305 0.10360884 -0.15454331 -0.08669005 0.28646845 -0.26371503
0.31809294 0.09541618 0.43496558 -0.04934402 0.35613093 0.30287182 0.21576929 0.5218043
0.25641617 0.21482702 0.20522529 -0.08176111 0.11230758 0.34704822 0.27658188 0.08177409
0.13599117 0.19452573 0.44186443 0.18191685 0.5312836 -0.22551367 0.08763017 0.18174434
0.23157574 0.4413886 0.36598086 0.1889611 0.38726774 0.1701733 0.054743305 -0.15930264
0.22238977 0.34480292 -0.10181139 0.4185555 0.8686523 0.04763729 0.39142406 0.47863045
-0.003504458 0.375206 0.5732731 0.34735447 0.13480273 0.4068358 0.72326636 0.16815823
0.31299615 0.15874398 0.33717826 0.5005915 -0.06365852 0.19313455 0.0852375 0.37808084
0.5362192 -0.28650385 0.041657984 0.2566345 0.2936275 0.059035625 0.37102467 0.408356
00000000: cc8c 043f 780d dd3e 9a2a 343e ec10 2d3e
00000010: 2810 bf3e c165 6a3e cd2d 453e e5df 633e
00000020: 41eb 393e 7de8 71bd 5698 e93d d77b a83e
00000030: eb9c f1bd 3f46 cf3d a3cb b23e 3fae 823e
00000040: 2858 2e3e 700b 503e 7497 a83e e418 8c3e
00000050: a38e c73e 6656 8fbe da6e 6fbe fbce 013e
00000060: fb2f c33e 1847 c53e 94fa 8f3e 8ad6 393e
00000070: eb5a 5c3e 8780 273e 46e3 653e a979 b0bd
00000080: 7532 b03e e14a 883e cf55 70bd 8324 2d3e
00000090: 13f9 473f fb79 0e3f 91d2 063f 5f54 103f
000000a0: cbe5 e0bd bd9f 833e 730e 863e 911a 143e
000000b0: e2df 23be 1632 e83e 05b1 473f 5bbf c23e
000000c0: d904 343e 1d29 033e 5f8f ab3e 368b 053f
000000d0: 0ea0 46be ffcc 4a3d d312 263e 60f8 bd3e
000000e0: 34ed b93e f6a5 abbe 0fa0 bcba bc98 4a3e
000000f0: e805 823e e92d 253e cce1 df3e d1d1 cd3e
00000100: 6eb0 4f3e 35e1 333e 17a4 123e 2254 993e
00000110: 1f0b 0b3e 9e49 563e fc32 1d3e 5668 813e
00000120: a354 8c3d d409 3b3e cfb0 553c 9829 073e
00000130: b648 213d 1c44 0ebc c940 083c e08a 583e
00000140: 234b 973d f01b 573d 5b0b 97bd b1c2 013e
00000150: 17e3 f83d 61b0 9a3d d0c8 033e 31cf 9a3b
00000160: cfd5 6dbd 1d03 f43c ca86 b73d 11d2 80bc
00000170: f3f7 5d3e 45cd 4d3e 6bb6 8b3e 293a dbbd
00000180: 1e41 fa3d cf9a 11bd 9fea 1fbd 39fc 213d
00000190: 19d4 7e3d 64e1 733e 7918 2c3e 6ef5 fbbc
000001a0: 0772 34be 4717 acbd f3c3 28bd 94e3 c33e
000001b0: 2f2b 873e 21a7 64bd 13a0 853e f196 7e3d
000001c0: f92d 883d f348 0d3c 4e29 643c 0513 a33d
000001d0: bead 783d 15d0 8c3e 9b65 9bbc b39b 0f3d
000001e0: 0f82 733d 76a2 3cbc 814a d5bc b239 253e
000001f0: 0ad5 193e df8d a43a b72f be3e 8c16 3f3e
00000200: 8fa7 c53d 7129 353d 6861 bcbc 2738 d43e
00000210: e142 46be ee45 07bd ab89 da3d 47c6 d43d
00000220: 3f7e 7ebe e5cb 46bd 9f23 b1bd 08a5 7ebe
00000230: 3a66 1dbe ec4b ec3b fa26 7d3d f032 d7bc
00000240: a442 683d e6c6 cd3d 5af9 e2bd e310 00be
00000250: 3cf7 503e d67d f23e 658b 55be 2c78 10bd
00000260: c93c b13e c3cb b23b a5c1 b73d 26b3 61be
00000270: 23d0 2d3e 2e02 d4bb e5cd a73e bbbd c0bd
00000280: fdc1 46be 4847 aeba 76c6 64be 558c 87bc
00000290: 402d db3c 59a5 e5be 9753 9f3d b1d3 543e
000002a0: 2792 733e bbf4 e03d 19cc 60bc bf0a b33d
000002b0: ee18 6e3e c1c0 9e3e 0719 0a3e 671d 6cbe
000002c0: 19e1 8bbd e643 a03d 6da3 9ebe ee18 67bc
000002d0: a1fb 063e 13dd f5bd 7f9b 37bd 8fd4 3d3c
000002e0: c56d 253c 0dd1 9dbe 7ffa febc df30 d43d
000002f0: 9a40 1ebe 8e8a b1bd feab 923e a805 87be
00000300: 14dd a23e 8f69 c33d cfb3 de3e f51c 4abd
00000310: cb56 b63e 0412 9b3e a0f2 5c3e f794 053f
00000320: fb48 833e 9dfb 5b3e 9426 523e 5e72 a7bd
00000330: 8401 e63d 4eb0 b13e 249c 8d3e 2d79 a73d
00000340: 4541 0b3e c131 473e 0e3c e23e 6948 3a3e
00000350: 3402 083f 0eed 66be 7277 b33d 301b 3a3e
00000360: 3122 6d3e b0fd e13e d861 bb3e 057f 413e
00000370: f547 c63e e941 2e3e 843a 603d 3b20 23be
00000380: 25ba 633e 028a b03e 7d82 d0bd e84c d63e
00000390: ff5f 5e3f 521f 433d bc68 c83e 0d0f f53e
000003a0: 0dab 65bb 001b c03e 07c2 123f 72d8 b13e
000003b0: ba09 0a3e c84c d03e fc27 393f ac31 2c3e
000003c0: 0841 a03e c88d 223e a1a2 ac3e c426 003f
000003d0: 665f 82bd 10c5 453e 0091 ae3d d093 c13e
000003e0: a945 093f a2b0 92be 90a1 2a3d 9965 833e
000003f0: 5856 963e 57cf 713d f2f6 bd3e 0a14 d13e

lstm.weight_ih_l0_reverse f4 [256, 25]
0.057891373 0.13513063 -0.3526458 1.137642 -1.1656557 -0.11771007 0.5567653 0.027640369
-0.18877915 0.66008127 -1.0422328 0.99435955 -0.058162604 0.0380027 -0.21871528 -0.65562457
-0.07532652 -1.0280641 0.08910338 0.4422696 0.43872353 0.5889191 -0.9566987 -0.51576114
-1.3002604 0.03870027 -0.4299182 -0.5781671 -0.18435861 0.31794268 -0.5438259 0.3711932
-0.01894133 -0.53603476 0.3111905 0.40892807 -0.0642768 -0.6843441 0.69522554 0.05826992
0.6873417 1.2372676 -0.5316405 -0.28414893 -0.22895269 -0.9147457 -0.18458892 -0.18270247
-0.6001972 0.002152133 -0.10801096 0.08564239 0.06301379 0.062322456 -0.3823273 0.52693576
1.0206482 -0.054566532 -0.6125395 0.45666873 -0.7984235 0.12806763 -0.8617264 0.18219317
-0.93969053 -0.21628334 0.70975566 0.21124707 -0.76422304 -0.83766294 -0.30852056 -0.11123844
0.17194521 0.4515314 -0.22014506 0.13252935 -0.47411796 -0.020326115 0.6158538 0.20546004
0.18064184 0.6682219 0.23752238 0.012091521 -0.108035885 -1.1537082 -0.24493876 -0.048779644
-0.89817375 -1.1122829 0.81488943 0.5640446 -0.15407377 0.4342506 0.94016916 0.52362907
0.56340677 0.35492033 1.0486207 -0.25637168 -0.32355824 -0.3924071 0.52521896 0.8739466
-0.14683983 -0.20522352 -0.3284867 -0.52360106 -0.284831 -0.5655661 -0.075701095 -0.026489526
-0.02735794 -0.19148557 -0.11625368 -0.0034042546 0.46514913 0.42335117 0.15269789 0.3250675
0.34543324 0.49103034 -0.17148913 -0.17387564 -0.67192656 -0.2704436 0.108916245 0.43195885
-0.3708829 0.7940291 -0.19475685 -0.20779544 -0.25272387 0.33219492 -0.23250626 0.6236715
0.044300713 -0.085830726 0.033117656 0.35614815 -0.29031932 0.27486557 0.10574022 -0.023490425
0.36810213 0.42481694 -0.48447996 -0.34118178 -0.437209 -0.38556156 0.3538092 -0.5763062
0.33487976 -0.39281124 -0.14210203 -0.15292162 0.79731923 0.7416633 -0.22644675 0.27158937
0.7586297 -0.33905715 -0.21976095 -1.074188 0.51756954 0.1564918 0.040911496 0.4779122
-0.5341178 -0.12695698 0.88137335 0.937978 -0.25243923 0.27830616 0.40193808 0.21345162
-0.14324671 0.5399353 -0.7902512 -1.2240733 -0.26280653 0.26939127 0.42070973 -0.24404433
-0.7970408 0.39416516 -0.43503228 -0.50886655 0.32110825 1.4214511 -0.26488668 -0.21325716
0.78828937 -0.29869413 -0.5385336 -0.26343563 -0.6718607 -0.31071627 0.12647545 0.4675136
0.27164543 -0.08763587 0.3208757 -0.29584467 -0.6000637 -0.29180035 0.22739 -0.1292585
-0.7524887 -0.0698772 0.20014165 0.005999747 0.023168998 -0.09714272 -0.27478904 0.43232572
0.14899836 -0.6957185 -0.0010248937 -0.021500677 -0.49044576 0.135811 0.5516497 0.32560673
0.37262025 -0.061899934 -0.21787994 -0.6410635 0.442329 -0.26422012 0.46932566 -0.0049507096
0.43303308 0.7256481 -0.226612 0.080276534 0.18371391 -0.3511526 -0.24130198 0.51520365
-0.624073 0.16819115 0.13189892 -0.34542152 0.63414985 0.70386815 -0.038179558 -0.08881216
0.41148812 -0.37705994 0.7500792 0.67503184 -0.121825784 0.19862491 -0.96051556 0.14287998
00000000: 811f 6d3d af5f 0a3e fe8d b4be 419e 913f
00000010: 3534 95bf fa11 f1bd 2c88 0e3f 0e6e e23c
00000020: 524f 41be 16fb 283f e267 85bf 598e 7e3f
00000030: e93b 6ebd b8a8 1b3d e6f6 5fbe 03d7 27bf
00000040: ca44 9abd 9b97 83bf d57b b63d 2971 e23e
00000050: 5fa0 e03e 67c3 163f 35ea 74bf ec08 04bf
00000060: ef6e a6bf 2d84 1e3d 3d1e dcbe c202 14bf
00000070: 81c8 3cbe 62c9 a23e 2d38 0bbf 090d be3e
00000080: d92a 9bbc 9339 09bf 5c54 9f3e 055f d13e
00000090: 8ea3 83bd 2d31 2fbf 4dfa 313f 71ac 6e3d
000000a0: a0f5 2f3f c95e 9e3f 9819 08bf f87b 91be
000000b0: 9372 6abe c62c 6abf e104 3dbe 5b16 3bbe
000000c0: 86a6 19bf cd0a 0d3b da34 ddbd 4765 af3d
000000d0: 600d 813d d545 7f3d 67c0 c3be 43e5 063f
000000e0: 9aa4 823f 2881 5fbd 64cf 1cbf 7cd0 e93e
000000f0: 7c65 4cbf 2924 033e 1a9a 5cbf d990 3a3e
00000100: 8f8f 70bf 6179 5dbe 8cb2 353f 2751 583e
00000110: 1fa4 43bf 1471 56bf 68f6 9dbe fbd0 e3bd
00000120: 6812 303e 202f e73e b56d 61be c6b5 073e
00000130: 97bf f2be f482 a6bc 98a8 1d3f 1e64 523e
00000140: 2dfa 383e 9710 2b3f 1139 733e 841b 463c
00000150: eb41 ddbd b6ac 93bf 3ad1 7abe 2acd 47bd
00000160: b7ee 65bf 495f 8ebf 989c 503f 3a65 103f
00000170: 84c5 1dbe 1856 de3e edae 703f 8e0c 063f
00000180: 6d3b 103f 1eb8 b53e 3439 863f 2643 83be
00000190: 6da9 a5be 95e9 c8be c074 063f f7ba 5f3f
000001a0: 2e5d 16be 1d26 52be 692f a8be b80a 06bf
000001b0: 5ed5 91be f1c8 10bf 2d09 9bbd 9000 d9bc
000001c0: c21d e0bc cb14 44be 6916 eebd ea19 5fbb
000001d0: 0728 ee3e 7cc1 d83e d65c 1c3e 3f6f a63e
000001e0: a0dc b03e 5468 fb3e d99a 2fbe 750c 32be
000001f0: 6103 2cbf 9577 8abe 7b0f df3d b629 dd3e
00000200: 5de4 bdbe 7e45 4b3f 576e 47be 54c8 54be
00000210: 0665 81be 7415 aa3e 1f16 6ebe efa8 1f3f
00000220: aa74 353d 05c8 afbd 61a6 073d 0d59 b63e
00000230: bca4 94be 2ebb 8c3e 548e d83d fe6e c0bc
00000240: e277 bc3e 9b81 d93e c20d f8be 61af aebe
00000250: dcd9 dfbe 5368 c5be 7b26 b53e ce88 13bf
00000260: 5c75 ab3e 8e1e c9be 3283 11be 7c97 1cbe
00000270: 1d1d 4c3f a5dd 3d3f a8e1 67be c30d 8b3e
00000280: 8e35 423f e698 adbe 0409 61be fe7e 89bf
00000290: 707f 043f 633f 203e d092 273d e8b0 f43e
000002a0: f2bb 08bf 0301 02be afa1 613f 541f 703f
000002b0: b73f 81be 257e 8e3e d4ca cd3e 1093 5a3e
000002c0: 44af 12be 3339 0a3f e74d 4abf 6fae 9cbf
000002d0: 948e 86be a7ed 893e 4467 d73e c2e6 79be
000002e0: de0a 4cbf 04d0 c93e 8dbc debe 1445 02bf
000002f0: 4d68 a43e 1cf2 b53f 3a9f 87be 1660 5abe
00000300: 55cd 493f 70ee 98be 57dd 09bf 09e1 86be
00000310: 10ff 2bbf 3416 9fbe c882 013e f15d ef3e
00000320: 1c15 8b3e 6f7a b3bd d249 a43e f478 97be
00000330: c69d 19bf db66 95be edd8 683e 575c 04be
00000340: 19a3 40bf c71b 8fbd eff1 4c3e 8799 c43b
00000350: e9cc bd3c c3f2 c6bd 26b1 8cbe cc59 dd3e
00000360: 0793 183e 9c1a 32bf ba55 86ba 3022 b0bc
00000370: b51b fbbe 0a12 0b3e ea38 0d3f edb5 a63e
00000380: 15c8 be3e c98a 7dbd eb1b 5fbe bd1c 24bf
00000390: f278 e23e dc47 87be 744b f03e 9039 a2bb
000003a0: 83b6 dd3e 13c4 393f fa0c 68be 0668 a43d
000003b0: 801f 3c3e 46ca b3be de17 77be 63e4 033f
000003c0: 40c3 1fbf 4d3a 2c3e 8310 073e 17db b0be
000003d0: a557 223f b430 343f 2b62 1cbd 26e3 b5bd
000003e0: 92ae d23e 000e c1be 3105 403f e3ce 2c3f
000003f0: cc7f f9bd 5464 4b3e 59e4 75bf 214f 123e

lstm.weight_hh_l0_reverse f4 [256, 64]
0.2975489 0.7761723 0.26533297 0.11897689 -0.57778084 0.07777077 0.89489424 -0.08659668
0.09431844 0.20043488 -0.30388206 0.20448278 0.29070446 0.54436094 0.1579234 0.7026748
0.27533734 -0.06674548 0.039724518 0.8040646 -0.28796253 0.26514333 0.042425763 0.08887664
-0.035838522 0.19329122 -0.72602874 0.20430228 0.009707392 0.47202498 0.058178555 0.15300846
0.053485144 0.2027451 0.57606053 -0.3734749 0.1768724 0.5506343 0.17785303 -0.6186028
-0.5630915 0.087118775 -0.6690397 0.11280689 -0.33573923 -0.11959992 0.034419 -0.17245549
0.26417127 0.120409675 0.012905629 -0.36540455 0.14557834 -0.212004 0.5160764 -0.24096924
-0.54231185 -1.0198963 0.11005736 0.027825449 -0.58145046 0.2875662 0.03824204 0.019895272
0.52670354 0.8519587 -0.014943568 -0.1719233 0.9746187 -0.18407516 -0.05542764 0.23943798
0.33644384 0.084442504 0.16542313 0.050047982 -0.07350557 -0.21012819 -0.39388236 -0.24179545
0.23361748 1.3790616 0.3667412 0.25060275 -0.14042686 -0.20247233 -0.09848877 -0.07005052
0.345915 0.2575655 0.26044175 0.27422178 -0.58880323 -0.27872825 -0.100201026 0.22389211
0.093991674 -0.26650605 0.6405746 0.41073865 -0.18623278 0.31383505 0.20656796 -0.3576292
-0.0032655064 -0.21965319 0.49390158 0.31630027 -0.113118395 -0.18698184 -0.22901928 -0.8495202
-0.20450713 0.003025003 -0.4346128 -0.07118337 0.22084573 0.04927819 0.06704609 0.2578126
0.18687032 -0.85751843 0.35525632 -0.19557522 -0.76634216 0.36429188 -0.8212785 0.06256336
0.29915047 0.15314005 -0.062975794 0.114243925 0.075526014 0.66232103 -0.21427238 0.32800022
-0.467981 -0.07181505 0.35476416 0.30198202 0.36658937 -0.2505178 0.13913105 0.15014546
0.23614395 -0.2461658 0.008773427 0.020225039 0.3729562 0.21543425 -0.34604663 0.032081276
0.5529325 -0.55967414 -0.57486653 0.13421503 0.9322406 0.2929411 0.34118626 -0.036170993
-0.16253175 0.07588659 -0.18820985 -0.14951015 0.035240535 0.14176844 0.41149458 0.15190625
0.2199336 0.20916668 -0.09177118 -0.10401779 0.014398077 0.43451235 -0.23570408 0.032448415
0.1685613 -0.112852186 0.05913458 0.1917454 -0.1716362 -0.66105825 -0.036236558 -0.13401374
-0.22246365 0.2116869 -0.38992697 0.39178905 0.3077404 -0.07685197 -0.19609272 -0.0875737
-0.19758962 1.0229882 -0.09343278 0.084622525 0.9347173 0.25099814 0.7886093 0.45290223
0.1451033 -0.12626895 0.5934626 -0.2125228 0.018856624 0.4171701 -0.10457615 0.18892588
0.24770574 -0.04106484 0.089389585 0.8281218 -0.34732723 0.14524841 0.35861132 0.18819636
-0.24105155 -0.3071542 0.66162956 0.12847883 -0.058478173 0.23888539 -0.009673806 0.17901236
-0.19889833 0.4547039 0.041947156 0.09029736 -0.25726485 0.31958777 0.32987633 0.19831127
0.057008818 -0.0019849574 -0.24494405 -0.39595947 0.004185298 0.045844313 -0.069718614 0.85878164
0.33006138 -0.6524236 -0.111197725 -0.11522956 0.23550235 0.017966434 0.17055789 0.58113426
-0.005089215 -0.1613168 0.26576915 -0.37647074 -0.1183324 -0.5376672 0.16990383 -0.7498694
00000000: 5458 983e 3ab3 463f b9d9 873e 28aa f33d
00000010: 72e9 13bf 4846 9f3d ca17 653f 9a59 b1bd
00000020: 072a c13d cd3e 4d3e 6e96 9bbe ef63 513e
00000030: 37d7 943e 3d5b 0b3f acb6 213e 7fe2 333f
00000040: 04f9 8c3e dbb1 88bd 2db6 223d 2dd7 4d3f
00000050: d36f 93be dec0 873e a3c6 2d3d f504 b63d
00000060: 6acb 12bd 22ee 453e 05dd 39bf 9e34 513e
00000070: c10b 1f3c 42ad f13e a34c 6e3d 40ae 1c3e
00000080: 3d13 5b3d 699c 4f3e b478 133f 1a38 bfbe
00000090: 0a1e 353e 5ff6 0c3f 1b1f 363e c15c 1ebf
000000a0: c426 10bf 546b b23d 3046 2bbf 4c07 e73d
000000b0: 03e6 abbe cef0 f4bd f0fa 0c3d 2c98 30be
000000c0: 7541 873e 5999 f63d 2272 533c 4e16 bbbe
000000d0: 7d12 153e 9417 59be 951d 043f a4c0 76be
000000e0: f3d4 0abf f68b 82bf c165 e13d 32f2 e33c
000000f0: f0d9 14bf e13b 933e afa3 1c3d 69fb a23c
00000100: 0bd6 063f f719 5a3f ded5 74bc a90c 30be
00000110: 9c80 793f 337e 3cbe 1808 63bd 3b2f 753e
00000120: 5e42 ac3e 31f0 ac3d ae64 293e 1dff 4c3d
00000130: 178a 96bd d82b 57be f3aa c9be 3a99 77be
00000140: 6c39 6f3e 1785 b03f 81c5 bb3e 014f 803e
00000150: 0fcc 0fbe e854 4fbe 7bb4 c9bd a676 8fbd
00000160: c51b b13e a0df 833e 9f58 853e cc66 8c3e
00000170: cfbb 16bf 78b5 8ebe 3236 cdbd f943 653e
00000180: b57e c03d 7b73 88be b2fc 233f 564c d23e
00000190: ceb3 3ebe fdae a03e 8d86 533e 2d1b b7be
000001a0: 1b02 56bb c4ec 60be abe0 fc3e 1cf2 a13e
000001b0: 9eaa e7bd 2b78 3fbe 0884 6abe 287a 59bf
000001c0: 516a 51be 213f 463b 9285 debe 96c8 91bd
000001d0: 6225 623e edd7 493d 764f 893d 0300 843e
000001e0: ef5a 3f3e 5486 5bbf 28e4 b53e df44 48be
000001f0: 002f 44bf 7784 ba3e 4f3f 52bf 3821 803d
00000200: 402a 993e bfd0 1c3e 74f9 80bd b8f8 e93d
00000210: 62ad 9a3d df8d 293f 386a 5bbe a5ef a73e
00000220: 359b efbe c513 93bd a6a3 b53e 639d 9a3e
00000230: 9ab1 bb3e de43 80be 5f78 0e3e bbbf 193e
00000240: b8cf 713e e312 7cbe 6cbe 0f3c fbae a53c
00000250: 1df4 be3e cc9a 5c3e 062d b1be a867 033d
00000260: fc8c 0d3f ce46 0fbf 742a 13bf aa6f 093e
00000270: 52a7 6e3f 60fc 953e f7af ae3e 0928 14bd
00000280: b96e 26be 6e6a 9b3d 15ba 40be 3019 19be
00000290: 6158 103d bf2b 113e 6baf d23e 508d 1b3e
000002a0: 4636 613e ca2f 563e 87f2 bbbd 4707 d5bd
000002b0: e9e5 6b3c 6778 de3e 695c 71be a1e8 043d
000002c0: 559b 2c3e 0c1f e7bd 1a37 723d e858 443e
000002d0: 66c1 2fbe 1d3b 29bf c96c 14bd e63a 09be
000002e0: 83cd 63be 73c4 583e 82a4 c7be 9398 c83e
000002f0: 2690 9d3e 9164 9dbd 88cc 48be d759 b3bd
00000300: ef54 4abe 47f1 823f af59 bfbd 934e ad3d
00000310: a249 6f3f d482 803e 4de2 493f cde2 e73e
00000320: f695 143e a64c 01be 2aed 173f 949f 59be
00000330: 3579 9a3c 5297 d53e 052c d6bd c975 413e
00000340: 93a6 7d3e 9b33 28bd e311 b73d caff 533f
00000350: e0d4 b1be 00bc 143e e79b b73e 8cb6 403e
00000360: 38d6 76be 5143 9dbe 8e60 293f f48f 033e
00000370: cf86 6fbd 5f9e 743e e27e 1ebc 044f 373e
00000380: 01ac 4bbe f3ce e83e c8d0 2b3d d3ed b83d
00000390: 38b8 83be 02a1 a33e 8de5 a83e 1c12 4b3e
000003a0: 1482 693d 0f16 02bb 9dd2 7abe 33bb cabe
000003b0: d324 893b 3fc7 3b3d a2c8 8ebd 1dd9 5b3f
000003c0: cefd a83e 3c05 27bf a2bb e3bd 7afd ebbd
000003d0: 8727 713e 582e 933c baa6 2e3e 37c5 143f
000003e0: 6ec3 a6bb 3b30 25be e512 883e c6c0 c0be
000003f0: 4258 f2bd 8fa4 09bf 45fb 2d3e 71f7 3fbf

lstm.bias_ih_l0_reverse f4 [256]
0.088021435 -0.042069614 0.3643243 0.21489397 -0.011353362 0.3435297 0.20170073 0.17243093
-0.1728584 0.7248285 0.111294225 -0.31463054 0.48737562 0.11074917 0.07476848 0.09527204
0.27976125 0.17139909 0.52499896 0.1409155 0.15924023 0.1804526 0.28147978 0.34636456
0.2901716 0.26420435 -0.09752732 0.40361685 0.21518737 0.2248002 0.2867083 0.22505364
0.2197702 0.3387202 -0.08607197 0.10368794 0.4334 0.2588031 0.15308882 0.062866524
-0.30169478 0.34132653 -0.12092586 0.511943 0.27640522 -0.13221878 0.21471158 0.101928644
-0.17918272 0.29720798 0.27471453 0.17938991 0.31889403 0.09883789 0.7572302 -0.13571392
0.014738816 0.15183178 0.069956124 0.11136688 -0.20990518 -0.018363453 0.2186576 0.16650617
-0.16169202 0.051745597 0.033232603 0.013172385 0.07942174 0.12100487 -0.078231536 -0.053107344
-0.024979066 0.017020505 -0.1498347 -0.06251207 0.18097167 0.19906615 -0.010808373 0.023519779
-0.01956828 0.29353076 0.028986856 0.11475115 -0.008344223 0.09091287 0.12132448 0.14399731
0.12520948 0.011651358 0.18602124 -0.01585794 -0.09694751 0.15423064 0.06977046 0.01625036
0.26506314 0.15671685 -0.04444372 -0.12510535 -0.010834093 -0.0039832727 0.11158067 -0.031018574
0.04288239 0.1463846 0.13887648 -0.0016704273 0.14970155 -0.08089428 0.119475916 0.23542625
0.07070608 0.024807049 0.051134653 0.120452285 0.038137846 0.19744976 0.099182904 -0.011646569
0.21973744 0.050197862 -0.22431955 -0.11412638 -0.035086263 0.032587454 0.15320635 -0.08414048
-0.2506262 -0.36310184 0.073626876 0.07080543 -0.07479908 0.11158524 -0.13040614 0.03228234
-0.26406196 -0.46862075 -0.033689406 -0.08610191 0.33338222 -0.0813491 -0.18421668 0.15384264
0.29441154 0.16457248 0.23744604 0.048175853 -0.01173116 0.031690888 0.41760084 0.25465068
-0.13262412 -0.032701198 0.118288554 0.44337913 0.28646427 -0.3093636 0.458746 0.21023843
0.24221325 -0.25452316 -0.14786822 -0.18849944 -0.58677036 0.002386965 0.09425068 -0.08621135
0.49103224 -0.084508404 0.1914725 -0.13830405 0.13712494 0.061816372 -0.09320611 0.09379345
0.07487708 -0.34141424 -0.043402053 0.496993 -0.19479181 -0.0379599 0.7590761 -0.06578707
-0.1949076 0.11143879 -0.1349855 0.040204663 0.32148853 0.10179461 -0.2718101 0.031872153
0.0046813283 -0.22230947 0.47554022 0.14083187 -0.062651254 0.23507866 0.22102037 0.40012422
-0.12851836 0.43227872 0.3954861 0.07380368 0.33449814 -0.0812414 0.35179767 0.5898321
0.23590735 0.10868511 0.14816575 0.3372745 0.4909127 0.32242298 0.34427625 0.2407005
0.23321381 0.34399337 -0.08383188 0.35967094 0.34947312 0.35413742 0.2897165 0.45849872
0.29448858 0.0552154 0.0010333088 -0.035898622 0.35651568 0.30222857 0.092706814 0.22052635
0.079214275 0.30323672 0.21510477 0.42652482 0.18317387 -0.17247099 0.26345882 0.29750758
0.15602994 0.23336516 0.4431297 0.1996828 0.09905834 0.18814762 0.18002151 -0.08327044
0.24076538 0.44067097 0.6942111 0.5832829 0.042016868 0.32726815 0.23011735 0.2550709
00000000: 9544 b43d 3051 2cbd b788 ba3e 2a0d 5c3e
00000010: 7403 3abc 20e3 af3e a38a 4e3e bc91 303e
00000020: cb01 31be 5c8e 393f 3aee e33d 4117 a1be
00000030: 4c89 f93e 76d0 e23d 3820 993d fd1d c33d
00000040: de3c 8f3e 3e83 2f3e 5566 063f 274c 103e
00000050: df0f 233e 91c8 383e 1e1e 903e b256 b13e
00000060: 5f91 943e cb45 873e 67bc c7bd dea6 ce3e
00000070: 145a 5c3e 0632 663e 6ecb 923e 7674 663e
00000080: 700b 613e bc6c ad3e 8046 b0bd 585a d43d
00000090: 9be6 dd3e d781 843e 51c3 1c3e 2ac0 803d
000000a0: bd77 9abe 5ac2 ae3e faa7 f7bd b20e 033f
000000b0: fc84 8d3e 5c64 07be 5add 5b3e f7bf d03d
000000c0: ad7b 37be a52b 983e 62a7 8c3e fdb1 373e
000000d0: 1446 a33e 856b ca3d d7d9 413f 97f8 0abe
000000e0: 137b 713c ca79 1b3e 2845 8f3d 5214 e43d
000000f0: 62f1 56be f46e 96bc c7e7 5f3e 9880 2a3e
00000100: 9892 25be 31f3 533d e91e 083d fdd0 573c
00000110: dda7 a23d 67d1 f73d db37 a0bd 1687 59bd
00000120: e6a0 ccbc 966e 8b3c 456e 19be 5406 80bd
00000130: a350 393e ffd7 4b3e 9a15 31bc 8dac c03c
00000140: a84d a0bc aa49 963e d875 ed3c a702 eb3d
00000150: 35b6 08bc 8730 ba3d f878 f83d 0874 133e
00000160: ea36 003e 56e5 3e3c 5a7c 3e3e 83e8 81bc
00000170: 6b8c c6bd a3ee 1d3e d1e3 8e3d 7a1f 853c
00000180: 5bb6 873e 627a 203e 9e0a 36bd 9e1b 00be
00000190: 7b81 31bc 1d86 82bb 6884 e43d aa1a febc
000001a0: 72a5 2f3d d8e5 153e a335 0e3e 3df2 daba
000001b0: 5d4b 193e e6ab a5bd caaf f43d 9413 713e
000001c0: 59ce 903d 2738 cb3c 9272 513d b0af f63d
000001d0: 6e36 1c3d 4530 4a3e 6820 cb3d 40d1 3ebc
000001e0: da02 613e 469c 4d3d 06b4 65be 17bb e9bd
000001f0: 9db6 0fbd 6c7a 053d 20e2 1c3e d851 acbd
00000200: 1452 80be 7ce8 b9be b0c9 963d 7002 913d
00000210: 4330 99bd cd86 e43d 3089 05be 7d3a 043d
00000220: 2133 87be 0fef efbe e7fd 09bd 3356 b0bd
00000230: 13b1 aa3e 5b9a a6bd 4ca3 3cbe ed88 1d3e
00000240: 1cbd 963e b085 283e 0e25 733e 0b54 453d
00000250: 0d34 40bc 4ece 013d c7cf d53e 9361 823e
00000260: 9ece 07be b1f1 05bd 4541 f23d 9702 e33e
00000270: 72ab 923e e864 9ebe c1e0 ea3e be48 573e
00000280: c006 783e dc50 82be c46a 17be ff05 41be
00000290: 9536 16bf a16e 1c3b 8006 c13d 948f b0bd
000002a0: 9468 fb3e be12 adbd 5e11 443e 949f 0dbe
000002b0: 7b6a 0c3e 2a33 7d3d d8e2 bebd c816 c03d
000002c0: 2859 993d d9cd aebe 5ac6 31bd de75 fe3e
000002d0: 8177 47be d77b 1bbd d052 423f 5fbb 86bd
000002e0: dc95 47be 053a e43d a439 0abe a5ad 243d
000002f0: 259a a43e b179 d03d b22a 8bbe 608c 023d
00000300: d465 993b 18a5 63be 027a f33e 3b36 103e
00000310: 4d4f 80bd 76b8 703e 2a53 623e 15dd cc3e
00000320: 519a 03be a353 dd3e 277d ca3e 6226 973d
00000330: 5743 ab3e e461 a6bd d31e b43e 3dff 163f
00000340: b291 713e 4d96 de3d c3b8 173e 3eaf ac3e
00000350: e958 fb3e a014 a53e fa44 b03e 317a 763e
00000360: 9acf 6e3e e61f b03e 0cb0 abbd ca26 b83e
00000370: 24ee b23e 8051 b53e b955 943e 58c0 ea3e
00000380: 35c7 963e 8b29 623d 1770 873a 6f0a 13bd
00000390: 3989 b63e b4bd 9a3e 12dd bd3d a9d1 613e
000003a0: 183b a23d d841 9b3e 6d44 5c3e 7661 da3e
000003b0: ee91 3b3e 3c9c 30be 13e4 863e ea52 983e
000003c0: 50c6 1f3e 47f7 6e3e e5e1 e23e a679 4c3e
000003d0: 19df ca3d c5a9 403e 8f57 383e b189 aabd
000003e0: 338b 763e a09f e13e d2b7 313f 0752 153f
000003f0: e119 2c3d b18f a73e e2a3 6b3e a798 823e

lstm.bias_hh_l0_reverse f4 [256]
-0.013043736 -0.05227203 0.25154233 0.07585245 -0.00893647 0.24303688 0.15118565 0.13961032
-0.12019778 0.7772716 0.142382 -0.17421451 0.40206546 0.13721731 0.1601327 0.13215533
0.18857965 -0.018608078 0.54887575 0.08510909 0.08943317 0.011376542 0.24204242 0.3865679
0.1009528 0.45064119 -0.23270728 0.33997136 0.22100797 0.2865195 0.45287108 0.06241816
0.16076288 0.23769712 0.0037464742 0.18143296 0.5104696 0.110345766 0.29587576 -0.01884573
-0.10769508 0.15752111 -0.12599087 0.46746263 0.5000387 -0.13667044 0.37801093 0.14416017
0.030122472 0.31399176 0.23268043 0.21515073 0.4289226 0.11477589 0.72898537 -0.114590995
-0.0711853 0.20625618 0.117376596 0.15455756 -0.12362822 -0.054941453 0.12842481 -0.03607749
-0.19079036 -0.0226151 -0.095944494 0.08750773 0.05591695 -0.0605717 -0.043633025 0.081305735
-0.01663836 0.00535102 -0.04609958 0.025850598 -0.016545592 0.109694146 0.08312576 0.031855386
0.121568866 0.15091787 0.1808937 -0.11243852 -0.10123777 0.1303412 -0.03851559 0.14596123
0.06450967 -0.11962216 0.24207589 0.118692845 0.07269529 0.097711235 -0.04149497 0.037356157
0.043704323 0.22783902 -0.11333513 -0.17922205 0.15225473 -0.08611204 0.023275109 -0.078194454
0.15750737 0.1676256 0.14857085 -0.04631776 0.06680564 0.019907204 -0.05676708 0.19212836
-0.06219427 0.11475416 0.04688386 0.12856452 0.062241625 0.20051964 0.07899009 -0.15399183
0.19636199 0.047195263 -0.15382439 0.07374964 -0.01825079 0.04422115 -0.0055769165 0.013494219
-0.16974774 -0.26808387 -0.046496864 -0.075338036 0.07513096 0.20973486 -0.1462526 0.24219981
-0.105134316 -0.45627537 0.046055537 0.02543582 0.3268132 -0.0130168935 -0.12075102 0.10199022
0.34326857 0.113335535 0.3844516 0.02405524 -0.15229322 0.0011926604 0.42199126 0.41994837
-0.113280416 -0.071130425 0.14610676 0.3667442 0.2412532 -0.40708876 0.31054398 0.21530455
0.02853598 -0.29778025 -0.23199686 -0.18852271 -0.44314605 0.18438461 0.22383289 -0.0539136
0.5499683 -0.23813553 0.28415683 -0.19772276 -0.053794865 0.10632997 -0.26259512 -0.054692812
0.21394482 -0.4120796 0.016448637 0.32474256 -0.33008343 -0.016961405 0.5729239 0.11697501
-0.24473974 0.033231296 -0.003696831 -0.061305966 0.19150728 -0.0861885 -0.17577758 -0.004471777
0.0070469454 -0.06618229 0.54550254 0.12381193 0.11064049 0.2800572 0.10306402 0.38819495
-0.34869108 0.37692377 0.24759994 -0.03066022 0.29323778 0.051515844 0.2329021 0.42782575
0.13159989 0.08207243 0.20879416 0.28913355 0.25263926 0.529279 0.28124356 0.26069626
0.16264048 0.35975403 -0.10147242 0.3307202 0.4259104 0.4259382 0.30443892 0.23683824
0.295916 0.06156828 -0.08042932 0.0012433745 0.26217303 0.17700498 0.13897721 0.21579243
-0.0016976671 0.42904663 0.3265098 0.47410637 0.26336583 -0.009251358 0.2180384 0.23707548
0.040531028 0.20792104 0.4587309 0.23185802 0.08106514 0.1768647 0.34239262 -0.032785513
0.2664511 0.30649364 0.6408831 0.62416226 0.04189652 0.3338574 0.14180717 0.09836336
00000000: 65b5 55bc 321b 56bd 28ca 803e 8858 9b3d
00000010: 466a 12bc a9de 783e 69d0 1a3e 02f6 0e3e
00000020: 412a f6bd 46fb 463f 96cc 113e 4a65 32be
00000030: 86db cd3e b282 0c3e d4f9 233e ba53 073e
00000040: 061b 413e f86f 98bc 1f83 0c3f ad4d ae3d
00000050: bd28 b73d ad64 3a3c f8d9 773e 3aec c53e
00000060: 57c0 ce3d 71ba e63e d14a 6ebe ba10 ae3e
00000070: ea4f 623e afb2 923e b8de e73e 2faa 7f3d
00000080: 069f 243e e066 733e 6887 753b 90c9 393e
00000090: 23ae 023f f6fc e13d 077d 973e 5c62 9abc
000000a0: 3d8f dcbd 374d 213e c003 01be 4357 ef3e
000000b0: 8902 003f 56f3 0bbe a68a c13e b99e 133e
000000c0: 67c3 f63c 87c3 a03e c743 6e3e 7950 5c3e
000000d0: be9b db3e 9f0f eb3d c99e 3a3f afae eabd
000000e0: 99c9 91bd d234 533e 2463 f03d 5644 1e3e
000000f0: cb30 fdbd 4a0a 61bd cb81 033e fdc5 13bd
00000100: 8c5e 43be 4d43 b9bc 8c7e c4bd 4137 b33d
00000110: 2c09 653d 081a 78bd 8bb8 32bd 9f83 a63d
00000120: 2c4d 88bc 9c57 af3b ead2 3cbd a2c4 d33c
00000130: 9f8a 87bc 53a7 e03d d73d aa3d cb7a 023d
00000140: 19f9 f83d 378a 1a3e 333c 393e 2b46 e6bd
00000150: bf55 cfbd 2a78 053e 86c2 1dbd dc76 153e
00000160: a51d 843d 77fc f4bd bee2 773e 3c15 f33d
00000170: 45e1 943d d41c c83d a1f6 29bd c502 193d
00000180: 4e03 333d a24e 693e 401c e8bd fc85 37be
00000190: aae8 1b3e 825b b0bd 71ab be3c 6a24 a0bd
000001a0: 9d49 213e 0ca6 2b3e f522 183e b1b7 3dbd
000001b0: 65d1 883d 6f14 a33c 9984 68bd 4cbd 443e
000001c0: 6bbf 7ebd 3b04 eb3d 4a09 403d 6ba6 033e
000001d0: 13f1 7e3d 0555 4d3e 8ec5 a13d 09b0 1dbe
000001e0: 1e13 493e d24f 413d 2484 1dbe 0d0a 973d
000001f0: ae82 95bc 3d21 353d 91be b6bb db16 5d3c
00000200: 5ad2 2dbe 4a42 89be 7f73 3ebd d44a 9abd
00000210: 43de 993d bcc4 563e 3ec3 15be 3a03 783e
00000220: a950 d7bd ed9c e9be bba4 3c3d c85e d03c
00000230: 0f54 a73e cf44 55bc 504c f7bd 40e0 d03d
00000240: e6c0 af3e 761c e83d d7d6 c43e 7f0f c53c
00000250: c1f2 1bbe 0b53 9c3a 3d0f d83e 7903 d73e
00000260: 90ff e7bd d4ac 91bd 039d 153e e5c5 bb3e
00000270: 140b 773e f06d d0be 9fff 9e3e cc78 5c3e
00000280: 4ac4 e93c a776 98be 9690 6dbe 190c 41be
00000290: 0ae4 e2be 52cf 3c3e 7334 653e 82d4 5cbd
000002a0: b9ca 0c3f cdd9 73be 017d 913e d677 4abe
000002b0: 0158 5cbd 87c3 d93d de72 86be 9205 60bd
000002c0: 5a14 5b3e 19fc d2be 4bbf 863c a844 a63e
000002d0: b200 a9be a5f2 8abc 24ab 123f 9890 ef3d
000002e0: 0e9d 7abe 8a1d 083d 8846 72bb f71b 7bbd
000002f0: 7c1a 443e 9983 b0bd 0aff 33be fc87 92bb
00000300: 10ea e63b 958a 87bd 0ea6 0b3f 1c91 fd3d
00000310: 7b97 e23d a863 8f3e 3b13 d33d 7dc1 c63e
00000320: a387 b2be 27fc c03e d78a 7d3e 242b fbbc
00000330: 4323 963e 4702 533d e37d 6e3e fa0b db3e
00000340: 1fc2 063e 9715 a83d 23ce 553e 5009 943e
00000350: ef59 813e d47e 073f 28ff 8f3e fb79 853e
00000360: 3a8b 263e ae31 b83e c6d0 cfbd 2854 a93e
00000370: ee10 da3e 9214 da3e 6bdf 9b3e b985 723e
00000380: 4d82 973e 052f 7c3d 21b8 a4bd baf8 a23a
00000390: 8b3b 863e cb40 353e 0b50 0e3e b1f8 5c3e
000003a0: 4184 deba 00ac db3e 4b2c a73e 12be f23e
000003b0: e3d7 863e 0293 17bc 7545 5f3e eac3 723e
000003c0: dd03 263d 41e9 543e c7de ea3e 306c 6d3e
000003d0: 7b05 a63d 051c 353e 164e af3e 1a4a 06bd
000003e0: 476c 883e bcec 9c3e ea10 243f 19c9 1f3f
000003f0: af9b 2b3d 5bef aa3e e635 113e bb72 c93d
