models/SimpleLSTM_FinalLoss_0.20282605748573695.pt (torch_old, 96206 bytes, 6 tensors)

lstm.weight_ih_l0 f4 [256, 25]
-7.8420362 11.723146 10.859033 8.03163 3.1019561 -8.913138 -9.608847 2.7059362
3.980982 1.5640256 22.26192 4.879486 15.1070595 -1.742322 1.4772996 -19.24909
-21.405914 -9.172707 4.1734843 17.506756 5.2043123 -0.87141514 -8.610642 -8.521808
-11.192927 -0.24550013 -3.883767 2.9402666 10.046132 -4.886208 -0.9190428 0.44323602
14.609307 0.5138684 1.1423428 -6.5526047 0.9269253 -5.9065433 -10.920447 0.6791917
-0.49264625 4.442454 -4.5513606 -4.5194435 -7.6175346 10.608567 -1.7956023 9.4697895
-3.5305238 7.6486206 22.652996 11.588193 -5.3043447 -15.554421 2.1807296 -6.912765
-13.916276 -9.657923 11.309417 -4.6448894 9.829067 -2.70542 17.84474 -10.900338
4.7121916 -10.954203 -11.873079 2.0988398 -3.1887102 8.394029 4.0807633 2.956443
-21.245537 -1.6259856 -7.3215733 4.129608 31.705095 15.844129 11.421858 -0.5029088
9.430377 36.472164 -12.932486 -1.5111907 20.614872 -4.1781535 -21.452955 -1.5436199
-10.296721 -3.5743067 -4.2872295 27.230068 15.243095 5.657238 -10.930508 -15.1057
-1.1343668 26.766964 -7.7122154 6.6549044 16.383535 0.29537645 13.910339 -4.6011558
-2.5218997 3.4484146 2.6935694 10.335151 -6.5050507 11.351275 1.8822238 -0.36418748
-4.723355 5.10216 16.037853 -13.3991 7.1745577 -15.567896 0.24593362 1.3618547
1.3476945 4.7300615 4.795252 13.070255 -0.68117166 -14.665563 12.9827795 16.372604
-23.377762 15.693273 22.464119 5.360091 3.131168 13.539077 1.1975813 -14.2826605
-7.7244806 18.544556 9.654413 -0.28512695 1.4153945 0.10823331 -11.916701 9.744162
17.657173 12.175519 -11.273087 -0.53143936 -6.311916 31.993704 -5.655601 -8.23492
5.1064286 8.026152 0.6838412 3.1464393 4.6725893 2.1573915 -3.4548879 -4.7782826
-13.440345 9.333233 3.5135152 -0.22196007 -8.705337 -2.7511828 -6.7236247 17.382483
-9.924388 -7.65245 8.553017 -32.62713 -4.9320445 -4.483241 -8.920848 -2.4475849
1.2647004 3.7816045 10.542505 -5.7322254 5.5879226 10.954753 8.724678 6.394807
-4.096495 -11.580359 1.0356324 2.8933256 5.5441227 2.2013526 6.324579 -6.9826455
3.3850026 6.6873684 -0.19831009 10.967112 1.837669 3.6099153 2.9178517 -14.254951
4.8709817 9.848963 4.5564938 -16.205606 8.035772 -2.1678731 8.79603 -10.014299
-2.9687483 -15.614517 -2.7083628 -28.934744 3.1525745 -35.02801 37.63646 -10.57924
-2.123005 0.88358796 -9.201766 18.933031 14.379326 2.1737447 -12.751435 -19.412136
3.697904 -17.111118 14.349109 28.571808 0.2239471 30.561165 -11.249253 14.010224
-0.52505887 -24.372284 -9.346363 -0.79203504 -14.163324 10.364243 10.0009 -5.8242173
-4.59343 -8.325186 14.316774 24.20428 -20.306427 -17.497444 -26.559502 42.410225
-4.3761134 -7.931139 -6.490075 -6.149285 7.85866 -16.391253 57.079334 -12.757168
00000000: f6f1 fac0 0292 3b41 99be 2d41 8e81 0041
00000010: 7386 4640 379c 0ec1 d6bd 19c1 0f2e 2d40
00000020: 69c8 7e40 fe31 c83f 6a18 b241 c024 9c40
00000030: 84b6 7141 6804 dfbf 2718 bd3f 23fe 99c1
00000040: 503f abc1 68c3 12c1 2f8d 8540 d60d 8c41
00000050: ba89 a640 1015 5fbf 31c5 09c1 5359 08c1
00000060: 3b16 33c1 6364 7bbe a38f 78c0 542d 3c40
00000070: f5bc 2041 d15b 9cc0 6446 6bbf d5ef e23e
00000080: b9bf 6941 e18c 033f 4a38 923f f0ae d1c0
00000090: fa4a 6d3f 6702 bdc0 27ba 2ec1 82df 2d3f
000000a0: 213c fcbe 9528 8e40 bfa4 91c0 489f 90c0
000000b0: d8c2 f3c0 b1bc 2941 4cd6 e5bf 4284 1741
000000c0: 1af4 61c0 80c1 f440 5639 b541 3d69 3941
000000d0: 31bd a9c0 e9de 78c1 1391 0b40 5f35 ddc0
000000e0: 11a9 5ec1 da86 1ac1 5ff3 3441 efa2 94c0
000000f0: dc43 1d41 9a25 2dc0 07c2 8e41 c967 2ec1
00000100: 46ca 9640 6a44 2fc1 22f8 3dc1 6453 0640
00000110: d413 4cc0 f14d 0641 9d95 8240 5d36 3d40
00000120: dcf6 a9c1 4c20 d0bf 544a eac0 c025 8440
00000130: 09a4 fd41 8d81 7d41 eebf 3641 a2be 00bf
00000140: d3e2 1641 7fe3 1142 76eb 4ec1 b26e c1bf
00000150: 42eb a441 6fb3 85c0 a79f abc1 5695 c5bf
00000160: 5fbf 24c1 71c1 64c0 fc30 89c0 2ed7 d941
00000170: b8e3 7341 1808 b540 5ce3 2ec1 f2b0 71c1
00000180: ee32 91bf be22 d641 78ca f6c0 faf4 d440
00000190: 7b11 8341 953b 973e c090 5e41 ab3c 93c0
000001a0: ce66 21c0 d3b2 5c40 7163 2c40 c75c 2541
000001b0: 6029 d0c0 d39e 3541 b6ec f03f c876 babe
000001c0: b925 97c0 e544 a340 864d 8041 b762 56c1
000001d0: fa95 e540 1a16 79c1 06d6 7b3e 4151 ae3f
000001e0: 4181 ac3f aa5c 9740 b472 9940 c41f 5141
000001f0: 4461 2ebf 25a6 6ac1 77b9 4f41 18fb 8241
00000200: a805 bbc1 a517 7b41 84b6 b341 de85 ab40
00000210: 0e65 4840 0fa0 5841 584a 993f c785 64c1
00000220: f22e f7c0 405b 9441 7a78 1a41 29fc 91be
00000230: a62b b53f 6da9 dd3d cfaa 3ec1 16e8 1b41
00000240: e441 8d41 edce 4241 905e 34c1 690c 08bf
00000250: 37fb c9c0 1bf3 ff41 affa b4c0 3bc2 03c1
00000260: dd67 a340 1e6b 0041 3810 2f3f 435f 4940
00000270: da85 9540 b412 0a40 e21c 5dc0 b1e7 98c0
00000280: a70b 57c1 ec54 1541 6fdd 6040 8049 63be
00000290: 0f49 0bc1 6113 30c0 ef27 d7c0 530f 8b41
000002a0: 4bca 1ec1 dfe0 f4c0 28d9 0841 2e82 02c2
000002b0: 4fd3 9dc0 b676 8fc0 cbbb 0ec1 3ba5 1cc0
000002c0: b4e1 a13f cf05 7240 1aae 2841 646e b7c0
000002d0: 43d0 b240 ab46 2f41 4898 0b41 42a2 cc40
000002e0: 7d16 83c0 2749 39c1 9a8f 843f 3f2c 3940
000002f0: 7469 b140 f6e2 0c40 f362 ca40 d571 dfc0
00000300: e2a3 5840 ecfe d540 cd11 4bbe 4a79 2f41
00000310: bd38 eb3f da08 6740 15be 3a40 4714 64c1
00000320: 15df 9b40 5a95 1d41 ccce 9140 15a5 81c1
00000330: 8692 0041 6fbe 0ac0 8abc 0c41 923a 20c1
00000340: f9ff 3dc0 10d5 79c1 d155 2dc0 5b7a e7c1
00000350: c8c3 4940 af1c 0cc2 bc8b 1642 9144 29c1
00000360: 50df 07c0 d232 623f 6f3a 13c1 d976 9741
00000370: b811 6641 a21e 0b40 e105 4cc1 0e4c 9bc1
00000380: 76aa 6c40 92e3 88c1 f395 6541 1093 e441
00000390: 6352 653e 447d f441 f1fc 33c1 e129 6041
000003a0: 426a 06bf 70fa c2c1 b48a 15c1 cfc2 4abf
000003b0: fa9c 62c1 f0d3 2541 b003 2041 fd5f bac0
000003c0: 61fd 92c0 f633 05c1 8211 6541 5ea2 c141
000003d0: 9073 a2c1 c4fa 8bc1 dc79 d4c1 12a4 2942
000003e0: 1f09 8cc0 e4cb fdc0 b2ae cfc0 f1c6 c4c0
000003f0: 257a fb40 4921 83c1 3d51 6442 5c1d 4cc1

lstm.weight_hh_l0 f4 [256, 64]
-86.87006 2.054162 -25.542421 -8.66189 -0.38562503 7.087546 3.2779093 2.7598464
6.192262 0.03525145 -0.08172518 6.2573037 11.91156 10.250648 30.699398 7.182853
-1.5132097 -26.240646 19.241137 -26.81057 5.589874 18.675097 18.643791 4.75615
2.2253013 20.44071 -6.4220796 -2.2328086 3.092899 2.569284 11.664917 -5.070921
-19.358364 -4.1742873 7.8708386 4.9539566 5.0258455 2.7845528 -14.935996 -0.79401445
-18.054817 -14.950205 22.269138 -4.2934685 -36.227604 -19.66675 -14.440288 2.516339
2.3157632 16.219181 12.3631315 -17.979649 -2.4367101 22.214537 -24.670845 -13.288677
3.715354 4.973749 -5.54708 -32.631165 -21.05927 18.371218 5.956297 -7.0843806
-3.5422404 2.5084364 -6.0852737 -7.2550097 -1.0856037 -2.4332008 -1.4483403 -0.64096314
6.712307 -3.6696968 0.024624864 1.0709404 -5.781254 -0.065884404 1.0429459 4.0972476
-3.6413043 -7.107538 0.8919777 0.90266556 5.095737 3.0597472 -4.549479 -1.7834737
-6.488472 -3.4762945 8.69927 0.95195115 2.108786 -6.0929065 -8.732937 -2.497457
-3.0784237 -0.055041473 0.40484753 -1.3723259 -8.068515 -0.5676773 8.949084 1.1982312
-1.8765082 2.0120974 -0.6604519 -1.0416543 -12.963876 5.9484735 2.040904 4.6326933
-2.9248157 5.120269 2.6029377 1.2345029 5.7031198 -0.37185556 1.8752335 0.27328557
-1.4735407 5.824679 -0.6053158 -1.0619217 -5.1594005 1.4578516 1.0836967 2.77274
7.278363 -12.309013 -13.432519 -8.398912 -3.2708662 -5.410328 -25.653498 1.3097386
6.9347034 -8.806271 -0.6105455 2.6746607 10.430585 -11.000637 -12.6202135 -3.9754694
-9.647808 -9.6943 -3.8862848 5.2783732 -8.263895 -21.25091 11.239801 13.616086
-6.726191 -4.5214353 13.07543 -15.831236 13.792253 -2.924695 10.327847 3.5469375
2.4425094 -7.2861094 -6.552563 -5.943025 0.48526654 7.704211 -3.676206 9.774251
-13.131176 -24.166225 8.667365 -0.5387422 -0.35097304 4.583523 21.141283 19.60207
5.3838058 3.264008 -6.993728 -6.628996 8.940465 -6.129315 -9.263281 -2.231226
-6.867884 0.7257324 -20.22946 -12.709703 1.39886 6.032714 -9.154654 -16.147547
-18.433157 37.345924 3.5314116 2.1188936 19.709768 14.2649555 -16.031857 21.67892
-4.576597 -2.4263792 16.580278 23.565104 12.403509 -16.129154 4.635996 7.907433
-25.811071 -22.267462 4.5952444 -20.11854 -3.788091 -5.7758265 22.07987 6.9136934
-4.3322754 -25.327227 1.0320642 -19.26832 -34.117455 -2.4846258 10.290233 2.459321
-7.949581 -10.793584 -14.874386 51.544582 12.560199 -0.96870875 9.046956 55.21661
-76.27093 -7.571099 6.957323 -10.966571 0.6315111 -28.143703 5.2109213 -27.474823
53.590454 -1.92046 0.90208673 16.073746 -23.52772 -10.125813 6.2297983 -20.812403
3.3787994 -15.4129095 -27.454254 21.450186 -10.4189005 -3.2164521 -62.90029 8.972916
00000000: 79bd adc2 6477 0340 e156 ccc1 1a97 0ac1
00000010: a570 c5be 2dcd e240 44c9 5140 53a1 3040
00000020: 0327 c640 d363 103d 885f a7bd d53b c840
00000030: c095 3e41 a702 2441 5e98 f541 efd9 e540
00000040: dbb0 c1bf d8ec d1c1 d9ed 9941 0c7c d6c1
00000050: 3fe0 b240 9966 9541 7c26 9541 6132 9840
00000060: 566b 0e40 9386 a341 ad81 cdc0 56e6 0ec0
00000070: 0ff2 4540 266f 2440 80a3 3a41 fc44 a2c0
00000080: eedd 9ac1 c393 85c0 e9dd fb40 d086 9e40
00000090: bad3 a040 1d36 3240 d7f9 6ec1 8844 4bbf
000000a0: 4470 90c1 0a34 6fc1 3227 b241 1864 89c0
000000b0: 11e9 10c2 8155 9dc1 6b0b 67c1 b30b 2140
000000c0: 7735 1440 e2c0 8141 63cf 4541 52d6 8fc1
000000d0: 0ff3 1bc0 5fb7 b141 e45d c5c1 6c9e 54c1
000000e0: 5cc8 6d40 f428 9f40 ae81 b1c0 5086 02c2
000000f0: 6379 a8c1 41f8 9241 fc99 be40 3fb3 e2c0
00000100: 11b4 62c0 398a 2040 90ba c2c0 0a29 e8c0
00000110: 10f5 8abf 90b9 1bc0 3763 b9bf 2916 24bf
00000120: 38cb d640 50dc 6ac0 15ba c93c 9314 893f
00000130: 0800 b9c0 67ee 86bd 407f 853f a71c 8340
00000140: 210b 69c0 f470 e3c0 a758 643f 1715 673f
00000150: 4710 a340 e6d2 4340 5595 91c0 de48 e4bf
00000160: 90a1 cfc0 9c7b 5ec0 3630 0b41 12b3 733f
00000170: 5af6 0640 17f9 c2c0 1cba 0bc1 56d6 1fc0
00000180: e504 45c0 2b73 61bd 2d48 cf3e 60a8 afbf
00000190: a318 01c1 4d53 11bf 732f 0f41 a45f 993f
000001a0: 6c31 f0bf 34c6 0040 6013 29bf ee54 85bf
000001b0: 096c 4fc1 e559 be40 2c9e 0240 063f 9440
000001c0: 2e30 3bc0 3ed9 a340 8896 2640 3104 9e3f
000001d0: f57f b640 da63 bebe a707 f03f 16ec 8b3e
000001e0: fb9c bcbf c563 ba40 faf5 1abf 0ded 87bf
000001f0: cf19 a5c0 e29a ba3f 93b6 8a3f 9274 3140
00000200: 5ae8 e840 b8f1 44c1 99eb 56c1 f261 06c1
00000210: df55 51c0 6821 adc0 5d3a cdc1 84a5 a73f
00000220: 17e9 dd40 7ce6 0cc1 b64c 1cbf a42d 2b40
00000230: ade3 2641 9c02 30c1 65ec 49c1 176e 7ec0
00000240: 6c5d 1ac1 da1b 1bc1 e4b8 78c0 6fe8 a840
00000250: ea38 04c1 dd01 aac1 3ad6 3341 7ddb 5941
00000260: f53c d7c0 99af 90c0 f634 5141 be4c 7dc1
00000270: 11ad 5c41 342e 3bc0 dc3e 2541 0601 6340
00000280: 1352 1c40 cf27 e9c0 99ae d1c0 432d bec0
00000290: db74 f83e e688 f640 f646 6bc0 5563 1c41
000002a0: 4c19 52c1 6e54 c1c1 87ad 0a41 02eb 09bf
000002b0: bdb2 b3be 38ac 9240 5921 a941 0ad1 9c41
000002c0: 2348 ac40 82e5 5040 9fcc dfc0 bc20 d4c0
000002d0: 250c 0f41 5923 c4c0 6636 14c1 68cc 0ec0
000002e0: b5c5 dbc0 99c9 393f efd5 a1c1 f25a 4bc1
000002f0: d80d b33f fe0b c140 7679 12c1 2d2e 81c1
00000300: 1b77 93c1 3a62 1542 a602 6240 f49b 0740
00000310: 9bad 9d41 423d 6441 3e41 80c1 6e6e ad41
00000320: 7c73 92c0 cc49 1bc0 69a4 8441 5585 bc41
00000330: c674 4641 8208 81c1 145a 9440 b109 fd40
00000340: 137d cec1 c323 b2c1 3e0c 9340 c5f2 a0c1
00000350: 1570 72c0 92d3 b8c0 93a3 b041 fa3c dd40
00000360: 00a2 8ac0 299e cac1 ae1a 843f 8525 9ac1
00000370: 4678 08c2 1c04 1fc0 cba4 2441 8465 1d40
00000380: f862 fec0 85b2 2cc1 7cfd 6dc1 a72d 4e42
00000390: 93f6 4841 4cfd 77bf 55c0 1041 cfdd 5c42
000003a0: b78a 98c2 7146 f2c0 64a2 de40 1377 2fc1
000003b0: b6aa 213f 4e26 e1c1 debf a640 70cc dbc1
000003c0: a05c 5642 a2d1 f5bf 28ef 663f 0897 8041
000003d0: c538 bcc1 5403 22c1 825a c740 cd7f a6c1
000003e0: 403e 5840 479b 76c1 50a2 dbc1 fb99 ab41
000003f0: d1b3 26c1 5ada 4dc0 e699 7bc2 1091 0f41

lstm.bias_ih_l0 f4 [256]
-27.093935 3.2707634 -15.402492 -2.0229037 -1.864147 -30.019615 -17.187223 -6.8726897
17.252914 -22.37434 -39.46168 -24.302847 -17.908817 -4.0136833 -19.75941 2.1287358
-17.276897 -11.338377 2.4585989 -12.097351 -16.261118 -6.1138244 -0.16216995 -19.171736
-10.931265 -24.860693 -30.198383 -5.0909925 -21.960947 -4.124841 -25.192675 -38.15877
-14.579908 -23.760958 -5.7685213 -24.118296 -10.301336 -5.078627 -30.81242 -8.737924
-15.712752 -14.5974655 -14.76803 -13.96397 19.233839 -21.678085 -3.7242262 -5.9426293
-21.269247 14.714807 -9.678403 -10.580266 5.750376 -4.995029 -30.781458 -42.584373
-12.763015 -4.643952 -6.02885 -20.962154 -25.186481 -11.434004 1.4297904 -3.0627973
9.625249 2.1207922 2.1091216 -14.948387 0.05670995 -4.815201 -3.167094 -4.7608786
1.2556659 0.35625458 5.3832183 -3.7703214 -10.92931 -2.940085 14.8014555 -2.0702655
-5.4690337 -3.8195403 -9.506569 -30.461843 1.9895031 -13.03761 -13.853681 15.348722
-7.7358556 -14.700942 -19.563398 -13.756471 1.5329827 9.96306 -10.926699 -8.859928
-9.595296 2.5262587 -11.929093 1.822977 0.8773614 0.82925886 -25.045109 -6.673975
-6.8381543 -16.242973 -7.9339123 -0.85385734 -12.60061 -1.0082092 -17.447649 -6.4951315
-0.6314398 3.2634268 13.938063 -9.510334 -16.272354 -6.5116606 1.2806251 3.570611
-0.29792452 4.0366073 -2.5341053 -7.6807704 -18.371616 -9.204498 -10.87258 -11.530339
-1.9380938 -2.8359706 6.553107 9.353186 2.9664369 -3.9688454 -4.5709243 3.5870044
-6.0420685 6.0238757 3.743253 5.380863 7.0260954 -13.712913 -5.892274 14.53873
-1.548229 -2.699122 -6.3245125 -4.9185085 -3.576117 -4.5923533 6.2080255 -5.0503716
-3.1839354 -3.649689 2.713562 -0.49732578 1.7403313 2.1079345 4.7234893 4.6422105
1.0207343 -2.289349 -7.264507 1.6788071 6.2254124 -4.0060863 3.341059 4.350569
-4.562774 -3.8963602 4.6964207 -2.8184555 9.575559 -5.7816887 4.0642166 -5.2960787
2.8377748 -11.6362915 -2.5389936 -5.632811 -4.601126 -5.706467 4.7843714 -4.6420383
-4.0669017 -5.303059 -4.239491 0.16400337 -2.8938587 9.223149 -3.7402647 9.476791
-39.241497 -35.10202 -7.1969695 0.6553905 -19.908924 -5.0543094 -19.145748 -14.76652
-8.45691 -29.862759 -41.886806 0.60873944 -1.4039785 -17.005915 -24.811655 -7.876002
-30.516258 -19.222221 -31.837729 -37.195835 -29.227182 -17.706942 -14.907876 11.69995
-13.544622 -18.507097 -20.37153 -25.513248 -33.84877 -39.501232 -21.326769 -2.314791
-20.633596 -35.5557 -21.959671 -27.668684 6.272485 -27.24471 -34.966244 -26.684366
-28.242506 -17.998768 -24.666393 -12.306195 -29.186531 -29.701477 -19.540638 -36.01658
-42.390533 14.848293 -23.582012 -18.845005 -39.01352 -26.983255 -6.0511584 -19.214874
-27.38423 -26.282768 -14.576739 -33.145348 -6.894152 -19.964226 -38.735943 -22.216146
00000000: 61c0 d8c1 3054 5140 9b70 76c1 4177 01c0
00000010: 5e9c eebf 2c28 f0c1 6f7f 89c1 13ed dbc0
00000020: f805 8a41 a6fe b2c1 c3d8 1dc2 3b6c c2c1
00000030: 4245 8fc1 1870 80c0 4613 9ec1 353d 0840
00000040: 1637 8ac1 fe69 35c1 af59 1d40 c08e 41c1
00000050: c516 82c1 73a4 c3c0 e10f 26be b75f 99c1
00000060: 76e6 2ec1 b3e2 c6c1 4a96 f1c1 69e9 a2c0
00000070: 05b0 afc1 b3fe 83c0 998a c9c1 95a2 18c2
00000080: 4e47 69c1 7116 bec1 ba97 b8c0 45f2 c0c1
00000090: 46d2 24c1 1d84 a2c0 d67f f6c1 89ce 0bc1
000000a0: 6f67 7bc1 388f 69c1 da49 6cc1 6c6c 5fc1
000000b0: e7de 9941 b86c adc1 b959 6ec0 052a bec0
000000c0: 6b27 aac1 d96f 6b41 bdda 1ac1 c548 29c1
000000d0: 1503 b840 47d7 9fc0 6d40 f6c1 6656 2ac2
000000e0: 4f35 4cc1 419b 94c0 57ec c0c0 7eb2 a7c1
000000f0: ea7d c9c1 aef1 36c1 5f03 b73f df04 44c0
00000100: 0501 1a41 0fbb 0740 d9fb 0640 982c 6fc1
00000110: b148 683d 2016 9ac0 abb1 4ac0 1e59 98c0
00000120: a9b9 a03f 0067 b63e 5343 ac40 f24c 71c0
00000130: 74de 2ec1 5a2a 3cc0 c3d2 6c41 3b7f 04c0
00000140: 5302 afc0 5973 74c0 e81a 18c1 dbb1 f3c1
00000150: 0aa8 fe3f 0d9a 50c1 ada8 5dc1 5e94 7541
00000160: 218c f7c0 0f37 6bc1 d781 9cc1 811a 5cc1
00000170: c738 c43f b268 1f41 c2d3 2ec1 44c2 0dc1
00000180: 5586 19c1 39ae 2140 91dd 3ec1 4f57 e93f
00000190: c29a 603f 4f4a 543f 625c c8c1 3491 d5c0
000001a0: 29d2 dac0 9cf1 81c1 9ce2 fdc0 6596 5abf
000001b0: 199c 49c1 000d 81bf c994 8bc1 1ed8 cfc0
000001c0: 0aa6 21bf fcdb 5040 4e02 5f41 542a 18c1
000001d0: c82d 82c1 865f d0c0 86eb a33f e484 6440
000001e0: 9089 98be e32b 8140 c82e 22c0 dfc8 f5c0
000001f0: 12f9 92c1 a045 13c1 16f6 2dc1 457c 38c1
00000200: 7513 f8bf 8b80 35c0 0db3 d140 a6a6 1541
00000210: 1ada 3d40 9001 7ec0 0345 92c0 7b91 6540
00000220: a058 c1c0 97c3 c040 7591 6f40 0830 ac40
00000230: c6d5 e040 1768 5bc1 828d bcc0 a39e 6841
00000240: 5e2c c6bf 6abe 2cc0 6862 cac0 6c64 9dc0
00000250: 1adf 64c0 8ff4 92c0 25a8 c640 a59c a1c0
00000260: 99c5 4bc0 8194 69c0 00ab 2d40 7ca1 febe
00000270: 2dc3 de3f 66e8 0640 d326 9740 fd8c 9440
00000280: 6ca7 823f b284 12c0 d776 e8c0 27e3 d63f
00000290: 9436 c740 dc31 80c0 e9d3 5540 dc37 8b40
000002a0: 3f02 92c0 f75d 79c0 1449 9640 9361 34c0
000002b0: 7d35 1941 9803 b9c0 100e 8240 7a79 a9c0
000002c0: 1a9e 3540 402e 3ac1 df7e 22c0 fd3f b4c0
000002d0: 6d3c 93c0 619b b6c0 9219 9940 948b 94c0
000002e0: 0f24 82c0 a9b2 a9c0 e9a9 87c0 80f0 273e
000002f0: fb34 39c0 0592 1341 7f60 6fc0 f0a0 1741
00000300: 4bf7 1cc2 7868 0cc2 934d e6c0 acc7 273f
00000310: 7a45 9fc1 e7bc a1c0 7e2a 99c1 aa43 6cc1
00000320: 814f 07c1 eee6 eec1 178c 27c2 59d6 1b3f
00000330: 91b5 b3bf 1d0c 88c1 457e c6c1 3508 fcc0
00000340: 4c21 f4c1 1cc7 99c1 abb3 fec1 89c8 14c2
00000350: 45d1 e9c1 d1a7 8dc1 a986 6ec1 ff32 3b41
00000360: c6b6 58c1 890e 94c1 e5f8 a2c1 221b ccc1
00000370: 2465 07c2 4301 1ec2 399d aac1 8925 14c0
00000380: 9b11 a5c1 0939 0ec2 68ad afc1 7759 ddc1
00000390: 32b8 c840 2bf5 d9c1 6fdd 0bc2 9579 d5c1
000003a0: a7f0 e1c1 7afd 8fc1 c654 c5c1 2de6 44c1
000003b0: 047e e9c1 a09c edc1 3a53 9cc1 fa10 10c2
000003c0: e88f 29c2 9c92 6d41 f6a7 bcc1 92c2 96c1
000003d0: d80d 1cc2 b5dd d7c1 17a3 c1c0 10b8 99c1
000003e0: e712 dbc1 1c43 d2c1 533a 69c1 d694 04c2
000003f0: e59c dcc0 bcb6 9fc1 9bf1 1ac2 abba b1c1

lstm.bias_hh_l0 f4 [256]
-27.18976 3.4013906 -15.615094 -2.0398061 -1.7797751 -30.002941 -17.148207 -6.7261853
17.229706 -22.293785 -39.420353 -24.39564 -17.940437 -4.030971 -19.580402 2.0413527
-17.238037 -11.134842 2.3130963 -12.169083 -16.268602 -6.075538 -0.18173446 -19.199259
-10.81967 -24.91789 -30.314442 -4.9801593 -21.918776 -4.148066 -25.043669 -38.15189
-14.571886 -23.761835 -5.6185503 -24.09258 -10.343046 -4.9779983 -30.867916 -8.596194
-15.745122 -14.767185 -14.776022 -14.070267 19.219027 -21.53135 -3.7549918 -5.782539
-21.226046 14.756679 -9.7803755 -10.63544 5.8581576 -4.95682 -30.800459 -42.74122
-12.611518 -4.744126 -5.8265986 -20.993359 -25.096684 -11.669378 1.3198501 -3.0139902
9.641418 2.0031204 2.1603217 -14.806959 0.060631506 -4.888415 -3.122184 -4.7358027
1.3501035 0.5425778 5.435021 -3.8140774 -10.98979 -2.8887053 14.670508 -2.0470228
-5.54831 -3.9177601 -9.3228035 -30.526552 2.1389916 -12.896562 -13.814397 15.265034
-7.8452005 -14.784322 -19.397825 -13.739816 1.4340298 9.891092 -11.120554 -8.711609
-9.651994 2.5159485 -11.955598 1.8530103 1.0377562 0.85358113 -25.070045 -6.575068
-6.9730306 -16.199465 -7.7714663 -0.7252696 -12.490542 -0.988984 -17.301317 -6.6329308
-0.6978365 3.4949355 13.937538 -9.436092 -16.380917 -6.5937233 1.2696104 3.5550408
-0.28850496 3.910549 -2.5263913 -7.8208632 -18.472351 -9.239104 -10.937735 -11.704879
-1.9308382 -2.877299 6.4942384 9.345821 2.9852962 -3.9625955 -4.5376906 3.5727217
-6.0106564 6.0646605 3.6915143 5.463524 7.0335207 -13.75438 -5.862726 14.467397
-1.57069 -2.7692585 -6.350148 -4.933913 -3.5452628 -4.64873 6.0821376 -5.073134
-3.1541479 -3.4875765 2.7233462 -0.5419648 1.8089274 1.9333451 4.834785 4.6843023
1.0709661 -2.1622598 -7.298822 1.7499009 6.2608976 -4.017057 3.3227055 4.428026
-4.6661944 -4.086572 4.543356 -2.8819754 9.583444 -5.754487 4.1796694 -5.3575335
2.6916356 -11.643637 -2.4480922 -5.528401 -4.6501412 -5.7315955 4.8834386 -4.628814
-4.078079 -5.4351506 -4.0950637 0.26778877 -2.884937 9.194965 -3.7579715 9.643246
-39.189014 -35.19124 -7.4211726 0.5755473 -20.046131 -5.0834317 -19.254969 -14.777348
-8.363782 -29.750004 -41.90723 0.5891593 -1.5110012 -17.06468 -24.834906 -7.835801
-30.380829 -19.460884 -31.856249 -37.165257 -29.356245 -17.77495 -14.697423 11.605668
-13.67215 -18.459982 -20.419577 -25.513775 -33.779297 -39.48425 -21.3542 -2.1142325
-20.826918 -35.61378 -21.762047 -27.63352 6.0609474 -27.163 -34.946125 -26.643614
-28.21544 -17.849728 -24.463425 -12.212947 -28.97073 -29.656914 -19.535645 -35.885674
-42.3043 14.970266 -23.757664 -19.079784 -39.079742 -27.008585 -6.0376344 -19.25304
-27.457933 -26.133793 -14.536906 -33.062668 -6.8674474 -19.902214 -38.700047 -22.22891
00000000: a184 d9c1 62b0 5940 6dd7 79c1 2f8c 02c0
00000010: accf e3bf 0606 f0c1 872f 89c1 e93c d7c0
00000020: 70d6 8941 ac59 b2c1 71ae 1dc2 452a c3c1
00000030: 0486 8fc1 b7fd 80c0 aaa4 9cc1 86a5 0240
00000040: 80e7 89c1 5028 32c1 c509 1440 90b4 42c1
00000050: 1926 82c1 cf6a c2c0 9918 3abe 1598 99c1
00000060: 5e1d 2dc1 d757 c7c1 fa83 f2c1 775d 9fc0
00000070: a759 afc1 f5bc 84c0 6f59 c8c1 899b 18c2
00000080: 7226 69c1 3d18 bec1 2acb b3c0 9bbd c0c1
00000090: 1e7d 25c1 c34b 9fc0 7ef1 f6c1 038a 09c1
000000a0: 05ec 7bc1 6446 6cc1 966a 6cc1 d01f 61c1
000000b0: 91c0 9941 3440 acc1 c951 70c0 8f0a b9c0
000000c0: f1ce a9c1 5b1b 6c41 6b7c 1cc1 c32a 2ac1
000000d0: 0776 bb40 459e 9ec0 5767 f6c1 02f7 2ac2
000000e0: c7c8 49c1 e1cf 97c0 7f73 bac0 66f2 a7c1
000000f0: 02c6 c8c1 c6b5 3ac1 d9f0 a83f 37e5 40c0
00000100: 4043 1a41 2033 0040 b642 0a40 4ee9 6cc1
00000110: be58 783d e56d 9cc0 ddd1 47c0 b28b 97c0
00000120: 31d0 ac3f 61e6 0a3f b1eb ad40 d819 74c0
00000130: 2ed6 2fc1 8ce0 38c0 67ba 6a41 6c02 03c0
00000140: c18b b1c0 95bc 7ac0 342a 15c1 6136 f4c1
00000150: 3de5 0840 5158 4ec1 c507 5dc1 943d 7441
00000160: e20b fbc0 958c 6cc1 bf2e 9bc1 49d6 5bc1
00000170: 4a8e b73f ea41 1e41 caed 31c1 c062 0bc1
00000180: 916e 1ac1 4d05 2140 214a 3fc1 712f ed3f
00000190: 32d5 843f 4b84 5a3f 748f c8c1 f566 d2c0
000001a0: 1123 dfc0 8198 81c1 daaf f8c0 45ab 39bf
000001b0: 43d9 47c1 0e2e 7dbf 1969 8ac1 f840 d4c0
000001c0: 6aa5 32bf 06ad 5f40 2800 5f41 3cfa 16c1
000001d0: 1e0c 83c1 c8ff d2c0 9882 a23f ca85 6340
000001e0: ecb6 93be 6f46 7a40 65b0 21c0 8344 fac0
000001f0: 60c7 93c1 5fd3 13c1 f600 2fc1 2f47 3bc1
00000200: b525 f7bf ab25 38c0 cdd0 cf40 7c88 1541
00000210: 180f 3f40 2a9b 7dc0 c334 91c0 79a7 6440
00000220: 4c57 c0c0 b311 c240 c541 6c40 30d5 ae40
00000230: 9a12 e140 f111 5cc1 749b bbc0 757a 6741
00000240: 5f0c c9bf 883b 31c0 6a34 cbc0 9ee2 9dc0
00000250: 96e5 62c0 65c2 94c0 dfa0 c240 1d57 a2c0
00000260: 8fdd 49c0 7434 5fc0 4e4b 2e40 35be 0abf
00000270: ef8a e73f da77 f73f 8fb6 9a40 cee5 9540
00000280: 6b15 893f 7762 0ac0 f38f e9c0 c1fc df3f
00000290: 4659 c840 bb8b 80c0 35a7 5440 64b2 8d40
000002a0: 7751 95c0 33c5 82c0 2c63 9140 4972 38c0
000002b0: c955 1941 c224 b8c0 dabf 8540 ea70 abc0
000002c0: c243 2c40 564c 3ac1 8bad 1cc0 a9e8 b0c0
000002d0: f5cd 94c0 3b69 b7c0 2145 9c40 3f1f 94c0
000002e0: a07f 82c0 c1ec adc0 c30a 83c0 9c1b 893e
000002f0: cfa2 38c0 941e 1341 9b82 70c0 bc4a 1a41
00000300: 8dc1 1cc2 d4c3 0cc2 3f7a edc0 1157 133f
00000310: 7a5e a0c1 79ab a2c0 2d0a 9ac1 0470 6cc1
00000320: 0dd2 05c1 0200 eec1 01a1 27c2 25d3 163f
00000330: 7d68 c1bf 7784 88c1 e3ad c6c1 e2be fac0
00000340: f00b f3c1 e4af 9bc1 99d9 fec1 39a9 14c2
00000350: 97d9 eac1 1933 8ec1 a528 6bc1 d1b0 3941
00000360: 20c1 5ac1 0bae 93c1 4b5b a3c1 361c ccc1
00000370: 001e 07c2 dfef 1dc2 67d5 aac1 964f 07c0
00000380: 879d a6c1 8374 0ec2 ac18 aec1 7311 ddc1
00000390: 48f3 c140 d34d d9c1 d5c8 0bc2 1f26 d5c1
000003a0: 39b9 e1c1 3ecc 8ec1 18b5 c3c1 3b68 43c1
000003b0: 0ec4 e7c1 5c41 edc1 0049 9cc1 ee8a 0fc2
000003c0: 9a37 29c2 3686 6f41 b20f bec1 66a3 98c1
000003d0: a851 1cc2 9511 d8c1 4d34 c1c0 3a06 9ac1
000003e0: d9a9 dbc1 0212 d1c1 2b97 68c1 2c40 04c2
000003f0: 21c2 dbc0 bc37 9fc1 d9cc 1ac2 cfd4 b1c1

lin.weight f4 [8, 64]
39.0256 183.06256 -64.16242 -45.18383 -89.768295 50.327602 73.75591 -84.12003
30.909597 -76.26558 -68.88907 -50.703285 3.6155016 49.311592 2.821615 -69.323685
125.55462 93.31432 86.355865 57.05155 74.03495 37.414963 -90.231155 1.6071734
-16.390608 57.025494 83.292366 4.4338365 50.910477 -65.01743 -122.32789 -63.350487
10.800399 43.601936 20.961296 -49.717304 -26.213083 75.56834 -158.56761 -138.6088
90.969475 77.214195 -200.8976 -19.472616 2.9751248 133.63406 -41.792778 78.31075
-117.80933 20.419779 76.42385 -2.907521 88.444565 58.028442 -72.08493 174.223
192.99379 97.48814 39.447796 -39.59899 528.63727 -40.347538 116.39454 -41.360397
28.74223 321.06882 -61.90578 -42.368324 -41.39972 64.24082 91.96787 -141.34431
30.631443 -77.006546 -156.23811 -98.61471 -0.7345693 43.7889 0.0076843714 -67.22341
126.64942 95.2479 78.34819 48.53274 144.14037 38.81642 -208.43024 1.0038962
-17.266 61.0333 80.84121 14.425399 48.827 -57.683167 -195.81337 -112.1725
10.984623 175.7539 27.0552 -60.356262 -26.788958 180.48802 -59.43121 -174.26056
37.749115 76.95531 -297.58185 -23.734156 3.6618547 153.35828 -47.318417 77.629906
-55.988052 19.079681 67.89744 1.8812516 82.17283 58.91012 -69.34556 170.71873
66.679955 95.56872 60.44433 -71.9463 509.75812 -39.50762 117.165565 -44.055843
82.48457 237.43895 -65.658844 -42.48654 -58.095287 82.40075 82.196465 -97.343666
30.499638 -81.1491 -148.66011 -148.2701 2.7747486 43.768585 8.241088 -65.10315
99.9719 119.12575 85.44783 48.02002 121.40185 44.154 -171.98958 2.0614028
-27.454441 61.399586 82.00343 6.696657 59.513508 -70.11017 -173.82886 -212.8604
11.128342 151.05293 24.242186 -85.62038 -27.707684 173.74608 -72.94059 -133.67285
41.916595 76.91575 -135.45464 -27.855034 4.485668 162.07167 -55.550217 77.03045
-172.58415 19.146318 77.62274 6.1495724 81.18869 60.73589 -72.24886 192.43095
152.93774 95.61126 33.924877 -74.147156 510.13123 -47.57677 116.93734 -45.84228
28.208393 138.75403 -63.27204 -44.24132 -89.86268 49.286896 83.29348 -141.49812
32.908318 -146.60304 -97.01058 -106.18844 -0.62058055 52.379967 -6.229476 -65.50499
65.370316 5.620275 93.45126 50.739555 144.2038 36.908318 -166.47171 1.3633568
-20.056812 57.056755 84.17979 13.040628 52.106094 -87.78252 -194.36942 -142.51875
11.309406 117.54587 30.30145 -167.67651 -25.913223 92.033615 -235.1801 -140.85835
53.074852 76.67781 -170.926 -23.100397 3.876493 140.97041 -43.674633 78.237206
-178.40877 20.790012 72.0985 0.95944685 253.57016 64.944176 -71.05277 31.027485
11.440652 96.89524 128.86649 -67.46994 510.29443 -42.696186 112.31648 -42.077953
00000000: 371a 1c42 0410 3743 2953 80c2 3ebc 34c2
00000010: 5e89 b3c2 774f 4942 0783 9342 753d a8c2
00000020: db46 f741 fa87 98c2 34c7 89c2 2ad0 4ac2
00000030: 6164 6740 123f 4542 5795 3440 baa5 8ac2
00000040: f71b fb42 efa0 ba42 34b6 ac42 ca34 6442
00000050: e511 9442 eca8 1542 5a76 b4c2 dcb7 cd3f
00000060: f71f 83c1 1b1a 6442 b195 a642 fde1 8d40
00000070: 54a4 4b42 ed08 82c2 e1a7 f4c2 e666 7dc2
00000080: 6fce 2c41 6268 2e42 bcb0 a741 85de 46c2
00000090: 65b4 d1c1 fd22 9742 4f91 1ec3 da9b 0ac3
000000a0: 5ff0 b542 ab6d 9a42 c9e5 48c3 ebc7 9bc1
000000b0: 7268 3e40 52a2 0543 ce2b 27c2 1b9f 9c42
000000c0: 619e ebc2 b55b a341 03d9 9842 d314 3ac0
000000d0: 9ee3 b042 201d 6842 7c2b 90c2 1739 2e43
000000e0: 69fe 4043 edf9 c242 8bca 1d42 5e65 1ec2
000000f0: c928 0444 e163 21c2 01ca e842 0c71 25c2
00000100: 16f0 e541 cf88 a043 859f 77c2 2a79 29c2
00000110: 5099 25c2 4d7b 8042 8def b742 2558 0dc3
00000120: 320d f541 5a03 9ac2 f53c 1cc3 bb3a c5c2
00000130: bc0c 3cbf d527 2f42 2ecd fb3b 6372 86c2
00000140: 814c fd42 ed7e be42 46b2 9c42 8721 4242
00000150: ef23 1043 0444 1b42 246e 50c3 ac7f 803f
00000160: c520 8ac1 1922 7442 b3ae a142 6fce 6641
00000170: d94e 4342 90bb 66c2 39d0 43c3 5258 e0c2
00000180: 04c1 2f41 00c1 2f43 0d71 d841 d06c 71c2
00000190: c94f d6c1 ef7c 3443 8fb9 6dc2 b442 2ec3
000001a0: 18ff 1642 1ee9 9942 7aca 94c3 8ddf bdc1
000001b0: d45b 6a40 b85b 1943 0f46 3dc2 8342 9b42
000001c0: c4f3 5fc2 30a3 9841 7dcb 8742 dacc f03f
000001d0: 7d58 a442 f6a3 6b42 edb0 8ac2 ffb7 2a43
000001e0: 235c 8542 2f23 bf42 fec6 7142 81e4 8fc2
000001f0: 0ae1 fe43 ce07 1ec2 c554 ea42 2f39 30c2
00000200: 1af8 a442 5f70 6d43 5451 83c2 38f2 29c2
00000210: 9361 68c2 2fcd a442 9764 a442 f5af c2c2
00000220: 42ff f341 574c a2c2 fda8 14c3 2545 14c3
00000230: 7b95 3140 0813 2f42 7fdb 0341 d034 82c2
00000240: 9df1 c742 6240 ee42 4ae5 aa42 8014 4042
00000250: bfcd f242 b29d 3042 55fd 2bc3 06ee 0340
00000260: b2a2 dbc1 2d99 7542 c201 a442 044b d640
00000270: d50d 6e42 6838 8cc2 30d4 2dc3 43dc 54c3
00000280: b00d 3241 8d0d 1743 ffef c141 a23d abc2
00000290: 56a9 ddc1 ffbe 2d43 95e1 91c2 40ac 05c3
000002a0: 98aa 2742 ddd4 9942 6374 07c3 1cd7 dec1
000002b0: 988a 8f40 5912 2243 6c33 5ec2 970f 9a42
000002c0: 8b95 2cc3 a92b 9941 d83e 9b42 4cc9 c440
000002d0: 9c60 a242 8df1 7242 6b7f 90c2 536e 4043
000002e0: 10f0 1843 f738 bf42 13b3 0742 584b 94c2
000002f0: cc10 ff43 9d4e 3ec2 ebdf e942 7f5e 37c2
00000300: caaa e141 08c1 0a43 9216 7dc2 1df7 30c2
00000310: b1b9 b3c2 c825 4542 4396 a642 857f 0dc3
00000320: 1ea2 0342 619a 12c3 6b05 c2c2 7b60 d4c2
00000330: 5ede 1ebf 1685 5142 de57 c7c0 8e02 83c2
00000340: 9abd 8242 4bd9 b340 0ce7 ba42 4ef5 4a42
00000350: 2c34 1043 1ea2 1342 c278 26c3 7a82 ae3f
00000360: 5a74 a0c1 1e3a 6442 0d5c a842 6aa6 5041
00000370: a46c 5042 a690 afc2 925e 42c3 cd84 0ec3
00000380: 54f3 3441 7c17 eb42 5f69 f241 30ad 27c3
00000390: 484e cfc1 3611 b842 1b2e 6bc3 bddb 0cc3
000003a0: a64c 5442 0a5b 9942 0eed 2ac3 9dcd b8c1
000003b0: 7618 7840 6df8 0c43 d3b2 2ec2 7379 9c42
000003c0: a568 32c3 f251 a641 6f32 9042 4f9e 753f
000003d0: f691 7d43 6be3 8142 051b 8ec2 4a38 f841
000003e0: e90c 3741 5dca c142 d2dd 0043 9cf0 86c2
000003f0: b025 ff43 e5c8 2ac2 0aa2 e042 d34f 28c2

lin.bias f4 [8]
-6.4937286 -6.25862 -6.4217744 -6.743989 -6.6538243 -6.8382287 -6.0802174 -7.538941
00000000: a0cc cfc0 9d46 c8c0 2d7f cdc0 c2ce d7c0
00000010: 21ec d4c0 c5d2 dac0 2491 c2c0 013f f1c0
