models/SimpleLSTM_FinalLoss_0.10881423137443184.pt (torch_old, 96208 bytes, 6 tensors)

lstm.weight_ih_l0 f4 [256, 25]
00000000: 6cd1 d5bf 53ec 5340 3bcd 1bbc 10ab 5e3f
00000010: e2e2 f8bf 5188 15bf eb5a 803f 494b 0ebf
00000020: 3ea1 dabf 8b25 51c0 e853 61c0 255a 9cbf
00000030: e301 53bd 6da8 3a40 dbb0 3540 7be3 e53f
00000040: 5e4e 21c0 0edb b3bc e884 11bf 929a 1240
00000050: a36d 60bf 36a9 cdbf a32a 0e40 4a00 5ebe
00000060: c27c c3bf 4537 56c0 c203 f4bf 3fa0 66bf
00000070: b219 7dbf 6435 b7bf f37f 3b40 1cbe cfbf
00000080: abb7 bb3e ce44 7d3f 6bfe 9a3e a0e0 8cbe
00000090: a06d 1cc0 3ae5 223f c720 c03f addc 4d40
000000a0: d165 7440 b8ef 9c3f 8f00 ec3f 5212 b33d
000000b0: 9343 053f 373b d7bf eb89 10c0 fa28 24c0
000000c0: 74c2 d83f 224b 23c0 3062 d3bf 4467 883e
000000d0: db8d a4bd e356 243e f951 20bf 74e2 31c0
000000e0: cbb8 003f 55c1 0f3f e1e6 b1bf 52e6 703f
000000f0: 7ba0 063f 2a2c 76c0 7155 fdbe ba04 11bf
00000100: 6f0b a63f 11f2 1840 f784 c4c0 b2b3 dd3f
00000110: 0d4f 3c3f 7c8b c0bf 65f3 a53f 19f8 c6bf
00000120: a4bc 03c0 562c 983f 98a1 aabf 3cd2 4740
00000130: 482c 99be 49f1 94bf 9793 823e a46e 71be
00000140: 6bc4 d2bd f4ac 933f 04f8 023f 466e 8a3f
00000150: 95e6 36c0 0daa f5bf feaf b2c0 0b98 093f
00000160: e977 1bc0 7fa3 26c0 cdfb f640 fb3d 37c0
00000170: 9ae6 05c0 8730 173e aaab e93f 59b5 e2bf
00000180: 140c 6d40 ae0e de3e f734 3cbf b15b 0d40
00000190: c07a 18bc 4290 603f 0516 e23d 4dd9 40bf
000001a0: 420c a7bf 65a5 07bf a227 f2bf 1856 c03f
000001b0: 3078 2b3f 0f33 64c0 17f3 7840 908a 02c0
000001c0: 6e2e 283f 2343 7c40 128a 3d40 d0ee eabc
000001d0: 6e31 09c0 747c 45bf 4fa6 6240 19a3 99c0
000001e0: dd24 95bf b814 9940 6a42 e0bc 6385 d2c0
000001f0: 387d 2340 ed2e 0b40 5b6f fabf b9b4 4940
00000200: 3170 a0bb 8486 40bf f8ce 3abf 75f8 8c3e
00000210: d921 d7bf ee05 0240 2cf8 5ebf 5dfb a63d
00000220: 13f0 3040 0798 14bf 2cff 52bf 93c2 5840
00000230: b92e 40be 8253 8bbf b02a 4140 6432 9bbf
00000240: bee5 96bf 74c0 4cc0 3e1d e1be c327 8e3e
00000250: 5e76 c5be fd72 0440 f0bf 6cbe a6d3 94c0
00000260: ed64 d93f b38a 8640 46a6 10c0 5953 9ebe
00000270: 6d86 2140 3586 10bf 4372 1c40 a175 88be
00000280: 460a 9cc0 90c7 a6bf e29c ea3f c756 b63e
00000290: b43e 2c40 7e36 5340 e596 18c0 b7ec 1440
000002a0: e784 5640 b57c a63e bc29 bd3f 8038 463f
000002b0: f433 773f 9ec3 91bd 14e0 0940 ef7d 50c0
000002c0: 10b0 b73f adf3 f740 e77f 16bf e18a d4bf
000002d0: 4e1b 33bf 1b25 76c0 e504 12c0 ac0d b83e
000002e0: bd9a 1d40 0803 c93f 59dd 3240 e373 68bf
000002f0: cf1a 293f b19b 6fbe e7be 08c0 1ab4 2f3e
00000300: 0373 0b40 46f2 52c0 b807 0ebf ce0a 0740
00000310: 985b 0fc0 1103 2b40 d5e9 9c3e d90c bcc0
00000320: 25c6 f43f 069f 03bf 3590 7440 032b 5540
00000330: cb78 883e 97ee 993e c2ba 0440 0134 b3bf
00000340: 5eca a6c0 385b 8b3f fa63 93bd 01ac 19bf
00000350: 8d43 75bf 60a1 03c1 fe12 85bf 4c5b 79bf
00000360: 5e40 b5be ba0d 2fc0 81cb 1cc0 6e3d 1b3f
00000370: 847c 2040 5f30 d73f b478 1540 d4aa 3e3f
00000380: 5e62 fcbf f2f3 ba3e 2940 78bf d029 acbf
00000390: e717 27c0 3169 3c40 506a e73f 55f9 ecbe
000003a0: f697 16bf 01f5 29bf c61e ddbf 7a79 52be
000003b0: 4391 c73f 9382 463f 6d3d 92be ba70 8840
000003c0: 9fca afc0 45de c740 2624 0ac0 a193 88c0
000003d0: 2389 593f 8ae9 1e40 28f3 8c3f 65f0 6340
000003e0: 9ab8 a1be d320 1c3f add4 0cc0 5faa 54bf
000003f0: fb92 1840 7288 f33d bd2f b33e 329e 933f
-1.6704535 3.311299 -0.00950938 0.8697977 -1.9444239 -0.5841113 1.0027746 -0.55583626
-1.7080457 -3.2679164 -3.5207462 -1.221501 -0.05151547 2.91653 2.8389194 1.7960047
-2.5204082 -0.02195504 -0.56843424 2.2906842 -0.8766729 -1.6067264 2.2213523 -0.21679798
-1.5272448 -3.3471234 -1.9063647 -0.90088266 -0.9886733 -1.4313169 2.9296844 -1.6229892
0.36663565 0.9893311 0.3027223 -0.27515125 -2.444191 0.6363102 1.5010003 3.216594
3.8187144 1.2260656 1.843767 0.08743729 0.52056235 -1.6814946 -2.2584178 -2.565001
1.6934342 -2.5514607 -1.651434 0.26641285 -0.08034869 0.1604877 -0.6262508 -2.7794466
0.5028197 0.56154376 -1.3898584 0.9410144 0.52588624 -3.8464456 -0.4947925 -0.5664784
1.2972239 2.3897746 -6.141231 1.7320464 0.7355812 -1.5042567 1.2964903 -1.5544463
-2.0583887 1.188853 -1.3330564 3.1222067 -0.29916596 -1.1636134 0.25503227 -0.23577362
-0.1029137 1.1537156 0.5115969 1.0814903 -2.8578236 -1.919252 -5.5839834 0.53747624
-2.4291937 -2.603729 7.7182374 -2.863158 -2.0921998 0.14764605 1.8255513 -1.7711593
3.7038622 0.43370575 -0.7351832 2.2087214 -0.00930661 0.8772012 0.11039356 -0.75331575
-1.3050616 -0.5298675 -1.8918345 1.5026274 0.66980267 -3.5656164 3.889837 -2.0397072
0.65695846 3.9415977 2.9615521 -0.028678328 -2.143642 -0.77143025 3.5414007 -4.8011594
-1.1651875 4.783779 -0.027375419 -6.5787826 2.5545177 2.1747391 -1.9565233 3.1516554
-0.0048961868 -0.75205255 -0.7297206 0.27533308 -1.6807204 2.031612 -0.8709743 0.081534125
2.764653 -0.58044475 -0.8242061 3.3868759 -0.18767823 -1.088486 3.0182304 -1.2124753
-1.1788862 -3.1992464 -0.43967623 0.2776471 -0.3856687 2.0695183 -0.23120093 -4.650836
1.6983925 4.204431 -2.2601485 -0.30922964 2.5238297 -0.56454784 2.444474 -0.26652244
-4.876254 -1.3029652 1.8329127 0.3561308 2.691327 3.300201 -2.3842099 2.326948
3.3518617 0.3251702 1.4778361 0.7742996 0.9656365 -0.07117389 2.1543016 -3.2576864
1.4350605 7.7484956 -0.58788913 -1.6604882 -0.6996354 -3.8460147 -2.2815487 0.3594793
2.4625695 1.570405 2.79476 -0.9080183 0.6605653 -0.23399235 -2.1366518 0.17158547
2.1788948 -3.2960372 -0.5548053 2.1100345 -2.2399654 2.6720622 0.3064715 -5.8765683
1.9122969 -0.51414526 3.8213017 3.3307502 0.26654658 0.30064842 2.0738988 -1.4000245
-5.212203 1.0887213 -0.071968034 -0.6002808 -0.958062 -8.226898 -1.0396421 -0.9740493
-0.3540067 -2.7352128 -2.449921 0.6064061 2.5075998 1.6811637 2.3354921 0.74479413
-1.9717519 0.3651424 -0.969729 -1.345026 -2.610834 2.9439204 1.8079319 -0.46283975
-0.58825624 -0.6638947 -1.7275016 -0.20554152 1.5591205 0.7754299 -0.2856249 4.2637606
-5.493484 6.2458825 -2.1584563 -4.268021 0.8497488 2.483004 1.1011705 3.5615475
-0.31586152 0.60987586 -2.2004807 -0.83072466 2.383971 0.11891259 0.3499736 1.1532652

lstm.weight_hh_l0 f4 [256, 64]
00000000: 3cb0 5140 7f71 b63f 7eef 4e40 9664 15c0
00000010: 59c6 38bf 0155 5340 9c72 b93f 6de6 5d40
00000020: 3a6b 933f b69c a0bf fbac 2dc0 07e0 4340
00000030: b59f c6be 1ff2 a13e bff0 53c0 82a7 e33f
00000040: ab8b b8bd 2c50 5cbf c66a f83f 5951 20c0
00000050: cb18 653f e879 5c3f 6022 36be 05c6 16bf
00000060: 8f8a b0bf fbef 9ebf d076 4ac0 3928 c0bf
00000070: 3927 36c0 b192 e4bf 9a6d f9bf 9ce8 b13f
00000080: faa5 ad3d c352 8a40 7d40 233f 4fbe 343f
00000090: f4d7 8d3e 6e0f b6bf 9607 bf3e cbe5 b4bf
000000a0: fa7e 7e3f 9a45 cc3e 4f68 c7bf e301 d2bf
000000b0: 7b9f 89c0 d93c 69bf 487c 31c0 26a8 8ec0
000000c0: d094 f1be 47c5 61bf 8cd6 a83d 50f2 0cc0
000000d0: c956 5c40 1beb de3e 717a 7540 467e e2bf
000000e0: 94b5 09bf 1c2e 3940 510f 073e ff8e 143f
000000f0: c577 13c0 3f20 d0bf fe12 b63f 84fe 86c0
00000100: 0b8f a5bf aea2 2240 9178 33c0 a63b 24c0
00000110: ed90 763f 5b4b 6e3e bef4 97c0 cec2 693f
00000120: d851 b63e 9375 78c0 aa61 2b3e 33c0 e93f
00000130: 2a21 2b40 3dcd 05c0 0507 353f 70fd 96bf
00000140: 0c49 6f40 17db 3ac0 171b 04bf 93fc 673f
00000150: 4856 debf 37c7 5c3d 5721 0c40 4e48 473f
00000160: 2eeb d2bf 3930 6d3f 55b9 05c0 6779 cebf
00000170: 78d4 4abd 7c50 2240 18e0 8a3f db4d 89bf
00000180: 28c6 7b3f cb23 9bbf 1302 45bf 16d9 9140
00000190: f1e9 06bf ccdb f3bf bef5 d93f 2756 57c0
000001a0: 85a2 05c0 8eaa 4cbf 9df8 fcbe 7645 763f
000001b0: d56f cc3e 9b10 69bf 9887 1440 41bc 8d40
000001c0: 0b61 38c0 bbea f1bd df7a debf e943 1840
000001d0: df3c bebf aa17 fbbf 0c4f 9b3e 671f bebf
000001e0: a17c 48c0 8248 4b40 f9b7 2940 4f9d 0740
000001f0: 88c8 1340 86f7 0640 8124 523e 66f5 1dbf
00000200: 1e62 1140 e3b8 3b3f 413a 61be 8517 a5bf
00000210: b2bf 44bf ab15 e93e 6174 9cbf 9705 18c0
00000220: 7094 883f 7ee7 22c0 cfdb 6440 03d5 69bf
00000230: 8d9c f0be 8405 153f 4214 88c0 d141 4940
00000240: 258c 3340 42a9 5f40 3887 d4bf a202 1fc0
00000250: 4344 87bf c373 873f 56a7 893f a4ec c6bf
00000260: 8b8d 803f 96fe d4bf 4491 9ebf b36d b6bf
00000270: cca9 35c0 3ba3 3dbf 1583 943f 8b19 e93d
00000280: f65b 0e3f 27d2 29c0 81cc db3e ad94 4fbf
00000290: 9c77 d7bf b33b 1f3e 92b7 ebbf 9171 49c0
000002a0: 7398 7d40 af86 1dc0 ab86 29bf 5dd0 8040
000002b0: 2d80 543f aa6d 10c0 9a75 f03f e080 833f
000002c0: 41d8 debf 3707 29bf 6fb1 fb3d f99a a93f
000002d0: 3bfe adbf bd7e 1bbf 2bef 803f dfaa 04c0
000002e0: cbae 0a3e 6813 29bf 8341 6340 4991 c93f
000002f0: 5cca 813f 1429 0340 cb21 33bf 619e 843c
00000300: b5a8 55c0 c551 e8bf d2e5 56bf 7950 75c0
00000310: 4ae4 d0bf 2c43 87be 34c0 643f 8d74 e8bf
00000320: 1531 d43f 0dc3 6d3e bd69 2640 bfaf 0040
00000330: 27d4 2340 5c7b 5140 ec25 eb3f 24ea 86bf
00000340: 1653 3440 f7b8 8a40 8c77 8bbf aed1 82c0
00000350: 1854 32c0 2a45 3d3e 866a f8bf bb8b b9bf
00000360: 1676 953f 8823 2f3f 53ab ed3f 1c7d cfbf
00000370: 3791 613f 60c6 d9bf 0b74 fd3f dcb1 2f40
00000380: 996d 3bc0 664c 03bf c971 c03f 7561 a63e
00000390: d28a 6ec0 92cb 813e 0d85 fabf 0240 1cc0
000003a0: 42eb 57c0 7e4e 09c0 2b62 ef3e faf2 3d40
000003b0: b697 3ac0 16c7 e13f 44cc d1bf 843c 3340
000003c0: f84b 8d3f 0d63 6140 28b6 88c0 136e 6dbf
000003d0: 9d60 93bf 2405 03be cdc1 aabf 62ca 02bf
000003e0: a57c 78bf bef2 4ec0 7a1f e3bf 5bec 143f
000003f0: 2392 aabf 41e1 95bf 3b86 4d3f 6a64 7a3f
3.2763815 1.4253386 3.2333674 -2.3342643 -0.72177655 3.3020632 1.4488101 3.467189
1.1517098 -1.2547824 -2.713683 3.0605485 -0.38793722 0.31630036 -3.311569 1.7785494
-0.090110146 -0.8605983 1.9407585 -2.504965 0.89490956 0.86123514 -0.1778655 -0.58895904
-1.3792285 -1.2416986 -3.1635017 -1.5012275 -2.846144 -1.7857267 -1.9486573 1.3899112
0.08478923 4.3226027 0.63770276 0.7060289 0.27703822 -1.4223459 0.37310475 -1.4132627
0.994125 0.39896852 -1.5578707 -1.6406826 -4.300718 -0.9110847 -2.7732105 -4.458026
-0.47183847 -0.88191646 0.082440466 -2.2022896 3.442797 0.43538746 3.8355982 -1.7694786
-0.5379269 2.8934393 0.13189436 0.58030695 -2.3041852 -1.6259841 1.4224546 -4.218569
-1.2934278 2.5411792 -2.8042338 -2.5661407 0.9631489 0.23270933 -4.7486258 0.91312873
0.35609317 -3.8821762 0.16736475 1.826178 2.6738992 -2.0906518 0.70713836 -1.1796093
3.7388334 -2.9196222 -0.51603836 0.9061977 -1.7370081 0.053900924 2.189535 0.77844703
-1.6478021 0.92651707 -2.0894368 -1.6130799 -0.049519032 2.5361624 1.0849638 -1.0726885
0.9834924 -1.2120298 -0.7695629 4.5577497 -0.52700716 -1.9051452 1.702812 -3.3646333
-2.0880444 -0.79947746 -0.49408427 0.9619974 0.3992907 -0.9104096 2.320776 4.42923
-2.880923 -0.118123494 -1.7381247 2.379145 -1.4862326 -1.9616597 0.30333745 -1.4853333
-3.1326067 3.1763005 2.6518538 2.1189764 2.3091145 2.1088576 0.20521738 -0.61702573
2.2716136 0.7332899 -0.21994878 -1.2897803 -0.76855004 0.45524344 -1.2223016 -2.3753412
1.06703 -2.5453792 3.575916 -0.91340655 -0.4699444 0.5821154 -4.252473 3.144642
2.8054287 3.4947057 -1.6603765 -2.4845357 -1.0567707 1.0582203 1.0754192 -1.5540967
1.0043195 -1.6640193 -1.2388082 -1.4252228 -2.8384886 -0.74077195 1.1602503 0.11381825
0.5560907 -2.6534517 0.42929462 -0.81086236 -1.6833377 0.15550117 -1.8415396 -3.1475565
3.9624298 -2.4613454 -0.6622111 4.025435 0.8300808 -2.2566934 1.8785889 1.0273705
-1.7409745 -0.66026634 0.12289702 1.3250419 -1.359321 -0.6074026 1.0072988 -2.0729291
0.1354324 -0.66045237 3.5508735 1.5747463 1.013988 2.0493822 -0.6997344 0.016188802
-3.338422 -1.8149954 -0.8394443 -3.8330367 -1.6319668 -0.26418436 0.8935578 -1.8160568
1.6577479 0.23218937 2.6002038 2.0107267 2.5598238 3.2731543 1.8370948 -1.0540204
2.8175712 4.3350787 -1.0895858 -4.0880957 -2.7863827 0.18483415 -1.9407508 -1.4495767
1.1676662 0.6841359 1.8567909 -1.6210055 0.88112205 -1.7013664 1.9801039 2.7452307
-2.9285643 -0.5128845 1.5034724 0.3249623 -3.727223 0.25350624 -1.9571854 -2.4414067
-3.373734 -2.1454158 0.46754584 2.967955 -2.9155097 1.7638881 -1.6390462 2.8005686
1.1038809 3.5216706 -4.272236 -0.92746085 -1.1513859 -0.1279493 -1.3340393 -0.5109006
-0.9706519 -3.2335658 -1.7743981 0.5817315 -1.3325847 -1.1709367 0.80282944 0.9780947

lstm.bias_ih_l0 f4 [256]
00000000: 8b40 683d 115d 9b3e 24af 033f 9f56 a93f
00000010: e57e 9d3f 10a7 4cbf cd0c 7a3f deb8 a03e
00000020: dec2 4dbf c691 163c 5993 ffbc d865 10bf
00000030: 8231 bb3f 6403 32bf e58f 38c0 63bc e6bf
00000040: d642 9d3f c302 3d3d 8e87 46be 6093 573e
00000050: 6d10 94bf 1864 6f3f 4a87 70bf b58e 22bf
00000060: 5b83 e83f df33 c5be 5c23 763d 4b80 c3bf
00000070: 56f9 42bf a68a c83e dd41 0ec0 2a75 09bf
00000080: c7e2 033f 7eb8 7abe 354f c6bf 307e cb3f
00000090: 1f57 f43e 3d5e d03d e6c7 51be 26de 853f
000000a0: 7e0d 4dbf 9d63 44be cf59 bd3f e4b3 b2bf
000000b0: ad76 bb3f 1e16 0ebf ca98 cdbe e0fc 7b3e
000000c0: 6a30 98be a4aa 3e3d 7903 d9bd 19b1 643f
000000d0: ceba dcbf 845c 29bf 671f 31bf faa5 30be
000000e0: e545 e8be f2f3 b8bf a648 c73c d267 0cc0
000000f0: 9bce 04bf 10dc 0abf 1d39 ec3f 0811 663f
00000100: 444d 5e3f d1ac 2cbe b279 d33f ac05 6dbf
00000110: ae20 49bf b772 443f 5680 e4bf f538 5a3f
00000120: 4f11 7c3e 55fb a83f 69f1 25bf ec6b 81bf
00000130: 5079 493f 2355 603f 80c4 3240 178d f63f
00000140: 99a5 0ac0 5267 60bf b45a cfbf 88e9 b1bf
00000150: 7135 c53e c2b6 783f 6d32 863f 684f 343f
00000160: 2148 7bbf 08af 52bf bc8a cabd a7c8 583f
00000170: f1d1 f3bc 8b09 2abf 2cb9 c1bf 392b 79be
00000180: efce 3c3f 9abe ee3f 83b1 d9be 007b 343d
00000190: 609b fabe 6e91 0cbf f7f8 24c0 e154 de3e
000001a0: f181 143e 2873 8ebf 8c6c 9b3f 2079 1d40
000001b0: daa9 40bf f9cc 14bf 7e1f c3bf 27b4 20be
000001c0: 1a16 b93f d9c6 c5be 83fe 123c 1d69 41bf
000001d0: c929 96bf b7d0 b1be 57b4 54be 3822 a63f
000001e0: a141 f3be fbe5 51bf af52 a13f 2d75 c43f
000001f0: 737d b0bf 3f2a 653e ce5d b63f 633d 6f3f
00000200: 31e4 6abf 3e11 9dbf 860b 43bf 67fa fabf
00000210: 7e37 9a3f 0c54 823f 5d1a d33e 5f52 f03f
00000220: 94a4 19c0 c178 52bf 92ba f3be 6610 ee3e
00000230: 2d10 b4bf 792a abbf eb9d 2bbf ac5c f8be
00000240: 683a b93d 7ee9 303f c6fb a63f 1b73 a3bf
00000250: 59cc 91be ed8e 9ebf b79c a23f da5d 1e3f
00000260: 73e9 7d3f d683 72be 1d6a 63bf af94 b23f
00000270: 7dd2 a8bf 6abd f7bd c80e 57c0 db95 b23f
00000280: 012d 97bd 4094 0c3f 3c77 2f40 2119 27bf
00000290: 2e8b 473e c1f9 de3f d90d 1b40 4ffb 44bf
000002a0: 8de3 d0bf d0b9 a6bd c14f a540 a331 6e3f
000002b0: a5ea 9bbf 72a3 cfbe 6f6e 15be 181d 43bf
000002c0: 209f dbbd 4c79 053e a1aa 7c3f 8f10 b53f
000002d0: 7b51 77bc 28f3 ea3f 0217 ff3f 6f2d 5cbf
000002e0: 90a5 173f 42b1 e9bf b1a6 c1bf 6cbf cb3e
000002f0: 78fa 60bd 9d91 a53f ec69 e2bf 60cf 84bf
00000300: 4f4b 8b3d 9168 e13d 0af1 30be 0ab3 923f
00000310: 5bc8 123e 57c1 e7be e718 743f f790 e93e
00000320: 6d7e c83d 652a 443f f11f afbf cf1d c2be
00000330: de4d 773e bd8e 1ebf c4aa 903f 401b 2540
00000340: 565a 4bbe 1fff 013f 4c55 073f 9c0b 963a
00000350: 965d a8bf 2735 60be 73b1 d63f d586 abbe
00000360: 54ce 643e 7bcc c1be 084f 2cbf 8005 ce3f
00000370: 3ccb e33e 3dd4 76bf a92d 543e d140 79bf
00000380: 7b4a febf aab4 1a3f 510d 943e 6cd1 4139
00000390: 3ca6 07bf dca2 0fbe 0051 7abf 932f 873f
000003a0: 7169 a03e 5f14 89bf 85c6 0ec0 e4db 67be
000003b0: dbfc 0d40 c3ac 51bd 2bb5 dcbe ae11 6c3f
000003c0: 2cdc 0840 b260 273e b1ae 9c3f 11eb 593e
000003d0: ceeb afbd b0a8 b8be e494 8f3e afc8 fd3e
000003e0: 904c 1b3f 2149 16c0 d04e 2ebf 5920 b43e
000003f0: 2110 69bf 3b02 c53f 1945 203f 26d7 a2be
0.056702178 0.30344442 0.5143912 1.322956 1.230435 -0.7994242 0.9767578 0.31391042
-0.8037547 0.0091900285 -0.03119819 -0.564054 1.4624484 -0.69536424 -2.8837826 -1.8026241
1.2286022 0.046145212 -0.19387648 0.21052313 -1.1567513 0.93512106 -0.93956435 -0.63499004
1.8165087 -0.38516137 0.060092315 -1.5273527 -0.76161706 0.3916828 -2.22277 -0.53694403
0.5151791 -0.2448444 -1.5492922 1.5897884 0.47722718 0.101742245 -0.20486411 1.0458419
-0.8009871 -0.19178624 1.4793032 -1.3961148 1.4645592 -0.555025 -0.4015563 0.24608183
-0.29724437 0.046549454 -0.105963655 0.8933273 -1.7244508 -0.6615679 -0.6918854 -0.17250815
-0.45365825 -1.4449446 0.024326634 -2.1938367 -0.51877755 -0.5424204 1.845493 0.8986974
0.8683665 -0.16862799 1.6521513 -0.9258678 -0.7856549 0.7673754 -1.7851665 0.8524316
0.24615978 1.32017 -0.6482149 -1.011106 0.78700733 0.8762991 2.7932434 1.9261807
-2.1663573 -0.87657654 -1.6199555 -1.3899393 0.38517335 0.97153866 1.0484139 0.70433664
-0.98156935 -0.82298326 -0.09889743 0.8468117 -0.029763194 -0.6642081 -1.5134635 -0.24332894
0.73753256 1.8651917 -0.42518243 0.044062614 -0.48946667 -0.5490941 -2.5776956 0.43424132
0.14502694 -1.1128893 1.2142501 2.460518 -0.7525917 -0.58125263 -1.5243986 -0.15693723
1.445987 -0.3862827 0.008971813 -0.75551015 -1.1731502 -0.3472955 -0.20771919 1.2979193
-0.47511008 -0.8199155 1.2603358 1.5348259 -1.3788284 0.22379397 1.4247377 0.93453044
-0.9175444 -1.2270887 -0.7618946 -1.9607667 1.2048185 1.0181899 0.4123105 1.8775138
-2.40067 -0.82215506 -0.4760328 0.46496886 -1.4067436 -1.3372337 -0.6703784 -0.48508203
0.09044343 0.6910628 1.3045585 -1.2769502 -0.28476217 -1.2387367 1.2704076 0.61861956
0.9918434 -0.23683104 -0.8883379 1.3951625 -1.3189236 -0.12096675 -3.3602772 1.3951982
-0.07381631 0.5491371 2.7416525 -0.6527272 0.19486687 1.7419969 2.4227202 -0.76945966
-1.6319443 -0.0814091 5.1659856 0.9304449 -1.2180983 -0.40554386 -0.14592908 -0.7621627
-0.1072371 0.13034552 0.9869786 1.4145678 -0.01509511 1.8355455 1.9928896 -0.86006826
0.59237003 -1.825722 -1.5128995 0.3979448 -0.054926366 1.2935063 -1.7688575 -1.0375786
0.06801473 0.110062726 -0.17279449 1.1460888 0.14334242 -0.45264694 0.953505 0.45618412
0.09789739 0.7662719 -1.3681623 -0.37913367 0.24150798 -0.6193655 1.1302114 2.5797882
-0.19858679 0.5077991 0.5286453 0.0011447552 -1.315356 -0.21895276 1.6772903 -0.33501306
0.22344333 -0.3785132 -0.6730809 1.6095428 0.44490993 -0.964176 0.20720543 -0.97364527
-1.986648 0.6043192 0.2891641 0.0001848393 -0.5298803 -0.1402697 -0.97779846 1.0561393
0.31330445 -1.0709342 -2.2308667 -0.22642475 2.218558 -0.05119015 -0.4310697 0.9221448
2.1384382 0.1634548 1.2240812 0.21281077 -0.08589898 -0.36066198 0.28043282 0.49567172
0.606637 -2.3482134 -0.6808901 0.3518093 -0.91040236 1.5391306 0.62605435 -0.3180477

lstm.bias_hh_l0 f4 [256]
00000000: 167b b63d 1bbc ad3e 0aa0 123f fd04 a33f
00000010: 5f73 973f 24a4 25bf e0c7 883f 97a3 6a3e
00000020: 366e 34bf 405c 3b3e 2eca babd bece 20bf
00000030: dac6 a83f 48cd 21bf 0121 30c0 e7f5 dfbf
00000040: 7642 8e3f 2597 f43d ea3f c3bd f2e7 673e
00000050: 71c7 89bf 8cc8 4a3f 8236 3fbf c746 43bf
00000060: 95ad d63f 19f4 bfbe 8a86 d43d 9108 bdbf
00000070: 9ad0 51bf 47ae 583e 85db 17c0 9692 05bf
00000080: 74fc d23e 3a27 82be abc4 c4bf c258 c03f
00000090: 9d52 cc3e a9b9 87bd c823 85be e9ef 883f
000000a0: 0e97 37bf ab60 30be d1b8 cb3f 0aa0 bbbf
000000b0: bfff bd3f 9e05 46bf 6c18 aebe 6f94 833e
000000c0: 6aab 8cbe 8b87 fa3d 493d 85be f055 8b3f
000000d0: 52dc c7bf 828c 46bf 2f91 33bf 0b24 87bb
000000e0: 0b77 07bf 78a6 c6bf 5928 b3bd f2fe 03c0
000000f0: 68da b9be 7b5d e9be 5df7 f63f 886b 793f
00000100: 14a9 4b3f 78d2 d4bd 2258 da3f 8271 75bf
00000110: b093 5dbf 83a6 223f a27a f3bf ef95 553f
00000120: b777 163e 99ab ae3f 17de 1bbf 133f 4ebf
00000130: 1a73 5f3f 47fa 6e3f e057 3440 594a ef3f
00000140: 9168 0ac0 7899 76bf 7460 dcbf c21b c4bf
00000150: b772 d63e 9546 663f 758d 9d3f fe14 2b3f
00000160: d50c 75bf 6a60 2ebf cc5b e4bd 35fe 663f
00000170: 187a 4abe 5b82 13bf 4cc3 cebf d471 95be
00000180: 8be5 5a3f a01d ee3f abdf c5be 1cf6 f63c
00000190: f1b3 0ebf 24e0 04bf 1f49 28c0 d014 2b3f
000001a0: 1542 4e3e 8ae9 72bf 10ba b03f 18ba 2140
000001b0: 78b0 4abf 312b 2fbf 241e bdbf 9e38 90bd
000001c0: 48b5 ba3f 5c89 70be 2add 473d 1fb5 1bbf
000001d0: 9bad 8fbf 64d7 85be b3f2 88be 7a80 ae3f
000001e0: b5c0 b5be 2fca 4cbf 0de9 ae3f 63b3 c13f
000001f0: 39d1 b6bf 47bd 703e 0861 b23f aea6 763f
00000200: 9745 65bf 1ac3 92bf 1cfd 6ebf ad75 edbf
00000210: 26cc b63f ddbe 583f b8e0 7f3e 5940 f53f
00000220: 9af4 15c0 0133 60bf 92e2 b2be 9284 073f
00000230: 9d45 9cbf 3d80 98bf 3152 39bf 8879 08bf
00000240: 72e2 2d3d a86a 1f3f c21f b73f c1f0 a0bf
00000250: 61d8 dbbe e956 91bf d1e6 a73f 58f8 263f
00000260: f700 4f3f 00d7 76be fd71 4ebf 8b59 af3f
00000270: db9d b8bf b596 fe3c 3a10 4cc0 453e b23f
00000280: f7d7 c4bd f26d a93e 7a70 2a40 9dbe 1abf
00000290: 0c57 163e 69de ea3f 1194 2140 51be 26bf
000002a0: 3392 e2bf 9dca 4fbe 8bde a140 964f 683f
000002b0: 556e 99bf 0515 6bbe c276 8ebe 244f 4ebf
000002c0: e131 03bd 8e00 303e 0774 983f 8b45 b83f
000002d0: 86ce 1cbe 70a6 f63f 3fc4 f93f 9fd0 38bf
000002e0: 4a1d 193f aab9 e4bf d958 b4bf b61b 8d3e
000002f0: b36a ed3d a5ee a03f 9620 edbf 97be 78bf
00000300: dc28 e8bc c55f 653e b917 f5bd 2c7a 8c3f
00000310: b50c 6e3e febd a4be d1d0 623f 5333 153f
00000320: 1e6f f33d e904 323f cfef b4bf 7da6 90be
00000330: 177e 933e 3301 29bf 3a53 953f 3e31 2140
00000340: 2d8e f9bc ffc7 133f 802e 193f 435d babd
00000350: 8652 b0bf 0fd6 89be 2de5 d63f 3f71 90be
00000360: f159 cd3e c735 9abe fae7 29bf 2211 cf3f
00000370: 4e1f eb3e e328 72bf c3de 233e 0e02 78bf
00000380: 2614 04c0 f408 c03e 2d62 a83e 61fa 07be
00000390: b949 1abf 7a00 74bd da15 7fbf a334 893f
000003a0: 4c79 5e3e 2d05 76bf b142 15c0 c41d 3fbe
000003b0: 713a 0b40 1beb ca3d f1ee e2be 64b6 623f
000003c0: c6e2 0240 2ad6 103e 4bc3 8b3f 217f 1a3e
000003d0: 390c 4bbd fad3 05bf 5c80 ac3e 49d3 1b3f
000003e0: 5e9e 253f 8357 1dc0 765f 3cbf 3159 883e
000003f0: c935 50bf 9f39 ac3f b775 4f3f 6806 dbbe
0.089101955 0.33932576 0.5727545 1.2735897 1.1832083 -0.64703584 1.0685997 0.22913967
-0.7048067 0.1829691 -0.09120594 -0.62815464 1.3185685 -0.6320386 -2.7520144 -1.7496918
1.1114032 0.11942891 -0.09533675 0.22647074 -1.076399 0.7921226 -0.7469255 -0.7627987
1.6771723 -0.3749092 0.10377224 -1.4768239 -0.81958926 0.21160232 -2.3727734 -0.521768
0.4120823 -0.25420552 -1.5372518 1.5027087 0.3990678 -0.06627209 -0.2600386 1.0698215
-0.71714866 -0.17224376 1.5915776 -1.4658215 1.4843673 -0.7735232 -0.34003007 0.25699183
-0.2747453 0.12232884 -0.2602332 1.0885601 -1.5614111 -0.7755815 -0.7014341 -0.0041241697
-0.5291602 -1.5519552 -0.0874793 -2.0624356 -0.36299443 -0.45579132 1.9294239 0.97429705
0.7955487 -0.10391706 1.7058146 -0.95876324 -0.8655348 0.63535327 -1.90218 0.83431906
0.14694105 1.3646117 -0.6088576 -0.80564994 0.87285006 0.9335064 2.8178635 1.8694564
-2.1626322 -0.96327925 -1.7216935 -1.5320971 0.41884395 0.8995145 1.2308794 0.66828907
-0.95722705 -0.68115866 -0.11150321 0.9023164 -0.19773138 -0.5762078 -1.615335 -0.29188406
0.85506505 1.8602791 -0.38647208 0.030146651 -0.5574332 -0.5190451 -2.629463 0.6682863
0.20142396 -0.948876 1.3806782 2.5269833 -0.7917552 -0.6842528 -1.4774823 -0.07042049
1.4586573 -0.23489898 0.048794903 -0.60823244 -1.1224855 -0.26140893 -0.26747665 1.3632958
-0.35498586 -0.7999601 1.3664871 1.513287 -1.42826 0.23509704 1.3935862 0.96348083
-0.8955931 -1.146579 -0.93354964 -1.8551537 1.4281051 0.84666234 0.24988067 1.9160262
-2.3430543 -0.87577826 -0.34938484 0.5293666 -1.2208744 -1.1914135 -0.7239104 -0.5331044
0.042452283 0.6227212 1.4306567 -1.2573472 -0.42938522 -1.1354648 1.3117315 0.6522269
0.8086085 -0.24105453 -0.8064268 1.3699201 -1.4423174 0.031077722 -3.1884904 1.3925253
-0.096115045 0.33091694 2.663115 -0.604471 0.14681643 1.8349124 2.5246623 -0.6513415
-1.7700866 -0.20292135 5.058416 0.9074644 -1.1986796 -0.22957237 -0.2782498 -0.8058951
-0.03202999 0.17187712 1.1910409 1.4396223 -0.15313157 1.9269543 1.9513015 -0.7219333
0.59810317 -1.786916 -1.4089614 0.27560204 0.11592617 1.2572829 -1.852557 -0.9716582
-0.028339796 0.22399814 -0.11967415 1.0974784 0.23247035 -0.32176203 0.8859988 0.5828144
0.11886428 0.6953874 -1.4135684 -0.2825202 0.28807136 -0.66017455 1.1666024 2.5186305
-0.030463303 0.57727045 0.5983658 -0.090998195 -1.3775184 -0.26921126 1.6788689 -0.282114
0.40107682 -0.30119154 -0.66369593 1.6177104 0.4592232 -0.9459364 0.16002946 -0.96878135
-2.0637298 0.3750683 0.32887402 -0.13279106 -0.6026874 -0.059570767 -0.9964272 1.0719188
0.21725959 -0.9610165 -2.3321955 -0.18663698 2.175442 0.09908124 -0.44322923 0.88559556
2.0450912 0.14144197 1.0918974 0.15087558 -0.049572203 -0.52276576 0.3369168 0.6086927
0.64694774 -2.4584663 -0.7358316 0.26630548 -0.8133207 1.3455085 0.81038994 -0.42778325

lin.weight f4 [8, 64]
00000000: e203 2c41 1fa0 d940 9fc4 c540 4db4 1c41
00000010: d7bd 19c1 fb24 9ec0 4353 5541 282b 08c1
00000020: 6b28 3640 00b3 0f41 5cf0 7340 c339 8041
00000030: 8441 3041 2f38 4f41 178e 4a40 0ae3 153f
00000040: 19bd 34c1 a321 5a40 226c 06c1 47d4 8940
00000050: 7023 c3c0 23b9 3141 88ce c1bf 765e c9c0
00000060: a425 1b41 1738 5b40 10c9 a040 3cad 86bf
00000070: edd9 0640 807a 57c0 cbc4 9dbf e07d 1fc0
00000080: 54fb b1bf f13e 92c0 b6dd ba3f 34b0 7ac0
00000090: 120e 0040 92d4 72bf 8f91 e53f 971d 5041
000000a0: 2bfd d140 4299 a1bf 0fa8 0440 731b 1240
000000b0: 343d d03f 3088 04c1 191a 0c41 baf8 0a41
000000c0: 3b58 7a40 d940 5cc1 78d4 8b40 4a76 77c0
000000d0: 0f19 8940 a046 1ac0 69dd 2cc0 3912 ad40
000000e0: 5228 30c1 1093 d3bf 5819 c33f f7a8 b0bf
000000f0: bada b0c0 5c9e 29c1 bd2b a33f a4d6 5540
00000100: 08a5 2241 57f5 df40 1f5b 8740 cddb 1441
00000110: 53c4 81c0 df68 8ec0 a333 a840 e665 f4c0
00000120: 6acc 9f40 8380 f540 9a06 bc40 4ec4 1841
00000130: 5f1d 2c41 bb4d 2041 fc5f 923f 1a98 80bd
00000140: d73a 32c1 0a00 b040 747a 06c1 d24a 8f40
00000150: 12dd a9bf c0fc 0c41 a7c2 5abf 0a7d 5ec1
00000160: b601 f540 e664 ce40 78c4 9f40 2d1f 41c0
00000170: 6a81 bc3f f18c 7bc0 4eaf bcbf 45c5 a9c0
00000180: ad30 ffbf 605e 80c0 0fde f13f cb71 82c0
00000190: 108c 0d40 0458 3cbf 381f 2640 dc4b 6441
000001a0: 3973 b540 5b82 23c0 bb54 de3f 0297 483e
000001b0: fda7 0540 f934 c5c0 871c 0641 12b9 0141
000001c0: 0779 ae3d 6c8f 14c1 0f64 1540 0add 6dc0
000001d0: 482c 153f fa98 0fc0 c103 3cc0 303c c440
000001e0: 591e 03c1 eba5 29c0 8481 d03f 0c36 49be
000001f0: 1033 63c0 fd1e 02c1 7a6b 9a3f b389 1640
00000200: 809e 0741 390d fc40 2ed9 5a40 6529 0741
00000210: c7c5 dec0 16a6 67c0 ed11 0941 4032 27c1
00000220: 3fd7 cf40 7360 4e40 6793 de40 233e 1841
00000230: b78d 2041 92bf 7041 ba82 da3f 6122 32be
00000240: 2a89 3ec1 74a4 7840 57e4 f6c0 4275 b940
00000250: e322 08bd 1e1a 2c41 a6ba ffbf a899 52c1
00000260: 16e6 1d41 8e69 0641 fa74 c240 1908 2cc0
00000270: eeb9 2e40 3d12 6bc0 b023 0ac0 286b 06c0
00000280: 4b67 6940 a7c9 87c0 e93b 1140 4ea0 34c0
00000290: a72a 4d40 1c53 5bbf d693 f13f 9832 0041
000002a0: 29ec d740 3e70 10c0 c777 a43f dda1 ff3d
000002b0: 8459 0f40 9356 c8c0 3c15 2541 6094 e240
000002c0: ca1e e43f 5392 7fc1 92c7 3a40 3a64 24c0
000002d0: 7357 a040 1b7e b6bf a593 02c0 3955 0c41
000002e0: 69fa 1ec1 0e7e 31c0 a379 003f 45f2 4840
000002f0: 4d65 8bc0 8880 e6c0 87cf d23f f38a 7440
00000300: d2c5 3f41 cff5 a840 f4bf d840 eb6d 0741
00000310: b515 24c1 56d6 f3c0 3ffd 1a41 b23c 10c1
00000320: ca08 d240 b518 fe40 9a26 bd40 b03c 2441
00000330: 5a6a 1c41 e4d4 6941 b29a d23f 34ff 10bc
00000340: 5d68 78c1 e580 4940 82ab 35c1 c55c 2340
00000350: 6f0b 143f 7def fd40 2b2b 6d3e 0ee0 0fc1
00000360: 2e81 2341 7b44 e340 7d99 b340 4c59 4bc0
00000370: 60b3 1d40 07c1 a0bf 9a60 a8bf 3006 c5c0
00000380: b97c 0fbf 5d68 7ac0 39ad 1040 61d8 2fc0
00000390: 5423 acbe e624 1cbd 29b8 3740 d26b a841
000003a0: 3945 a940 8ae9 d7bf 7dfa 0540 9126 d1be
000003b0: d4d0 5540 10dd c6c0 88c6 3f41 4b53 1141
000003c0: 7e4a 7d40 f7c5 6ec1 74b4 5a40 097d c2c0
000003d0: c9e3 c240 32b1 e7bf a2a6 01c0 0d89 5d40
000003e0: 398d 3cc1 a58b f8bf 372c cd40 187d abbf
000003f0: dfc6 5ec0 f765 1cc1 fb90 333f f187 9740
10.750948 6.800796 6.1802516 9.794019 -9.608848 -4.942014 13.332828 -8.510536
2.846217 8.981201 3.8115454 16.028204 11.015995 12.951217 3.1649225 0.5854956
-11.296166 3.408303 -8.4014 4.307163 -6.098076 11.107699 -1.5141153 -6.292781
9.69669 3.4252985 5.024544 -1.0521617 2.1070511 -3.3668518 -1.2325681 -2.4920578
-1.3904824 -4.5701833 1.4598911 -3.9170046 2.0008588 -0.94855607 1.7935046 13.007224
6.5621543 -1.2624896 2.0727575 2.2829254 1.6268678 -8.283249 8.7563715 8.685724
3.9116352 -13.765832 4.369686 -3.8665948 4.284309 -2.4105606 -2.7010138 5.4084744
-11.009844 -1.6529255 1.5242109 -1.3801564 -5.5267 -10.601162 1.2747723 3.3412256
10.165291 6.9986987 4.229873 9.303662 -4.0552154 -4.4503016 5.2563033 -7.637439
4.993703 7.6719375 5.875806 9.547926 10.757171 10.018977 1.1435542 -0.06279011
-11.139365 5.500005 -8.404896 4.4778833 -1.327059 8.811707 -0.85453266 -13.905527
7.656459 6.4498167 4.992733 -3.0175278 1.4726994 -3.9304774 -1.4740999 -5.3053308
-1.993673 -4.0115204 1.8895892 -4.0763907 2.2116737 -0.735718 2.5956554 14.26852
5.6703153 -2.5548313 1.7369608 0.19588855 2.0883782 -6.1627164 8.381965 8.107683
0.08519178 -9.285015 2.334232 -3.7166162 0.5827069 -2.243712 -2.9377291 6.132347
-8.194909 -2.6507518 1.6289525 -0.19649523 -3.5499916 -8.1325655 1.2064049 2.3521545
8.476196 7.876614 3.4195056 8.447606 -6.9616427 -3.619512 8.566876 -10.449768
6.495025 3.2246368 6.9554935 9.51517 10.034598 15.04677 1.7071145 -0.17395927
-11.908487 3.8850374 -7.7153735 5.7955637 -0.033236396 10.756376 -1.9978836 -13.162514
9.868673 8.40077 6.0767794 -2.6879942 2.7300982 -3.6729882 -2.1584282 -2.1002903
3.6469295 -4.243366 2.2692816 -2.8222842 3.2057283 -0.8567369 1.8873241 8.012352
6.747578 -2.2568507 1.2849053 0.12482045 2.2398386 -6.260568 10.317684 7.080612
1.7821896 -15.973224 2.9184308 -2.5686173 5.010675 -1.4257234 -2.0402615 8.770806
-9.936135 -2.7733188 0.501856 3.139787 -4.356116 -7.20319 1.6469582 3.8209808
11.985796 5.280006 6.773432 8.464335 -10.2553 -7.619914 9.686828 -9.014818
6.563573 7.940516 5.910962 10.264816 9.775965 14.614475 1.6453459 -0.008849908
-15.525479 3.148492 -11.354372 2.5525372 0.57829946 7.9354844 0.23160999 -8.992201
10.219038 7.1021094 5.6124864 -3.1773252 2.4640732 -1.2558907 -1.315448 -6.1570053
-0.56049687 -3.9126198 2.2605727 -2.7475817 -0.33620703 -0.038121127 2.8706152 21.052647
5.2897 -1.6868145 2.0934136 -0.40849736 3.3408709 -6.214485 11.98597 9.082835
3.9576716 -14.923331 3.417264 -6.077763 6.090306 -1.8100951 -2.0257955 3.46149
-11.784478 -1.9417616 6.4116473 -1.339755 -3.4808881 -9.774894 0.701431 4.7353444

lin.bias f4 [8]
00000000: db36 bfbe 1e06 ecbf ba79 60bf 2009 80bf
00000010: df80 d7bf 0319 c5bf 5016 19c0 85f5 08c0
-0.3734654 -1.8439367 -0.8768574 -1.0002785 -1.6836203 -1.5398258 -2.3919868 -2.1399853
