models/SimpleLSTM_FinalLoss_0.11093811956997775.pt (torch_old, 96208 bytes, 6 tensors)

lstm.weight_ih_l0 f4 [256, 25]
00000000: 6a01 d4bf 285e f43f f7b6 82be cda9 233f
00000010: a4f2 67bf fe74 793f 7705 863d 426e 04bf
00000020: 927e 91bf 7f8a f3bf 7c24 05c0 f86a 0dbf
00000030: ab09 cfbe 9886 0a40 809e 3640 ad5d 053e
00000040: 0734 97bf 6d88 323e f619 30b9 53e5 e13f
00000050: 4de6 07bf c430 98bf 4490 e83f ccb2 86bd
00000060: 24fc 08bf ade6 f0bf 4f17 b5bf 7878 10bf
00000070: de37 55bf b6b2 50bf b2e4 d53f 70ba babf
00000080: ac7d 8f3e 9f98 1b3f 4e4d 01be 479b 1bbf
00000090: 3a88 c7bf c3bb f13e 6bed da3e 8594 3c40
000000a0: 2747 4b40 f374 8e3f cb9a 783f de4e 2f3d
000000b0: 7ec2 543f e7d4 e8bf 8723 ffbf 2b98 16c0
000000c0: 1749 723f 5537 02c0 08cf 42bf 44c4 803e
000000d0: 4d20 68bf 532d 263e a983 08bf cebc 13c0
000000e0: 8df1 2a3f 18db 963e a3f0 69bf f90c 5bbe
000000f0: f08b b73e 37b3 2ec0 5d9c 7ebe e44b 18bf
00000100: ab42 933f b891 3240 5299 84c0 cf37 d33f
00000110: 3723 e03e 2cab 96bf 1538 863f b7e3 5ebf
00000120: 85a2 a5bf c34b f53f 9aba 5abf 164e 0240
00000130: 9d2d c03e 3515 03be eb81 1f3d c1a4 c6be
00000140: 42dd bf3e 0964 f93e 17cb d7bd 2fc1 a03f
00000150: e499 17c0 11e2 93bf f63b 93c0 e225 fa3e
00000160: 29b6 09c0 0d77 fbbf b580 c840 8fed c5bf
00000170: c65d f6bf fbb4 8f3f 8ae4 be3f 82ce 27bf
00000180: ad8b eb3f 5a8b 1e3e 539a 51bf ae45 dc3f
00000190: 3a02 913f 85a1 3b3f 83ea 503f 875d bd3d
000001a0: 91e8 3abf 22fc dcbc 65f3 b9bf 883f a63f
000001b0: 5eda c53d b106 2cc0 4b5f 3640 c948 b2bf
000001c0: 5380 0c3f f9d2 3a40 06e1 1d40 fdb0 9fbd
000001d0: 0608 f6bf 02e0 51bf 2430 2740 a10d 5ec0
000001e0: cfb8 12bf 67f3 5240 6200 cabe e56d 9ec0
000001f0: e38b f53f 3443 c83f 6a22 d5bf 38d1 1040
00000200: 31bf 25bf 6f9c 48bf bb84 76be 7860 5ebc
00000210: 8e26 9abf 0f3a e83f 0e50 f1be dcfb f3be
00000220: dfa6 2b40 23d1 98be a678 2ebf 7816 3a40
00000230: 3ebd 25bf 28e6 28bf ccf3 2640 e5ab e0be
00000240: d5d2 32bf 6bc0 16c0 c128 f43c c7c3 be3e
00000250: 4f6e ee3e 749a d73f ad07 153e c7dd 3fc0
00000260: 94f1 1440 3a4e 6a40 77ef 02c0 8874 8a3e
00000270: 2155 0940 b203 e3be ea5e 8b3f 1207 4a3e
00000280: c103 80c0 9a1e a2bf b1b6 d43f d004 093f
00000290: 96cc 1540 4920 1340 1ec3 f5bf ff64 e73f
000002a0: d79c 2340 2c15 e73e 562f 713f dc96 a13e
000002b0: 99bf 923f de75 debe 2ac8 503f 13a2 1dc0
000002c0: ef5d 3f3f be7b c840 5a83 22bf 1823 683e
000002d0: c5c8 96bf a791 41c0 517b e2bf 1bda 073f
000002e0: 4192 1340 c124 e53f 0653 cf3f b8f3 0abf
000002f0: b15b 17be 5bb5 b43d d3db 96bf daf7 903f
00000300: 57fe 983f 2789 f9bf 2a38 70bf fc7e 873f
00000310: c58d 26c0 3cb4 c63f d34f 2d3e 2eff 50c0
00000320: f8c4 e93f d414 fcbc d5aa 6840 9a1b f73f
00000330: a0f7 653c 7573 643f 8429 c63f d02b 8dbf
00000340: 7c8c 85c0 36e1 113f c555 313d ce59 9b3d
00000350: c2b2 e8be 3120 e0c0 5997 d53e 2178 10bf
00000360: e467 8a3e deff 0dc0 51bf 18c0 d3be 423f
00000370: 174e 0a40 c907 2e3f 35e6 2340 8db2 bb3e
00000380: 1e3c d2bf 0099 bfbd 7eb3 60bf 989c 633e
00000390: 45a6 e7bf 68ea 1d40 53a3 0a40 bc65 25bf
000003a0: 5e82 02bf 82b9 2ebf 511d 89bf 3ef9 9f3d
000003b0: acc8 a23f eb28 2a3f b203 473e 8652 5340
000003c0: 212c 92c0 b0a6 9b40 9218 cbbf 219c 5dc0
000003d0: fd58 863f 75d4 993f d2b1 b53f 411f 4540
000003e0: 4f2d f5be 046a 0bbf a794 c0bf 89cd 88bf
000003f0: 4d39 4440 8c3c 7f3e 7903 4a3e a8ec 653f
-1.6562932 1.9091234 -0.25530216 0.6393097 -0.90604615 0.9744414 0.06544011 -0.5173074
-1.1366751 -1.9026641 -2.0803518 -0.55241346 -0.40437064 2.164465 2.853424 0.13024016
-1.1812752 0.17434855 -0.00016794339 1.7648109 -0.53085786 -1.1889882 1.8169026 -0.065770715
-0.53509736 -1.8820397 -1.4147738 -0.5643382 -0.8328837 -0.8152269 1.6710417 -1.4588146
0.28025568 0.60779756 -0.12627146 -0.6078381 -1.5588448 0.47213563 0.4275926 2.946565
3.1762178 1.112944 0.97111195 0.042799823 0.8310927 -1.8189973 -1.9932717 -2.3530376
0.94642776 -2.0346272 -0.76097155 0.2514974 -0.9067429 0.16228227 -0.533259 -2.3083987
0.6677483 0.2946403 -0.9138281 -0.21391667 0.3584895 -2.7296884 -0.24864335 -0.594908
1.150472 2.790144 -4.143716 1.6501406 0.43776867 -1.1770988 1.0485865 -0.87066215
-1.2940222 1.9163746 -0.8544098 2.036016 0.375348 -0.12801059 0.03894226 -0.38797572
0.37473494 0.48709133 -0.10536783 1.2558955 -2.3687677 -1.1553365 -4.6010695 0.48857027
-2.1517432 -1.9645706 6.2657113 -1.5463122 -1.9247367 1.1227106 1.4913495 -0.6554948
1.8402001 0.15482846 -0.81876105 1.7208765 1.1328804 0.73293334 0.81607836 0.092463546
-0.7301112 -0.026975695 -1.4527403 1.2988138 0.09660791 -2.6879084 2.8495662 -1.3928462
0.5488331 2.9191267 2.4668593 -0.0779743 -1.9221199 -0.81982434 2.6123133 -3.4695818
-0.57313246 3.296106 -0.39453417 -4.950915 1.9183315 1.5645509 -1.6651127 2.2627697
-0.6474486 -0.783637 -0.2407407 -0.013572805 -1.2043016 1.8142718 -0.4713139 -0.4765309
2.68206 -0.2984706 -0.68152845 2.9076214 -0.64741886 -0.6597619 2.6086302 -0.43881145
-0.69852954 -2.3554943 0.02980459 0.3725874 0.46568534 1.684401 0.1455371 -2.9979112
2.3272448 3.6610246 -2.0458658 0.2704203 2.1458209 -0.44338757 1.088834 0.1972926
-4.0004582 -1.2665589 1.6618253 0.5352297 2.340612 2.2988455 -1.920017 1.8077697
2.5564477 0.4513334 0.94212854 0.3156041 1.1464721 -0.434493 0.81555426 -2.4630172
0.74752706 6.2651052 -0.63481677 0.22669637 -1.178002 -3.024515 -1.7693883 0.5306718
2.3058016 1.7901841 1.6197212 -0.54278135 -0.14781071 0.08823653 -1.1785835 1.1325638
1.1952618 -1.949498 -0.938357 1.0585628 -2.602403 1.5523753 0.16924982 -3.265575
1.8263235 -0.03077165 3.6354268 1.9305298 0.014036089 0.89238673 1.548142 -1.1028996
-4.173399 0.5698427 0.043294687 0.07585488 -0.4544888 -7.0039296 0.41717032 -0.564333
0.27032387 -2.218742 -2.386677 0.76072425 2.1610162 0.6798063 2.5609257 0.3665966
-1.6424596 -0.09355354 -0.87773883 0.22227705 -1.8097616 2.467432 2.1662185 -0.6460836
-0.50980175 -0.6825181 -1.0712072 0.07811211 1.271749 0.66468686 0.19435003 3.3019118
-4.567887 4.8640976 -1.5866873 -3.4626544 1.0495907 1.2017962 1.4194891 3.0800326
-0.4788613 -0.5445864 -1.5045365 -1.0687724 3.0659974 0.2492544 0.19727887 0.89814234

lstm.weight_hh_l0 f4 [256, 64]
00000000: 79c1 8340 cf6d 28bf be8d 6abf 5fb6 02c0
00000010: d647 c3bf d751 6040 96ca be3f 005b d23f
00000020: 04fb 823f 5018 2e3e ccd7 14c0 95f2 1640
00000030: e90a 98be c105 4a3f 35aa 15c0 4d7a e03e
00000040: fa30 bcbe 18d8 84bf d556 ff3f 346d 89bf
00000050: db9b 3b3f 5e3f d13e afb8 32bf 7058 2dbf
00000060: f547 6bbf 7e88 24bf d2ec 98bf 9f68 a9bf
00000070: 7f43 25c0 0477 5fbf 7d07 ffbf 4e13 e13f
00000080: 413a 153f d643 4d40 ed96 fe3e 6fc7 87be
00000090: bf3a 283f 6eb0 c6bf aa32 13bf 44da 51bf
000000a0: 2a86 d13f 9ce9 a33d c2a5 90bf 6b1e 6ebe
000000b0: 88ea 02c0 5f62 90bf 0b46 81c0 5d2d 1dc0
000000c0: ee9b 083d 5be7 a2bf 94e1 4dbf 96ca cdbe
000000d0: 9561 0d40 6591 dabe fb6e 3b40 4b29 ad3d
000000e0: 5eb3 a6bf 0bf9 2a40 af7f e33f 33c5 413f
000000f0: b3c8 42c0 32dd d1bf d680 7d3f c193 7cc0
00000100: 1d1c 93bf 6162 d73e 7741 cebf 1007 98bf
00000110: a889 e93f c5ca a23e f58e 6cc0 16a0 8e3e
00000120: bbd0 003f c3e6 00c0 609b c63d a0fd 1f40
00000130: ec8f d33f bd77 0ec0 6a0f 87be 31b9 85bf
00000140: 165d 4e40 3aa4 27c0 0efc 5dbf 43ec ad3e
00000150: 88a1 f2bf ec23 853f 6f81 b23f 6135 873f
00000160: 1b89 b73d bddf 24be b8ef 8abf f33d c2bf
00000170: cb18 b93d b163 7b3f 1bee 6f3e 5e70 99be
00000180: 92d8 243f 67af f0bf 8048 06bf 08c6 1440
00000190: cda9 6cbf 1251 dabe 24ba b13e d264 73bf
000001a0: 281f 7cbf 95cd 2cbf 3d51 d7be a009 063f
000001b0: 8bce abbe f3b6 29bf c5a8 2d3e 3913 9940
000001c0: e9a9 11c0 99e3 0ebf 4f35 4e3e 2d3b c73f
000001d0: 0756 6ebf 224e dabf 8aa7 89be 4dcb 14bf
000001e0: 2ab6 8cc0 69f3 0b40 adf6 af3f af44 893f
000001f0: 7ba5 0540 8039 f73f cda3 fa3e 7ecd e5bf
00000200: b3b9 f63f 6f8b 6b3f b6e4 44be 4248 663f
00000210: e207 cbbd cbc0 983f d599 66bf 636a 04c0
00000220: 65a3 55be aa36 13c0 0ada 3140 1b6d ca3d
00000230: 0e23 c6be 7e00 263f b27e 70c0 a85c 1040
00000240: 8688 7840 85d9 2540 45fa 1ebf e171 ebbf
00000250: bb10 11bf 2dbc 4e3f ad0a e33f af54 5fbf
00000260: 9af6 f13d 8562 98bf 732c dabe c489 74be
00000270: 7bae 21c0 648d 2dbd d6d2 133f 218b c33e
00000280: 074a 7abe 4121 d0bf e829 3b3e f1e1 583d
00000290: 413d e8bf 2e85 0e3f fb9c 53bd 00b6 36c0
000002a0: 8b5b 4940 f298 0fc0 91f4 5abf 3c05 3940
000002b0: ead3 5fbd ce99 6abf 87ad b53e bb3a 9e3f
000002c0: cde6 4fbf 4a7c 1e3f af8a ff3e ba01 ab3f
000002d0: c47f f9bf fc3d 3ebe e7fd a83f 6be6 15bf
000002e0: 20d0 20bd 0f19 4bbe 9641 2b40 7793 1b40
000002f0: 7f31 d73f 899f c7bd ab14 48bf 1d6f 19bf
00000300: baf7 24c0 21fd 13c0 9fb2 c3be 351f 4ec0
00000310: 6600 20c0 f1ea 873f c736 943e 7b2e dabf
00000320: a130 c43f db40 e7bd 0a4f b23f f383 4c40
00000330: bb89 863f baad 5f40 6ea0 d93f cdca 53bf
00000340: ed42 913f 5b72 8e40 28e9 21bf c8ac 3ac0
00000350: 0d8d edbf 2ce8 9dbe 4f99 b4bf 695a ba3e
00000360: 53e4 aa3f 9116 2c3f 24aa 353f 202b adbf
00000370: 8c79 123b 70a9 f4bf 6318 d23f ecf4 3d40
00000380: cda6 37c0 9e66 15bf d91b 1c3f 153b 943e
00000390: 1e22 52c0 f20f 0b40 6468 dfbf 9737 77c0
000003a0: db76 6cc0 0d9b 15c0 0fae 753d e6ea 2640
000003b0: 33ad 40c0 7d9d 933f c0ed 77bf 36fe a03f
000003c0: 76f7 ff3e a26a 1b40 a730 7ac0 8983 8c3e
000003d0: ad53 13bf 7987 7b3e 829b 56bf 5d1d 263e
000003e0: d181 1dbf 6e7c 4cc0 9c9f 11c0 e066 e13e
000003f0: e10e 28bf d173 7fbe c965 433e 0f51 6c3f
4.1173673 -0.65792555 -0.9162253 -2.042381 -1.5256298 3.504995 1.4905574 1.6434021
1.0232854 0.17001462 -2.3256712 2.358556 -0.29695824 0.7891503 -2.3385136 0.43843308
-0.36756116 -1.0378447 1.9948374 -1.0736451 0.7328469 0.40868658 -0.69813055 -0.6771307
-0.9190667 -0.6427077 -1.1947272 -1.3235053 -2.5822446 -0.8729098 -1.992416 1.7584016
0.58292013 3.2072654 0.49724522 -0.26519343 0.6571464 -1.5522592 -0.5749918 -0.8197367
1.6369069 0.08003542 -1.1300585 -0.23253791 -2.0455647 -1.128002 -4.0398 -2.4558938
0.03335183 -1.2726854 -0.8042233 -0.40193623 2.209081 -0.42689052 2.9286487 0.08455142
-1.3023489 2.6714504 1.7773341 0.7569153 -3.0434997 -1.6395628 0.99024713 -3.9465182
-1.1492954 0.42067245 -1.6113728 -1.1877155 1.8245134 0.31795326 -3.6962254 0.2785651
0.503185 -2.0140846 0.09697604 2.499855 1.6528296 -2.2260582 -0.26378947 -1.0447141
3.2244315 -2.6193986 -0.8671273 0.33969316 -1.8955545 1.0401587 1.394575 1.0563165
0.08961698 -0.16100974 -1.0854406 -1.5175155 0.09037932 0.9819899 0.23430674 -0.29968542
0.6439296 -1.8803529 -0.52454376 2.3245869 -0.92446595 -0.42639977 0.34712327 -0.95075715
-0.9848504 -0.67501193 -0.42054167 0.52358437 -0.33556017 -0.66294783 0.16958912 4.7835965
-2.2759955 -0.55816036 0.20137523 1.5564934 -0.9310002 -1.7055094 -0.26885635 -0.5812271
-4.397237 2.1867316 1.3747154 1.0724086 2.0882251 1.9314423 0.48953095 -1.7953336
1.9275421 0.92009634 -0.19227871 0.89954007 -0.09913613 1.1933836 -0.9007848 -2.0689933
-0.20863111 -2.3002114 2.778933 0.098840915 -0.3869862 0.648445 -3.7577329 2.2556553
3.8833327 2.5914013 -0.6210063 -1.8394128 -0.56666154 0.80755883 1.7737633 -0.8723859
0.11814614 -1.1905066 -0.42612037 -0.23880678 -2.5262744 -0.04237117 0.57743585 0.38192084
-0.24442302 -1.6260148 0.18277705 0.05294985 -1.8143693 0.55671966 -0.05166338 -2.8548584
3.1462123 -2.24371 -0.8552943 2.8909445 -0.054645456 -0.9164094 0.35483953 1.2361673
-0.8121155 0.619084 0.49910495 1.3359902 -1.9492116 -0.18578333 1.3202485 -0.58554715
-0.039260983 -0.19833778 2.675878 2.4308755 1.681198 -0.09747226 -0.78156537 -0.5993517
-2.57762 -2.3123248 -0.38222215 -3.2206547 -2.5000243 1.0618573 0.28948042 -1.7045435
1.532734 -0.11291667 1.3930371 3.1955535 1.0510782 3.4949784 1.7002084 -0.82731324
1.1348549 4.4514594 -0.63246393 -2.9167957 -1.855867 -0.30841196 -1.4109286 0.36397102
1.3350929 0.67221934 0.7096274 -1.3528786 0.002235028 -1.9114208 1.6413692 2.9680738
-2.8695557 -0.58359706 0.6097999 0.28951326 -3.2833323 2.1728482 -1.7453732 -3.862768
-3.6947544 -2.3375885 0.05998045 2.608087 -3.0105712 1.1532437 -0.9684715 1.2577579
0.49993485 2.4283834 -3.9092195 0.27444103 -0.57549554 0.24563397 -0.83831036 0.16222139
-0.6152621 -3.1950946 -2.2753668 0.440238 -0.65647703 -0.24946524 0.19081797 0.92311186

lstm.bias_ih_l0 f4 [256]
00000000: 12d5 693f 16cf d13e 076e 623d d454 5b3f
00000010: e9ff 0a3f 9827 5bbe 8209 403f f82d 373f
00000020: e429 11bf fb78 2fbe d410 af3d a983 b1be
00000030: 1fcd 153f c8a4 97be cbd8 1ec0 0cbf 9cbf
00000040: 4518 833e fa54 62bd f1d6 2bbe 041d 5b3e
00000050: 816b a4be 365c db3e ca1f 3fbf 1f27 a3bd
00000060: ae2f 893f 7617 f5bc f588 763c f5dc 92bf
00000070: 39bb f5be a68a d13d 94c6 b6bf 6d75 fa3b
00000080: b9fa 0f3f 08cf 56bd 070d adbf bbd0 6b3f
00000090: cafa 6dbc 8948 d53d 3489 72be 0f1d 593f
000000a0: 29f6 ddbe 43ce 7cbe d6f6 8d3f b975 37bf
000000b0: 02d9 613f 3dc1 28be e87e 6fbe fae4 553c
000000c0: c782 aabe 68a4 71bd 64b4 01bd 15ab 603f
000000d0: 69d6 a8bf 46ba 0cbe ad69 9abd 4f0a ebbe
000000e0: 45c3 fbbe 1400 40bf 1f19 6d3e 7ed1 b0bf
000000f0: 5257 66bf 31da 19be 4729 e83f 08d1 653f
00000100: 3f8e bc3e 487d 6c3d 5454 473f 820a 17bf
00000110: 979c 3bbf f032 403f b677 b8bf 8153 433f
00000120: aca4 a6bb 8616 573f 122e 15bf a59a 38bf
00000130: 9af8 c83e 3882 103f 2485 fa3f 9153 8c3f
00000140: 56c6 91bf 71c3 08bf 13d9 a3bf 21d1 4cbf
00000150: ef1c 5b3e 0745 093f b95f 1f3f 9f0b ba3e
00000160: c915 72bf 3d91 4bbf 3103 863e 8df8 863f
00000170: bd68 003e c257 65be cb67 65bf c3b0 0e3e
00000180: b0f7 033f 0d81 873f 6587 03be 3ab9 6a3e
00000190: f424 4dbe 6eb0 6dbe ccfc d8bf 6084 403d
000001a0: e316 093f 8a3d 47bf 9c12 4e3f 07db ce3f
000001b0: dc6c c5be 1979 35be 1b34 9cbf 57f8 72be
000001c0: dee5 513f 167a 28bf 33ea 0cbf 44d6 0abe
000001d0: 0f61 3bbf d86f f2be 6b34 8bbe fc89 5f3f
000001e0: ad8e 85be 5d3a 8dbe a674 853f 6574 b63f
000001f0: 4c00 0ebf 1954 6dbe ff35 a33f 0d16 613e
00000200: 708f 88bf 1d2e 6bbf f2af 0bbf 4863 a5bf
00000210: 5f55 4b3f 2018 413f 6eb2 de3e c33c 773f
00000220: 9085 dcbf 8992 00bf dbb0 d33d 8fc7 eb3e
00000230: 3590 d0be c8a2 a1bf b7a6 f0be f4b7 d1be
00000240: 0e01 293b c1d2 c53e 0441 233f c3a2 3cbf
00000250: 626e 8b3e af98 84bf d1cb 533f 6f84 683e
00000260: 6925 703f 5647 403e 5dab 1ebf 0471 533f
00000270: 0f4c 3dbf 3485 b6be 79aa 28c0 b900 6f3f
00000280: 56c1 58be f1aa db3e bb50 ec3f cc42 cdbe
00000290: 9df5 843e a4aa 733f f5f6 dd3f abb9 11bf
000002a0: 0499 63bf e16c 32be a893 7740 5ea0 613f
000002b0: c95f 89bf 9b4d 113e 5cd3 18bf d004 68be
000002c0: e1b2 c8bc 9c0e ccbe fa26 613f 3b5b 303f
000002d0: f9c0 82be 18c1 b23f eac7 b33f b195 5fbf
000002e0: 6cbc ab3e 7de0 afbf bf9d 87bf 39c7 d53e
000002f0: 5951 f23e 5493 8f3f dd70 79bf 6b93 5ebf
00000300: e228 883c f631 f03d 3fe9 c83d 0edf 863f
00000310: b67a 7dbd 5bfa 4bbe bc89 f63e bdc0 8b3d
00000320: 81bb 943d 03d8 043f 39fa 53bf 46c0 f6be
00000330: 2f6e b33e cb48 77be 5863 583f fbb5 dd3f
00000340: 89a3 5d3c 6000 943e 0384 f43e b652 263e
00000350: 6906 40bf 238e 163e f7e7 6b3f 6a66 a4be
00000360: 8bf6 18be a903 9c3d 72ec b1be 3d5f c73f
00000370: 5f0e 3a3e b4fc f3be de5a ca3c a986 2bbf
00000380: f3eb 97bf dde3 f43e b943 9e3e f31b 49be
00000390: 96d1 0fbf 71d1 dbbd d6c0 3fbf e228 4d3f
000003a0: ab25 ff3e 2319 68bf 0b3d f4bf cdb2 37be
000003b0: 1e5c ea3f e9e7 2cbd 000f 14bf 48a0 4f3f
000003c0: 590a ba3f 578b 3ebe 0115 4e3f 5e20 d43d
000003d0: b008 3a3d 3539 d7be 01d9 e93d 843b e83e
000003e0: 045c 8f3d 1d89 d8bf aa83 84be 3465 a33e
000003f0: 069d 2bbf 6d2f 883f 161d 2e3e a74a 353e
0.91340744 0.40978307 0.05528071 0.8567631 0.5429674 -0.21401823 0.7501451 0.7155452
-0.56704545 -0.17135994 0.085481316 -0.3467076 0.58516115 -0.29617906 -2.481982 -1.2245803
0.25604454 -0.05525682 -0.16781212 0.21397787 -0.3211327 0.4284379 -0.7465788 -0.07966446
1.0717676 -0.029918414 0.015047302 -1.1473681 -0.47994402 0.10231523 -1.4279351 0.007643393
0.5624195 -0.052443534 -1.3519601 0.9211537 -0.014525125 0.104142256 -0.23685151 0.84809965
-0.43351868 -0.24688058 1.1090953 -0.71664006 0.8822175 -0.16479965 -0.23388255 0.013055081
-0.333029 -0.05899468 -0.031666175 0.8776105 -1.3190433 -0.13742933 -0.07539687 -0.45906302
-0.49172416 -0.7500012 0.23154114 -1.3813932 -0.8997699 -0.1502464 1.8137597 0.8977208
0.36827275 0.057736665 0.7786305 -0.5900041 -0.7328581 0.75077724 -1.4411533 0.7629929
-0.0050855484 0.84018743 -0.5827342 -0.7211097 0.39252168 0.564487 1.9571881 1.0963002
-1.1388652 -0.5342322 -1.2800621 -0.80006605 0.21397756 0.5362095 0.62255436 0.3633699
-0.9456449 -0.7951849 0.2617431 1.0544602 0.12539954 -0.22396758 -0.896115 0.13934617
0.51549816 1.0586258 -0.12844618 0.22922221 -0.20033628 -0.23211834 -1.6952147 0.047001243
0.5355055 -0.77828276 0.80497146 1.6160592 -0.38559616 -0.17721976 -1.2203401 -0.23727547
0.81991374 -0.6581129 -0.5504486 -0.13558298 -0.73194975 -0.47350955 -0.2718843 0.8731992
-0.26085415 -0.2758359 1.0426223 1.4254271 -0.55469203 -0.23176612 1.2750853 0.21981068
-1.0668774 -0.9186724 -0.54565346 -1.2920923 0.7942714 0.75427437 0.43495506 0.9657709
-1.722826 -0.50223595 0.10336467 0.4605069 -0.4073502 -1.2627802 -0.47002193 -0.40960658
0.0025787982 0.38637355 0.6377108 -0.73685855 0.27232653 -1.0359095 0.82732874 0.2270677
0.93807083 0.18777213 -0.6198023 0.82594323 -0.7394418 -0.356485 -2.6354048 0.9336048
-0.21167502 0.42903855 1.8462137 -0.40090024 0.25968638 0.9518225 1.734099 -0.5692393
-0.8890536 -0.17424347 3.8683872 0.88135326 -1.0732356 0.1418976 -0.5969751 -0.22658086
-0.024499359 -0.39854896 0.879501 0.68889207 -0.2553785 1.3965178 1.4045384 -0.87337786
0.33542192 -1.3740383 -1.0595015 0.41753557 0.47327688 1.1216836 -0.9743784 -0.8694369
0.016621057 0.11728279 0.09810113 1.0536821 -0.061884604 -0.19919722 0.48151958 0.06823871
0.07262326 0.5189211 -0.82803684 -0.48193568 0.35045 -0.24148862 0.84526587 1.7321161
0.013527759 0.28906536 0.47756967 0.16242489 -0.7500978 0.14702658 0.92150825 -0.32109386
-0.14937799 0.076178856 -0.34750706 1.557594 0.18169545 -0.47653735 0.024701532 -0.6700235
-1.1868881 0.47830096 0.30911043 -0.19639568 -0.5617918 -0.10733307 -0.7490362 0.8014051
0.49833426 -0.90663356 -1.9081129 -0.17939301 1.8309362 -0.042213354 -0.5783539 0.81103945
1.4534408 -0.18607841 0.805008 0.10357736 0.04541844 -0.42035833 0.11418343 0.45357907
0.069999725 -1.6916844 -0.25881702 0.3191315 -0.67036474 1.0639473 0.17003283 0.17704259

lstm.bias_hh_l0 f4 [256]
00000000: 0320 723f 4c2e e43e 77be e83d eab2 4e3f
00000010: 6dd3 fd3e 6c6b 7cbd e28b 573f 5879 213f
00000020: 4eab efbe 2429 1e3b c09d d03c ed54 d2be
00000030: 0aef e13e 1a71 6ebe e769 16c0 90f8 95bf
00000040: 0731 0e3e 76a0 933c 67e2 8dbd f871 6b3e
00000050: cc8c 76be a827 923e 3dd2 0dbf 7274 54be
00000060: 49b5 6e3f 4420 a1bc a793 703d 6365 8cbf
00000070: a4b4 09bf d24b 9fbd 72f8 c9bf e4ee ba3c
00000080: 422d eb3e 2c25 7dbd 7d82 abbf 1987 553f
00000090: 79d7 bdbd 48d1 82bd 1985 95be 333e 5f3f
000000a0: c509 b3be 5dcb 68be 8c55 9c3f 374e 49bf
000000b0: aaeb 663f 963c c4be 407f 30be 3a4b c43c
000000c0: fdfd 9ebe 9c76 893c 4969 3ebe 5253 893f
000000d0: f1f7 93bf 34bc 80be 97f7 adbd 4bd7 94be
000000e0: 3037 11bf 2a65 5bbf 3932 f53d 0402 a0bf
000000f0: a476 3ebf ce48 82bd 1feb f23f 332d 793f
00000100: 2d48 973e 08c5 fa3d 9013 553f 4276 1fbf
00000110: 6f0f 50bf b266 1e3f 1e72 c7bf 6fb0 3e3f
00000120: 8a9c d5bd 7a76 623f 4e1b 0bbf a200 04bf
00000130: 9deb f43e 6227 1f3f 0fac fd3f ff10 853f
00000140: 0a4c 91bf 2bf5 1ebf 29df b0bf f935 71bf
00000150: f595 7d3e 20a7 ed3e a716 4e3f ed95 a73e
00000160: cdda 6bbf 9742 27bf af1d 7f3e 4013 8e3f
00000170: 2f60 2ebd 033d 0bbe 0e7d 7fbf e3eb b93d
00000180: 4f0f 223f 20e0 863f f2ca b7bd 167a 5c3e
00000190: a460 89be 32ed 4ebe e89b dfbf fce8 8f3e
000001a0: 1587 173f 8e41 1dbf f4af 783f 135e d73f
000001b0: 3e79 d9be f376 8fbe c132 96bf 5162 1abe
000001c0: 9e24 553f 1db7 01bf ceb8 02bf 24e4 3f3c
000001d0: 2f69 2ebf 3578 c6be d5cd a9be 4a47 703f
000001e0: 6c15 10be 4403 83be e40a 933f 9bb2 b33f
000001f0: 82a7 1abf 75c0 61be 3939 9f3f 8dbc 7e3e
00000200: e0bf 85bf 9091 56bf 9aa1 37bf 8ede 97bf
00000210: c340 823f 7c2e 153f 7094 8b3e 3b8c 803f
00000220: 2e26 d5bf 404c 0ebf 8b88 6b3e b560 063f
00000230: dbc4 62be 53f8 8ebf e306 06bf 244e eabe
00000240: 1707 3abd 09d7 a23e 928a 433f f39d 37bf
00000250: c9c2 023e 7ec1 6ebf a95f 5e3f ce77 853e
00000260: 0b3c 413f 1af4 3b3e a2b2 09bf bcfb 4c3f
00000270: cbe2 5cbf cf59 51be ebab 1dc0 8751 6e3f
00000280: a695 6fbe b2e3 573e 5544 e23f 028e b4be
00000290: c3b7 583e d3b9 853f a302 eb3f b9f8 e6be
000002a0: 1479 83bf aa6e 97be e6ae 7040 00bf 5b3f
000002b0: d9e3 86bf e8c2 a23e c8b4 3abf 0b67 8abe
000002c0: aeb6 4f3d 74cb b6be 38b3 8a3f d7c4 363f
000002d0: 1e6e c9be 5874 be3f 1c75 ae3f cb38 3cbf
000002e0: 50ab ae3e e5e8 aabf fc9a 74bf 4c26 973e
000002f0: 7ee4 243f 5cf0 8a3f 046f 87bf 7db2 4dbf
00000300: 104b a3bd 67c2 6c3e 1cdb 1a3e 20a6 803f
00000310: f222 df3c d1e9 8bbd 44f9 d33e 3b95 473e
00000320: d9a9 bf3d 3167 e53e 0d9b 5fbf 3448 c5be
00000330: 0745 cb3e 048a 90be 36b4 613f 23e2 d53f
00000340: f102 3a3e 7293 b73e e61b 0c3f 0eef 8f3d
00000350: 5df1 4fbf 3c31 c63d 3f4f 6c3f bc51 89be
00000360: 5171 e73c 2233 1d3e f41e adbe df6a c83f
00000370: 01b7 483e 48a7 eabe 2f17 b8bc 0d48 2abf
00000380: abc5 a1bf 15ff 7e3e 6d99 b23e 7aa2 a8be
00000390: 9e73 22bf b61f dabc 4085 44bf f432 513f
000003a0: 37f7 cd3e d5f8 4bbf a49d 00c0 f3f2 0ebe
000003b0: 2cd7 e43f 3f4e dd3d 242c 17bf 2a45 463f
000003c0: 4d17 ae3f a916 55be e33d 2c3f 4b9f 2a3d
000003d0: 5c69 a73d e21d 15bf fac5 2e3e ce0c 113f
000003e0: b3e9 e13d eba3 e6bf aaa6 a0be 1d3e 6f3e
000003f0: a0c1 12bf 54cd 5e3f bd70 b53e c7d8 893d
0.94580096 0.44566572 0.11364453 0.8074175 0.49575368 -0.061625883 0.8419782 0.6307578
-0.46810383 0.0024133408 0.025465846 -0.41080418 0.44127685 -0.23285332 -2.3502138 -1.171648
0.1388589 0.01802085 -0.069279484 0.22992694 -0.24077147 0.2854588 -0.55398923 -0.20747545
0.9324537 -0.019668706 0.058734562 -1.0968441 -0.5379126 -0.077781335 -1.5778944 0.02281899
0.45932966 -0.061803028 -1.3399197 0.8340927 -0.09269614 -0.063875735 -0.29203108 0.87204283
-0.3496839 -0.22733827 1.2213607 -0.7863497 0.90203345 -0.38327473 -0.17236042 0.023961652
-0.31053153 0.01678019 -0.1859485 1.0728552 -1.1560041 -0.25143588 -0.0849449 -0.29070505
-0.56724834 -0.8570124 0.1197247 -1.2500615 -0.7439978 -0.06361543 1.8978003 0.97334594
0.29547253 0.12244612 0.83232975 -0.6228982 -0.8127355 0.6187545 -1.5581701 0.74487966
-0.10430248 0.8846203 -0.5433854 -0.51563466 0.4783601 0.6216947 1.9818133 1.0395812
-1.135133 -0.62092847 -1.3818103 -0.9422298 0.24764235 0.4641657 0.80503315 0.32731572
-0.9213074 -0.65335983 0.24913667 1.1099625 -0.042572197 -0.13597493 -0.99800193 0.09078195
0.6330461 1.0537148 -0.089742556 0.21530947 -0.26831543 -0.2020767 -1.7469454 0.2810744
0.59190494 -0.61428154 0.97143483 1.6825584 -0.42475313 -0.2802044 -1.1734239 -0.15076567
0.83259 -0.50670034 -0.5106324 0.011712108 -0.6812925 -0.38763586 -0.3316485 0.9385878
-0.14070672 -0.2558843 1.1487699 1.4038881 -0.60411847 -0.22046073 1.2439338 0.24876614
-1.0449181 -0.8381586 -0.7173096 -1.1864793 1.0176014 0.58274055 0.27261686 1.0042795
-1.6652277 -0.555851 0.23001306 0.52491313 -0.22145407 -1.1169533 -0.5235426 -0.45762742
-0.045416918 0.31804684 0.76383317 -0.71725386 0.12769617 -0.93263996 0.86864716 0.26067966
0.75482243 0.18354836 -0.537882 0.80071616 -0.8628356 -0.20444416 -2.463618 0.9309315
-0.2339693 0.21082953 1.7677103 -0.35264593 0.2116385 1.0447334 1.836018 -0.45111635
-1.0271325 -0.29576617 3.760675 0.8583832 -1.0538284 0.31789327 -0.729321 -0.2703174
0.050711326 -0.35702097 1.0835943 0.71394104 -0.39341825 1.4879255 1.3629489 -0.7352416
0.34115076 -1.3352324 -0.9554899 0.29521406 0.6441115 1.0854602 -1.0580754 -0.80350477
-0.079733014 0.23121034 0.15122646 1.0050697 0.027238343 -0.06831706 0.41401112 0.1949052
0.09358568 0.4480529 -0.87345964 -0.3853165 0.397011 -0.28230298 0.88165605 1.6709636
0.18165185 0.3585468 0.5473007 0.07028018 -0.81227666 0.096773595 0.9230842 -0.2682017
0.028252276 0.15351537 -0.33812678 1.5657614 0.1960106 -0.4583075 -0.022471992 -0.6651619
-1.2638448 0.24901994 0.3488268 -0.3293646 -0.6345767 -0.02662645 -0.76765823 0.81718373
0.40227672 -0.7967656 -2.0096216 -0.13959865 1.7878165 0.1080594 -0.5905173 0.77449286
1.3600861 -0.20809425 0.6728193 0.04165582 0.081743926 -0.5824872 0.1706771 0.56660163
0.11030903 -1.8018774 -0.31377155 0.23363538 -0.573267 0.87032056 0.35437575 0.067308

lin.weight f4 [8, 64]
00000000: a424 d740 fff0 a740 53e2 7240 ceaf ac40
00000010: 778e cbc0 b5d3 6bc0 0786 2141 955d 6bc0
00000020: 7bd9 bc3e 1f43 d340 f0c4 9a3f 44ab 2d41
00000030: 5ac5 d540 50bf da40 6236 0b40 84e0 6c3e
00000040: 8a61 a0c0 a954 ea3f bea9 86c0 e13f 0340
00000050: 34f6 87c0 781e dd40 6e70 7cbf 600c 0ac0
00000060: 3ef0 ae40 1f5a 9b3f ceed 2a40 c1aa bebd
00000070: bed1 3c3f 1a7f 0cc0 918a b6bd a9f4 70bf
00000080: 3bcc bbbf dd14 22c0 fbf3 f7bb bf2a ccbf
00000090: 6556 4a3f 3a23 a2bf 7c4f b33e f892 0a41
000000a0: a4dc 9240 d3c9 a23b b796 543f cc5e a93f
000000b0: fa35 c93e 5612 a0c0 4db7 b340 459d 8b40
000000c0: 519e 3140 2f49 14c1 1d20 2340 52b5 c2bf
000000d0: 61d9 4740 6ed9 afbf 2933 d7bf 7858 3640
000000e0: f356 c4c0 6329 833d 6c80 86be a9e3 fcbf
000000f0: 51bb 28c0 aa1b cdc0 4527 df3e 00cd 0340
00000100: c909 b440 9430 aa40 0f74 ea3f a234 9f40
00000110: 36e1 42bf 71c5 46c0 f89d 0440 bcc4 4ac0
00000120: 9e79 1f40 d5db 9d40 e7b6 3f40 843f a940
00000130: 87bd d540 94b5 8f40 3d5e ca3e 636e 6dbc
00000140: f3fa abc0 2f2c 5140 2660 76c0 41e0 2040
00000150: c06c bb3e 6235 8340 46af a2be 2d27 1ac1
00000160: 663c 5440 8a8c 6840 ac42 2d40 5d59 06c0
00000170: 95a3 a33e 4925 2dc0 be18 e1be ee65 71c0
00000180: 0fcf 0ac0 88d9 13c0 e850 173f bd7e fabf
00000190: 0c7f 8a3f 1d92 80bf 855f 813f ddb8 0541
000001a0: ddaf 7340 3bb1 a5bf 2594 d13e b503 02bf
000001b0: c4e3 893f 33c4 48c0 191a 8f40 3bb1 8040
000001c0: 6a0e 46bf f8a5 c5c0 64ad 5e3f 5868 cabf
000001d0: 9cbb 42bf 2358 8abf 4002 01c0 8638 4a40
000001e0: 27cf 6bc0 168b 51bf d550 c63d cdb5 ddbe
000001f0: fdb3 8ebf c9e2 89c0 1f71 993e 172d be3f
00000200: d04a 8940 3b2e ab40 c81a 653f 41d5 7f40
00000210: 5327 6ac0 5412 26c0 889a 8340 1b47 a4c0
00000220: 74cc 8a40 045c 8e3e f7aa 8440 5a21 9940
00000230: 9985 ae40 e3ec 0841 ace5 853f ca65 aebe
00000240: 4593 d1c0 a515 f73f ed7d 50c0 d813 7a40
00000250: 83d5 bd3f 4beb c440 01e5 abbf 0890 09c1
00000260: 4dd9 b140 04c3 bd40 bfb4 7e40 fba0 e4bf
00000270: 6fe7 823f a587 1dc0 8a8a 85bf e09c cfbe
00000280: 6e1b 6a40 5474 16c0 41e5 4a3f 3c37 1ebf
00000290: 7534 f13f 8574 88bf d85b 113f 233f 7440
000002a0: 0445 9c40 6aaf 5abf 5747 403e 7ece 17bf
000002b0: 9bf7 9d3f d050 44c0 9e4e bd40 75b9 4a40
000002c0: 3430 3b3f 7d1b 5ac1 7327 a03f 52c5 19bf
000002d0: a40d 7640 af40 f3be 4b9f 74bf 4516 c340
000002e0: 3b8d a9c0 cc80 6abf f079 67bf 9208 2c40
000002f0: 3a5f eabf f465 67c0 e4d2 783f 7dc6 2340
00000300: b0bc ff40 3d92 6f40 37b2 8540 fbf0 7440
00000310: c816 f6c0 5a7f c2c0 1f01 ab40 2a1b 99c0
00000320: ef01 8040 2a66 cc40 6c1f 3340 1b75 a440
00000330: c8a2 b940 3f2f 1041 43dd 3b3f 179a b9bd
00000340: bd23 1cc1 2d1c ca3f fb10 d6c0 5923 903d
00000350: f770 ee3f ecf1 8b40 dec3 0a3f fd5a 87c0
00000360: 8ab0 b640 f511 8e40 92e5 3a40 e143 0bc0
00000370: dda9 903f 415a 123c 3600 7dbe 315a 96c0
00000380: 401b 20bf b89d f8bf 7a2e 6b3f b247 24bf
00000390: 2217 aabf e951 a7bc 0c94 973f 5169 4e41
000003a0: e8d1 5640 7084 0fbf 7b8f 5d3f c90d 82bf
000003b0: 6eb8 1540 10c5 4dc0 4a28 f040 33a7 8c40
000003c0: 8188 2d40 07e0 1ec1 72d8 c93f fc39 6bc0
000003d0: 135b a140 62ea 1bbf 9564 75bf 7473 483f
000003e0: 4b45 e5c0 2522 57bd 8ddf a040 8b1a 00c0
000003f0: f67c 7dbf ef0c c9c0 b8a0 c9bc 0b85 8240
6.7232227 5.2481685 3.7950637 5.3964605 -6.3611407 -3.6847966 10.0952215 -3.6775868
0.36884674 6.6019435 1.209135 10.854313 6.680341 6.8358536 2.1751943 0.23132521
-5.0119066 1.8307086 -4.2082205 2.0507739 -4.248804 6.9099693 -0.98609054 -2.1570053
5.4668264 1.2136878 2.6707644 -0.093099125 0.7375754 -2.1952577 -0.08913148 -0.9412332
-1.4671701 -2.5325234 -0.0075669265 -1.5950545 0.7903808 -1.2667 0.3502158 8.660881
4.5894337 0.004967907 0.8304247 1.3232055 0.39298993 -5.0022383 5.6161256 4.362948
2.7752879 -9.267867 2.548835 -1.5211585 3.1226428 -1.3738229 -1.6812488 2.8491497
-6.135614 0.06404378 -0.26269853 -1.9756976 -2.636433 -6.409627 0.43584648 2.0593872
5.6261945 5.31843 1.8316668 4.975175 -0.76124895 -3.1058009 2.0721416 -3.1682577
2.491798 4.933085 2.9955385 5.2890034 6.6793857 4.4909153 0.39525023 -0.01449165
-5.3743834 3.2683218 -3.8496184 2.5136874 0.36606407 4.1002665 -0.31774348 -9.634564
3.3161864 3.6335778 2.7071943 -2.0992043 0.3196074 -2.7054007 -0.4396419 -3.7718463
-2.1688879 -2.310152 0.5910783 -1.9569927 1.0820022 -1.004459 1.0107275 8.357633
3.8076088 -1.2944711 0.40933338 -0.50786906 1.0772634 -3.136975 4.4719357 4.0216346
-0.77365744 -6.17651 0.86983323 -1.5813093 -0.7606752 -1.0808147 -2.0157623 3.1597
-3.6845186 -0.81852853 0.09683386 -0.43302765 -1.1148678 -4.3089337 0.29969117 1.485751
4.2903824 5.3493934 0.8949399 3.997391 -3.6586502 -2.5948687 4.1126137 -5.13368
4.3374577 0.27804577 4.1458697 4.785321 5.4538083 8.557834 1.0460715 -0.34062034
-6.549227 1.930348 -3.257686 3.9074612 1.4830784 6.1537223 -1.3429261 -8.597664
5.557776 5.9300556 3.9797819 -1.7861627 1.0226878 -2.461404 -1.0432904 -0.40549374
3.6579242 -2.35085 0.79256064 -0.6180303 1.8844134 -1.0660559 0.5678077 3.8163536
4.8834248 -0.8542391 0.18777214 -0.5929946 1.2341188 -3.0674324 5.915847 3.1675694
0.7312043 -13.631711 1.2512039 -0.6006671 3.8445826 -0.47510287 -0.9555556 6.0964684
-5.29849 -0.9160278 -0.90420437 2.688023 -1.8310311 -3.6155977 0.97196794 2.5589898
7.991783 3.7433007 4.1780047 3.8272083 -7.690281 -6.078046 5.343887 -4.784566
4.000236 6.387471 2.7987928 5.139295 5.8011208 9.011535 0.73384494 -0.090625934
-9.758725 1.5789849 -6.689573 0.07037992 1.8628224 4.3732815 0.5420512 -4.229857
5.70905 4.439692 2.9202619 -2.176018 1.1301838 0.008932651 -0.24707112 -4.6985097
-0.6254158 -1.9423132 0.9186779 -0.641719 -1.328831 -0.0204248 1.1842055 12.900712
3.3565617 -0.5606146 0.8654706 -1.0160457 2.3393817 -3.2151527 7.504918 4.39541
2.7114565 -9.929694 1.5769179 -3.675414 5.0423675 -0.60904515 -0.958566 0.7830117
-7.1647086 -0.052522797 5.027289 -2.00162 -0.990188 -6.282829 -0.02461277 4.0787406

lin.bias f4 [8]
00000000: cbef 3d3e 78d9 4abf 6622 44be bf57 d6bd
00000010: 8d62 24bf 33c7 46bf d1f9 bdbf 5f52 cebf
0.18548505 -0.7923808 -0.19153747 -0.10465955 -0.64212877 -0.77647704 -1.4841863 -1.6118888
