models/SimpleLSTM_FinalLoss_0.21003304342390275.pt (torch_old, 96206 bytes, 6 tensors)

lstm.weight_ih_l0 f4 [256, 25]
0	0xc11a562a	-9.646036
1	0x41ad66b4	21.675148
2	0x419e8dab	19.819174
3	0x4180cf70	16.101288
4	0x3fdc4cd7	1.721095
5	0xc122d1ab	-10.176188
6	0xc0c58030	-6.171898
7	0x3f8084fb	1.0040582
8	0x40fbad88	7.864933
9	0x40971414	4.721201
10	0x423ca19d	47.157825
11	0x3ff8e5c9	1.9445125
12	0x41b03dd1	22.030184
13	0x3f23bd35	0.6396058
14	0xbf888cd6	-1.066798
15	0xc2347200	-45.11133
16	0xc2039c83	-32.902843
17	0xc14f2951	-12.947587
18	0x40f92e00	7.786865
19	0x4198387c	19.02758
20	0x41888107	17.063002
21	0xc103e225	-8.242711
22	0xc1e55dda	-28.670826
23	0xc1036915	-8.213155
24	0xc2247ce2	-41.121956
25	0xc031dae6	-2.7789855
26	0x3dee044f	0.116219155
27	0xc0893d20	-4.2887115
28	0x41ba9d13	23.326696
29	0xc032b28c	-2.7921476
30	0x4133e4d8	11.24337
31	0x3f468178	0.77541304
32	0x4198ae43	19.085089
33	0x406479a5	3.5699246
34	0xc0d2f834	-6.592798
35	0xc12f9b40	-10.975403
36	0x4105deee	8.366926
37	0xbfba3a9a	-1.4549134
38	0xc0d20ecb	-6.564306
39	0x3fa40ab8	1.2815771
40	0xbf786263	-0.97025126
41	0xc042e1b6	-3.0450263
42	0x3e99ed29	0.3006375
43	0xc1517331	-13.090623
44	0xc07a0c16	-3.9069877
45	0x412351e2	10.207491
46	0xbd0b71c6	-0.03404405
47	0x41478810	12.470718
48	0xc141857c	-12.095089
49	0x41c39d36	24.451763
50	0x422aac09	42.668003
51	0x41921c5e	18.263851
52	0x4042e180	3.0450134
53	0xc1c9423e	-25.157345
54	0x40ad9961	5.424973
55	0xc08ee7af	-4.4657817
56	0xc1be2217	-23.766645
57	0xc16004bc	-14.001156
58	0x41a27d22	20.3111
59	0xc106293d	-8.385068
60	0x4180afa1	16.085756
61	0x3ff16907	1.8860177
62	0x41b681ee	22.813442
63	0xc13bc518	-11.735619
64	0x3fa3101c	1.2739291
65	0xc108a643	-8.540591
66	0xc1acd8ae	-21.6058
67	0x3f2f1f84	0.68407464
68	0x408a16bb	4.3152747
69	0x40f44cb5	7.6343637
70	0x40d81397	6.7523913
71	0x4098a040	4.769562
72	0xc1dfa1ab	-27.95394
73	0xc100496e	-8.017927
74	0xc10f4d9b	-8.956447
75	0x41268dc9	10.4096155
76	0x4268f460	58.238647
77	0x41a27b12	20.310093
78	0x410c728c	8.777966
79	0xc08f26d6	-4.4734907
80	0x4100eb9e	8.057524
81	0x424349d7	48.82211
82	0xc187d4dc	-16.978935
83	0xc1603a3a	-14.014215
84	0x42100b38	36.010956
85	0x3ff7e9f8	1.9368277
86	0xc1c23971	-24.278048
87	0xc027543b	-2.614516
88	0xc181539a	-16.165821
89	0xc19d53c4	-19.665901
90	0xc057d838	-3.372572
91	0x4224d2fc	41.20604
92	0x41fdce11	31.725618
93	0x4107d09a	8.488428
94	0xbf83f06e	-1.0307748
95	0xc1828c2d	-16.318445
96	0xc07a5127	-3.9112031
97	0x421385b9	36.88059
98	0xc11bc25a	-9.734949
99	0x40f5e38f	7.684028
100	0x4185ab7a	16.708729
101	0x411793c1	9.473573
102	0x41939cc2	18.451542
103	0xbfd59dbe	-1.6688764
104	0x403d6f86	2.9599319
105	0x40e67034	7.2011967
106	0xbfbf4539	-1.4943
107	0x415fa766	13.978369
108	0xbfacb49b	-1.3492616
109	0x418f0593	17.877722
110	0x410864e3	8.524631
111	0xc0159b00	-2.3375854
112	0xbff308e6	-1.898709
113	0x4129fd96	10.624411
114	0x41b769d6	22.926678
115	0xc149f808	-12.6230545
116	0x40e5e56b	7.184255
117	0xc1582fde	-13.511686
118	0x3f895516	1.0729091
119	0x408e71a0	4.4513702
120	0xbf72493a	-0.94642985
121	0x40d48d86	6.642276
122	0x41416f5c	12.089687
123	0x413e9677	11.911735
124	0x40bcda9b	5.901685
125	0xc1461406	-12.379889
126	0x3fd12285	1.633866
127	0x41dd4492	27.658482
128	0xc1ab586f	-21.41818
129	0x41633173	14.199573
130	0x4158b728	13.544716
131	0xc024f240	-2.5772858
132	0xc000b4ad	-2.0110276
133	0x412ae052	10.679766
134	0xc06918bd	-3.642135
135	0xc184dce4	-16.607857
136	0x3fa724d2	1.3058112
137	0x419dd1f0	19.727509
138	0x4166a11b	14.414332
139	0xc145b4bf	-12.356627
140	0x4084d696	4.1511946
141	0xc11aa326	-9.664831
142	0xc1636d15	-14.214131
143	0x40b82d75	5.755549
144	0x40fc2fa6	7.8808165
145	0x41ade517	21.73686
146	0xc0cf4619	-6.477307
147	0x40e3e2fa	7.121457
148	0xc15ba0c5	-13.72675
149	0x42268f86	41.64016
150	0xc0fa5ea4	-7.824053
151	0xc18e5bf6	-17.794903
152	0x417c1cac	15.757
153	0x419d066d	19.628138
154	0x3f911657	1.1334943
155	0x40418b1d	3.0241158
156	0x40f673b2	7.701623
157	0x40deeafd	6.966185
158	0x410c6435	8.774465
159	0x3f804bc2	1.002312
160	0xc1bcae05	-23.58497
161	0x412ded1e	10.87039
162	0x4100b901	8.045167
163	0x41137941	9.217103
164	0xc1c609b8	-24.754745
165	0xc092c73f	-4.586822
166	0xc049e048	-3.154314
167	0x41ba114b	23.258444
168	0xc1774ce1	-15.456269
169	0xc0536587	-3.3030717
170	0x419d7fad	19.687342
171	0xc24daca6	-51.418602
172	0xc099e938	-4.809719
173	0xc0fd591f	-7.917129
174	0xc16c70ae	-14.77751
175	0xc13e3d73	-11.890002
176	0xc0ed0e19	-7.407971
177	0x40c8ce85	6.27521
178	0x41806f99	16.054491
179	0xbfdcf4b5	-1.7262179
180	0x40f7e019	7.7461057
181	0x41bb46f7	23.40965
182	0x414504cb	12.31367
183	0x40ba4f24	5.8221607
184	0xc0827691	-4.0769734
185	0xc138ba30	-11.545456
186	0x3f1d1316	0.6135725
187	0x40c3959f	6.1120143
188	0x411f4727	9.954871
189	0x411838f6	9.5139065
190	0x4129b1c4	10.6059
191	0xc0350bcd	-2.8288453
192	0x3f0e8281	0.55667883
193	0x413763bf	11.461852
194	0xbdb0f18b	-0.08639821
195	0x41416805	12.087895
196	0xc15c4956	-13.767904
197	0x415f19ab	13.943767
198	0xc090dcc9	-4.5269513
199	0xc1323c41	-11.13971
200	0x405aee9b	3.4208133
201	0x40fd8456	7.9224043
202	0x40a806f3	5.2508483
203	0xc1a81d07	-21.014174
204	0x406cd845	3.7007
205	0xbf263ffa	-0.6494137
206	0x41578187	13.469123
207	0xc103a3a6	-8.227453
208	0xbfdaae02	-1.7084353
209	0xc1e4922b	-28.571371
210	0xbef5fd39	-0.48044756
211	0xc216dbfc	-37.71483
212	0x40b56202	5.668214
213	0xc253f52c	-52.989426
214	0x425a4a15	54.572346
215	0xc1518ab9	-13.096368
216	0xc0d0d35c	-6.5258007
217	0xc0e92981	-7.2863164
218	0xc088d462	-4.2759256
219	0x4191b14c	18.21157
220	0x41a4a217	20.579145
221	0xc12945ee	-10.579573
222	0xc19e79b3	-19.809423
223	0xc1dfc097	-27.969038
224	0x41182db0	9.511154
225	0xc11b88ce	-9.7209
226	0x411ea891	9.916154
227	0x41e3df56	28.48405
228	0x405a4d90	3.410984
229	0x401ad03e	2.41896
230	0x402f8ca2	2.7429585
231	0x41bf3e19	23.905321
232	0x4153d0d5	13.238484
233	0xc229845b	-42.379253
234	0xbff3134f	-1.8990268
235	0x4025c885	2.5903637
236	0xc1d198fa	-26.199696
237	0x3c90cb76	0.017675143
238	0xc1bf3aad	-23.90365
239	0x412a451d	10.641873
240	0xc1625204	-14.145023
241	0xc1849252	-16.571445
242	0x3fb2a50e	1.3956621
243	0x420813dc	34.019394
244	0xc211cf9f	-36.452755
245	0x413558a9	11.334146
246	0xc18fec58	-17.990402
247	0x41fb2f15	31.39799
248	0x41ae72e9	21.806108
249	0xc1750f67	-15.31626
250	0xc176000a	-15.37501
251	0xc1102561	-9.009126
252	0x415a8b21	13.658967
253	0xc1b6236d	-22.767298
254	0x42ad1da4	86.55789
255	0xc15b2bfa	-13.698236

lstm.weight_hh_l0 f4 [256, 64]
0	0xc2e851df	-116.159904
1	0xc08aa2ee	-4.332389
2	0xc21768fa	-37.852516
3	0xc11f3199	-9.949609
4	0x41642d4e	14.261061
5	0x41251020	10.316437
6	0x412b6fa3	10.714755
7	0x3fffb3f4	1.9976792
8	0x41ca497f	25.285887
9	0x4000fb28	2.0153294
10	0xc05ef9be	-3.483993
11	0x414c601a	12.773462
12	0x41abfea7	21.499342
13	0x4196b8eb	18.840292
14	0x4214e8ec	37.227463
15	0x40949470	4.64312
16	0x409f6382	4.980897
17	0xc21e909c	-39.64122
18	0x41fad01c	31.351616
19	0xc1ee417c	-29.781975
20	0x40cebed4	6.4607944
21	0x41067345	8.403142
22	0x41cfd3c9	25.97841
23	0xbf0fe7d6	-0.5621313
24	0x4074a426	3.8225188
25	0x41cda1d6	25.704021
26	0xc04f59af	-3.2398489
27	0x40188961	2.383385
28	0x40c12c10	6.0366287
29	0xc08c68d8	-4.3877983
30	0x4138f373	11.559436
31	0xc12e2356	-10.883627
32	0xc070ebe7	-3.7643983
33	0xc0b719c0	-5.7218933
34	0x40a78635	5.2351327
35	0x3f986236	1.1904972
36	0x3fdfa412	1.7471945
37	0x3f8cfafe	1.1014097
38	0xc1a957ff	-21.167967
39	0xc0cd8c46	-6.423373
40	0xc1757f06	-15.343512
41	0xc0956cdf	-4.66954
42	0x420e9fed	35.656178
43	0xc11579ca	-9.342234
44	0xc2507ff0	-52.12494
45	0xc188d759	-17.10515
46	0xc162b3ac	-14.168865
47	0xbf71cdcf	-0.94454664
48	0x3f4d7dd2	0.8027011
49	0x41f2bb30	30.3414
50	0x40969013	4.705087
51	0xc1decdf4	-27.850563
52	0xc0f60d0f	-7.689094
53	0x42054008	33.31253
54	0xc1e91790	-29.136505
55	0xc187e0fb	-16.984854
56	0x41033381	8.200074
57	0x40323698	2.7845821
58	0xc0694586	-3.6448684
59	0xc2143cfd	-37.05956
60	0xc1a7f3d9	-20.994066
61	0x42030ca7	32.762356
62	0x40439a02	3.056275
63	0xc191af19	-18.210497
64	0x409fa041	4.9883122
65	0xc1c0b8b8	-24.090195
66	0x402218a4	2.532754
67	0xc1726705	-15.150151
68	0xc180aa6b	-16.083212
69	0xbff2a94a	-1.8957913
70	0x40d89e4a	6.7693224
71	0x3faab2cc	1.3335814
72	0x41803656	16.026531
73	0xc117fdad	-9.499433
74	0x406ceab2	3.7018247
75	0x4089f9e1	4.311753
76	0xc0d418c4	-6.628023
77	0xbf105480	-0.56378937
78	0x3f3a5be6	0.72796476
79	0xc12cdd65	-10.804051
80	0xbf72be69	-0.9482179
81	0xc0c2ad0f	-6.0836253
82	0xc0a8ced7	-5.275249
83	0xc015383d	-2.3315575
84	0x40bfba65	5.9915032
85	0x401fb39e	2.495338
86	0xbf561394	-0.83623624
87	0x3f8f0e35	1.1176211
88	0xc1230c31	-10.190476
89	0xc1b11b55	-22.138346
90	0x40e81b7d	7.2533555
91	0xc109cb17	-8.6120825
92	0x40a42c3a	5.1303988
93	0xc113afff	-9.230468
94	0xc1ad705d	-21.679865
95	0x412c4d91	10.768937
96	0xc18a9c3b	-17.326284
97	0x3fbe0821	1.4846231
98	0xc0c9d47e	-6.307189
99	0xbd95f6bf	-0.07322454
100	0xc19a4177	-19.281965
101	0xbfaeb027	-1.3647507
102	0x4171c140	15.10968
103	0x3e953ed8	0.29149508
104	0xc023ce25	-2.559457
105	0xc188bf4b	-17.093405
106	0x40cffaad	6.49935
107	0x41058828	8.345741
108	0xc166edef	-14.433089
109	0x419ce962	19.613956
110	0x40168ca6	2.3523345
111	0xc1ab4822	-21.410221
112	0xc0f43de5	-7.6325555
113	0x413a0bc6	11.627874
114	0xc1093e3a	-8.577692
115	0x401d83a9	2.461161
116	0x3f149f55	0.5805562
117	0xc09256f5	-4.573115
118	0x40488883	3.133332
119	0xbf66f187	-0.9021229
120	0x3ffd5fcc	1.979486
121	0x3e949877	0.2902257
122	0x41490bd6	12.56539
123	0xc0ea1f53	-7.3163238
124	0xc1ede699	-29.737597
125	0x41ae60fc	21.797356
126	0xc153e6bc	-13.243832
127	0x3f86cbf7	1.0530995
128	0x41e52136	28.641216
129	0xc195e5ea	-18.737263
130	0xc19197ab	-18.199057
131	0xc0d27528	-6.5768013
132	0x41331e6d	11.194928
133	0xc0c96237	-6.293239
134	0xc21262b7	-36.5964
135	0x3fe5dda9	1.795827
136	0x4119719d	9.590238
137	0xc1cbcca4	-25.474922
138	0xbf64e733	-0.8941528
139	0x4122b0aa	10.168131
140	0x4141c743	12.111148
141	0x40a22e37	5.0681415
142	0xc21545ce	-37.31817
143	0xbe3d0785	-0.184599
144	0xc124a396	-10.289938
145	0xc168333d	-14.512509
146	0xc0966268	-4.6995125
147	0x407a6322	3.9123006
148	0xc044997b	-3.0718677
149	0xc1ea3810	-29.277374
150	0x40d01bc5	6.50339
151	0x41d611c0	26.758667
152	0xc1a4e616	-20.612347
153	0xc0a18b28	-5.048237
154	0x4152a247	13.1646185
155	0xc1b7160f	-22.88577
156	0x413455b2	11.270922
157	0x3e49e8a5	0.19717653
158	0x3e55729f	0.20844506
159	0x410171f9	8.090325
160	0x40b8b0fa	5.7716036
161	0xc181c44d	-16.22085
162	0xc0d0cf37	-6.525295
163	0xc12ff767	-10.997901
164	0xbd76749e	-0.06016981
165	0x401ab4d9	2.417288
166	0xc0f7a715	-7.7391458
167	0x40177472	2.3664823
168	0xc184ce6e	-16.600796
169	0xc1bdc5d0	-23.721588
170	0x41ab480b	21.410177
171	0x40cba15a	6.363446
172	0x41098415	8.594747
173	0x413ff007	11.9961
174	0x4147532b	12.457805
175	0x41b6a5f9	22.831041
176	0x414a2221	12.633332
177	0x40a88fc8	5.2675514
178	0xc1ad765e	-21.682796
179	0xc04c94a3	-3.196572
180	0x418a2b0d	17.27102
181	0xc112793a	-9.154596
182	0xc0d46e59	-6.63847
183	0xc18d3088	-17.648697
184	0xc099786b	-4.7959495
185	0x419c5895	19.543253
186	0xc1e3b663	-28.464056
187	0xc1017860	-8.091888
188	0x40ec90fc	7.3926983
189	0x40873e12	4.226327
190	0xc14b9c66	-12.725683
191	0xc1556d70	-13.339218
192	0xc23ab293	-46.67439
193	0x41c34e0c	24.413109
194	0x420ba82b	34.914227
195	0x413299b9	11.16253
196	0x41e2481f	28.285215
197	0x41c3ba5c	24.465996
198	0xc226be5c	-41.685898
199	0x41cea607	25.831068
200	0xc058d343	-3.3878944
201	0x4189fe84	17.249275
202	0x423d86ad	47.38152
203	0x41d3b7a7	26.464674
204	0x40b333b9	5.600064
205	0xc1fbf41b	-31.494192
206	0x4072b0e8	3.7920475
207	0x41a7c659	20.97185
208	0xc2294c83	-42.32472
209	0xc1823645	-16.276499
210	0xc109c2ae	-8.610029
211	0xc248f62a	-50.240395
212	0xc1b95555	-23.166666
213	0xc132ebb9	-11.182549
214	0x4239897a	46.384254
215	0x3ffa39a1	1.9548837
216	0xc05f7f47	-3.4921434
217	0xc1dbbebf	-27.468138
218	0xc113f0b5	-9.246266
219	0xc1e8d269	-29.10274
220	0xc23bf878	-46.992645
221	0xc0acc41a	-5.398938
222	0x4182c5a2	16.3465
223	0x41c9f66b	25.245321
224	0xc209b8d2	-34.43049
225	0xc1ee675b	-29.800467
226	0xc1ee08a9	-29.754229
227	0x429b7845	77.7349
228	0x41b6924b	22.821432
229	0xc07c969e	-3.946693
230	0x420a3fa7	34.56216
231	0x42427c18	48.621185
232	0xc2f7c854	-123.891266
233	0xc1eddd79	-29.73314
234	0x41f71b93	30.888464
235	0xc1e80038	-29.000107
236	0x406ec430	3.7307243
237	0xc22cd179	-43.204563
238	0x41ea01f8	29.250961
239	0xc1b13790	-22.15213
240	0x42b4a0b0	90.31384
241	0x40dcc1fd	6.89868
242	0xc1d6813f	-26.813108
243	0x41a11434	20.134865
244	0xc2695de7	-58.3417
245	0xc12b1692	-10.69301
246	0x41bc6218	23.547897
247	0xc23928fd	-46.290028
248	0xc0fd86c9	-7.9227033
249	0xc1de0de9	-27.756792
250	0xc21cc64f	-39.19366
251	0x41dcbf3a	27.593372
252	0xc1c5313c	-24.64904
253	0x400fb2fd	2.2452996
254	0xc2d45136	-106.158615
255	0x411e2e13	9.886249

lstm.bias_ih_l0 f4 [256]
0	0xc223be96	-40.93612
1	0x3ee959ab	0.45576224
2	0xc1acb874	-21.590065
3	0xc185b3c5	-16.712778
4	0x3e461999	0.19345702
5	0xc1ff86b9	-31.940783
6	0xc2035b92	-32.839424
7	0xc09eebce	-4.9662848
8	0x418d2963	17.645208
9	0xc135044d	-11.31355
10	0xc2505b9d	-52.089466
11	0xc208abb7	-34.16769
12	0xc1d22b76	-26.271221
13	0xc09d5d11	-4.9176106
14	0xc20db710	-35.428772
15	0x3fcbb946	1.5915916
16	0xc20f012b	-35.75114
17	0xc1a90fb1	-21.132662
18	0x4046cd82	3.1062932
19	0xc197a90d	-18.957544
20	0xc1de1563	-27.760443
21	0xc168f5fe	-14.560057
22	0xbff3ddb9	-1.9052039
23	0xc1dd55f0	-27.666962
24	0xc181cc15	-16.22465
25	0xc204e186	-33.220238
26	0xc23107e9	-44.257725
27	0xc118fb83	-9.561404
28	0xc2057b69	-33.370518
29	0x408d1ef1	4.410027
30	0xc2116c1a	-36.355568
31	0xc283ab8f	-65.835075
32	0xc19b0583	-19.377691
33	0xc1f859b6	-31.043804
34	0xc12e5806	-10.89649
35	0xc205a738	-33.4133
36	0xc19a0023	-19.250067
37	0xc0e38c52	-7.110879
38	0xc2281318	-42.018646
39	0xc131de78	-11.116814
40	0xc1ba59a9	-23.29378
41	0xc1c05a09	-24.043962
42	0xc1bce596	-23.612103
43	0xc1b32234	-22.3917
44	0x41b9f535	23.24473
45	0xc1ecdca1	-29.607729
46	0x3f0242b3	0.50883025
47	0xc0d696ab	-6.705892
48	0xc1d74558	-26.90886
49	0x417d6a62	15.838472
50	0xc1870374	-16.876686
51	0xc1385c4e	-11.522535
52	0x4127361b	10.450709
53	0xc075fafe	-3.8434443
54	0xc24e0a20	-51.509888
55	0xc28f57fd	-71.67185
56	0xc1ab9afb	-21.450674
57	0xc0c57e3c	-6.1716595
58	0xc1ab61f1	-21.422823
59	0xc1d06aaf	-26.052092
60	0xc2242ec1	-41.04566
61	0xc1260248	-10.375557
62	0x40c849eb	6.259023
63	0xbebad87a	-0.36493284
64	0x412cbf40	10.796692
65	0xc01d427b	-2.4571826
66	0x40b54eea	5.665883
67	0xc1c154ce	-24.166409
68	0xbf18098b	-0.5938956
69	0xc07dec14	-3.967534
70	0xc085224c	-4.1604366
71	0xc0ffcd2d	-7.993796
72	0xc082ed75	-4.0914865
73	0x410cfd3d	8.811826
74	0x4106ee6e	8.43321
75	0xc091118c	-4.533392
76	0xc1843a80	-16.528564
77	0xc01cc3cd	-2.4494507
78	0x4177cafd	15.487058
79	0xc0702354	-3.7521563
80	0xc0b882a5	-5.765948
81	0xc0b9b775	-5.8036447
82	0xc199e6b6	-19.237652
83	0xc215fa7b	-37.49461
84	0x3f10126c	0.5627811
85	0xc19fa87e	-19.957272
86	0xc17b2dbb	-15.698665
87	0x418d674b	17.675436
88	0xc179a8de	-15.603727
89	0xc1b8dcca	-23.107807
90	0xc1eea353	-29.829748
91	0xc1f669c1	-30.801638
92	0x408e21aa	4.4416094
93	0x410a80ca	8.656443
94	0xc164f313	-14.309344
95	0xc17bef7b	-15.745967
96	0xc1696178	-14.586296
97	0x4080a9a9	4.0207105
98	0xc19c626d	-19.54806
99	0x40330cef	2.7976644
100	0x406151c8	3.5206165
101	0xbcda2eab	-0.026633581
102	0xc1f57d52	-30.686192
103	0xc123ccfa	-10.237543
104	0xc132d287	-11.176398
105	0xc1890111	-17.12552
106	0xc13a20f1	-11.633042
107	0xc08afd7b	-4.3434424
108	0xc18dd0f5	-17.72703
109	0xc103b586	-8.231817
110	0xc18f847d	-17.939692
111	0xc1537fad	-13.218671
112	0xc049fa7c	-3.1559134
113	0x41092f02	8.5739765
114	0x418ce142	17.60999
115	0xc13a4088	-11.640755
116	0xc01ba882	-2.43216
117	0xc141c5cc	-12.11079
118	0xc0612459	-3.5178435
119	0x410274be	8.1535015
120	0xc03af8e3	-2.9214408
121	0x4023a51b	2.5569522
122	0x3fec95bc	1.8483195
123	0xc13531f6	-11.3246975
124	0xc1c3a7ea	-24.45699
125	0xc0c98341	-6.297272
126	0xc0fcb4ea	-7.897084
127	0xc1037478	-8.215935
128	0xbfdf304f	-1.7436618
129	0xc0cf9e06	-6.48804
130	0x40ff4843	7.977571
131	0x415968b3	13.588061
132	0x4086d3b5	4.213343
133	0xc0aecced	-5.4625154
134	0xc0bc32fd	-5.881224
135	0x4002bbe0	2.042717
136	0xc172eb2f	-15.182418
137	0x40c74f86	6.2284575
138	0x40775891	3.8647807
139	0x40ac2e04	5.380617
140	0x40ebfa14	7.374277
141	0xc191d97a	-18.23119
142	0xc0aee567	-5.465503
143	0x41c42f04	24.522957
144	0xc0157e97	-2.3358514
145	0xbfb6d0be	-1.4282453
146	0xc10ac3ba	-8.672785
147	0xc08c446a	-4.3833513
148	0xc0ee85e3	-7.4538436
149	0xc122fdb4	-10.186939
150	0x40807233	4.0139403
151	0xc0d958e0	-6.792099
152	0xbf842930	-1.032507
153	0xbfa61262	-1.297436
154	0x400df09b	2.2178104
155	0x408a03db	4.3129706
156	0x3faedd75	1.3661333
157	0x40768f40	3.8524933
158	0x40e4b34d	7.1468873
159	0x40a9d2fd	5.3070054
160	0x403a2ecb	2.909106
161	0xc0168886	-2.3520827
162	0xc0c890ed	-6.267691
163	0x40286a96	2.6315055
164	0x40d0a4a8	6.5200996
165	0xc0498aff	-3.1491086
166	0x4062ee75	3.5458043
167	0x4077b7b4	3.8705873
168	0xc0cc7611	-6.3894124
169	0xbf5aa5c1	-0.8540917
170	0x408de8f4	4.4346867
171	0x3d2fcc75	0.042919595
172	0x4181a204	16.20411
173	0xc0d6088d	-6.688544
174	0x413764f4	11.462147
175	0xc0adfb6e	-5.436942
176	0x4094470d	4.633673
177	0xc19b6862	-19.425968
178	0xbf4a5551	-0.7903643
179	0xc09a9303	-4.830446
180	0xc11af1f6	-9.6840725
181	0xc0ebdb53	-7.370523
182	0x409fc82d	4.9931855
183	0xc0863ee2	-4.195176
184	0xc0d35505	-6.6041284
185	0xc0d6b0ff	-6.709106
186	0xc0895ef6	-4.292842
187	0x40663562	3.5970082
188	0xc0e49767	-7.1434817
189	0x412caf8a	10.792856
190	0xc06f64ca	-3.7405267
191	0x41231765	10.193212
192	0xc28d5f48	-70.6861
193	0xc2699bfa	-58.40232
194	0xc180dd6e	-16.10812
195	0xc10e239d	-8.883695
196	0xc20f4e28	-35.826324
197	0xc143c8de	-12.23654
198	0xc1f3e165	-30.485056
199	0xc1b9ca47	-23.223768
200	0xc15a9f08	-13.663826
201	0xc23e64d6	-47.598473
202	0xc28d6f19	-70.71699
203	0xbe27dae4	-0.16392094
204	0xc09e2daf	-4.9430766
205	0xc1c378b3	-24.433935
206	0xc227ad37	-41.919155
207	0xc1145005	-9.269536
208	0xc26d58a8	-59.33658
209	0xc1f74ad1	-30.911531
210	0xc22471e4	-41.11122
211	0xc2610fc7	-56.265408
212	0xc2643405	-57.0508
213	0xc1f168dc	-30.1762
214	0xc17b1750	-15.693192
215	0x4178f5d8	15.56002
216	0xc1a5af19	-20.710497
217	0xc1b6604e	-22.797024
218	0xc201539b	-32.331646
219	0xc226b128	-41.673004
220	0xc2467966	-49.618553
221	0xc252b1f1	-52.67377
222	0xc1fd96bb	-31.698599
223	0xbf8805e5	-1.0626799
224	0xc20acb1b	-34.698345
225	0xc270f250	-60.236633
226	0xc2026910	-32.6026
227	0xc23ec204	-47.68947
228	0x413ce7d5	11.8066
229	0xc1fd50bd	-31.664423
230	0xc26b9f9c	-58.90587
231	0xc22c53f9	-43.082005
232	0xc221a998	-40.41562
233	0xc202dd82	-32.716316
234	0xc22f0ca6	-43.762352
235	0xc1895f7d	-17.171625
236	0xc23df2fa	-47.48728
237	0xc230d848	-44.211212
238	0xc209dd90	-34.46637
239	0xc2602256	-56.03353
240	0xc272893f	-60.63403
241	0x41a40dfa	20.506824
242	0xc21026dd	-36.037952
243	0xc1fe774e	-31.808254
244	0xc264b2e3	-57.174694
245	0xc2330252	-44.752266
246	0xc14a49f0	-12.643051
247	0xc200242a	-32.035316
248	0xc22ea52c	-43.6613
249	0xc2215b6a	-40.33927
250	0xc1edd908	-29.730972
251	0xc24d7d5e	-51.37243
252	0xc0ff3930	-7.975731
253	0xc1eeace3	-29.834417
254	0xc2616344	-56.34694
255	0xc201c4b7	-32.442104

lstm.bias_hh_l0 f4 [256]
0	0xc22420d2	-41.03205
1	0x3f1610f6	0.5861963
2	0xc1ae6c26	-21.802807
3	0xc185d67f	-16.729734
4	0x3e8e43da	0.27786142
5	0xc1ff64c1	-31.924196
6	0xc2033390	-32.800354
7	0xc09a3b3c	-4.8197308
8	0x418cf9c3	17.621954
9	0xc133ba2b	-11.232951
10	0xc250314b	-52.048138
11	0xc2090b35	-34.260944
12	0xc1d26c42	-26.30286
13	0xc09deadb	-4.934919
14	0xc20cff86	-35.249535
15	0x3fc087b8	1.5041418
16	0xc20ed957	-35.712246
17	0xc1a76e8f	-20.928984
18	0x403d7dc0	2.9608002
19	0xc1983c2d	-19.029383
20	0xc1de24b7	-27.767927
21	0xc1685926	-14.521765
22	0xbff65eed	-1.9247719
23	0xc1dd8e4e	-27.694485
24	0xc180e6ea	-16.112751
25	0xc2051be4	-33.277237
26	0xc231804b	-44.375286
27	0xc1173511	-9.450456
28	0xc2055035	-33.328327
29	0x408c60c5	4.3868127
30	0xc210d2fa	-36.20603
31	0xc283a805	-65.82816
32	0xc19af505	-19.369638
33	0xc1f85b80	-31.044678
34	0xc12bf174	-10.7464485
35	0xc2058cd0	-33.387512
36	0xc19a55a7	-19.291822
37	0xc0e0547a	-7.010312
38	0xc2284bec	-42.074142
39	0xc12f99f2	-10.975084
40	0xc1ba9be3	-23.326117
41	0xc1c1b5b5	-24.213724
42	0xc1bcf600	-23.620117
43	0xc1b3fcdc	-22.498466
44	0x41b9d6df	23.229918
45	0xc1ebafcb	-29.460836
46	0x3ef4c48e	0.4780621
47	0xc0d174ff	-6.5455317
48	0xc1d6ecde	-26.865658
49	0x417e15fa	15.880365
50	0xc187d504	-16.979012
51	0xc1393e4c	-11.577709
52	0x4128ef29	10.558389
53	0xc07388e0	-3.8052292
54	0xc24e1d9e	-51.528923
55	0xc28fa87f	-71.829094
56	0xc1aa6437	-21.298933
57	0xc0c8b2fe	-6.2718496
58	0xc1a9c34f	-21.220366
59	0xc1d0aa97	-26.083296
60	0xc223d2f1	-40.955997
61	0xc129c660	-10.610931
62	0x40c4c6c9	6.149266
63	0xbea1d8e2	-0.3161078
64	0x412d017a	10.8128605
65	0xc024ce5b	-2.575095
66	0x40b6f23a	5.7170687
67	0xc1c03308	-24.024918
68	0xbf170888	-0.5899739
69	0xc0814ddb	-4.040754
70	0xc083b228	-4.1154976
71	0xc0feffae	-7.968711
72	0xc07fd02b	-3.9970806
73	0x410ff861	8.998139
74	0x4107c2a3	8.485019
75	0xc0927868	-4.577198
76	0xc184b712	-16.58939
77	0xc01979fd	-2.3980706
78	0x4175b2a1	15.356111
79	0xc06ea698	-3.728918
80	0xc0bb0c29	-5.8452344
81	0xc0bcdc19	-5.9018674
82	0xc1986e0a	-19.05373
83	0xc2163d15	-37.55965
84	0x3f364d42	0.71211636
85	0xc19e86fe	-19.815914
86	0xc17a8ce5	-15.659398
87	0x418cbbde	17.591732
88	0xc17b68e8	-15.713112
89	0xc1b98794	-23.1912
90	0xc1ed503b	-29.664175
91	0xc1f647a3	-30.784979
92	0x408af765	4.3426995
93	0x410959fd	8.58447
94	0xc1680d4d	-14.503247
95	0xc1798fcb	-15.597606
96	0xc16a49b4	-14.642994
97	0x40805534	4.010401
98	0xc19c98b7	-19.574568
99	0x4034f8f7	2.8276956
100	0x406b93b6	3.6808906
101	0xbb17a801	-0.002314091
102	0xc1f5b14a	-30.711567
103	0xc122375e	-10.138517
104	0xc134fb8d	-11.311414
105	0xc188a7ad	-17.081873
106	0xc13786ed	-11.470441
107	0xc086df17	-4.2147326
108	0xc18ceed9	-17.616625
109	0xc10366b4	-8.212574
110	0xc18e580d	-17.792994
111	0xc155b445	-13.356511
112	0xc04e3a2a	-3.2223
113	0x410ce366	8.805517
114	0x418ce02e	17.609463
115	0xc139104c	-11.566479
116	0xc0229b60	-2.5407333
117	0xc1431602	-12.192873
118	0xc061d8ff	-3.5288694
119	0x410234f2	8.137926
120	0xc03a5e70	-2.912014
121	0x401b907d	2.4306939
122	0x3fed9286	1.856034
123	0xc1376fe0	-11.464813
124	0xc1c47638	-24.557724
125	0xc0ca9e61	-6.3318334
126	0xc0fecb56	-7.9623213
127	0xc1063f07	-8.390388
128	0xbfde4218	-1.736392
129	0xc0d0f094	-6.5293674
130	0x40fd6603	7.9187026
131	0x41594a89	13.580697
132	0x40876e36	4.2322035
133	0xc0ae99b9	-5.456265
134	0xc0bb22c3	-5.8479934
135	0x4001d1e2	2.0284352
136	0xc1726a7f	-15.151
137	0x40c89da2	6.2692423
138	0x407408e1	3.813042
139	0x40aed32c	5.463278
140	0x40ec36e6	7.3817015
141	0xc1922e85	-18.272715
142	0xc0adf35b	-5.4359565
143	0x41c39ce8	24.451614
144	0xc016ee8f	-2.3583105
145	0xbfbfca76	-1.4983661
146	0xc10b2cb4	-8.698414
147	0xc08cc296	-4.398753
148	0xc0ed891d	-7.4229875
149	0xc123e486	-10.243292
150	0x4078d5bf	3.888046
151	0xc0da1358	-6.8148613
152	0xbf805869	-1.0026981
153	0xbf914ffc	-1.1352534
154	0x400e9113	2.2276046
155	0x40889623	4.268327
156	0x3fb7a583	1.4347385
157	0x406b62f6	3.677915
158	0x40e8430a	7.2581835
159	0x40ab2bcf	5.3490977
160	0x403d6563	2.9593132
161	0xc00e6665	-2.2249997
162	0xc0c9a9f7	-6.3019977
163	0x402cf75a	2.7025971
164	0x40d1c75a	6.555585
165	0xc04a3ec5	-3.1600811
166	0x4061c1c1	3.5274508
167	0x407caccc	3.9480467
168	0xc0cfc548	-6.492832
169	0xbf85a8ce	-1.044214
170	0x4089030e	4.281623
171	0xbca8afcf	-0.020591645
172	0x4181b220	16.211975
173	0xc0d529b7	-6.661342
174	0x41393dd4	11.577595
175	0xc0aff2de	-5.498397
176	0x408f99e5	4.487536
177	0xc19b775e	-19.433285
178	0xbf330f44	-0.6994517
179	0xc0973bb3	-4.7260375
180	0xc11bba92	-9.733049
181	0xc0eca92b	-7.3956504
182	0x40a2f3aa	5.092244
183	0xc085d28a	-4.1819506
184	0xc0d3b08f	-6.6153026
185	0xc0daeb09	-6.841191
186	0xc084bfd1	-4.148415
187	0x406cd975	3.7007725
188	0xc0e44e41	-7.1345525
189	0x412c3c16	10.764669
190	0xc07086e6	-3.7582335
191	0x4125c1bd	10.359799
192	0xc28d4468	-70.633606
193	0xc269f756	-58.49154
194	0xc182a832	-16.332127
195	0xc10f6ac6	-8.963568
196	0xc20fdabe	-35.963615
197	0xc144403c	-12.265682
198	0xc1f4c115	-30.594278
199	0xc1b9e071	-23.23459
200	0xc15921c8	-13.570747
201	0xc23df078	-47.484833
202	0xc28d79cf	-70.73791
203	0xbe3be56f	-0.1834924
204	0xc0a19b41	-5.050202
205	0xc1c3f10d	-24.4927
206	0xc227c50d	-41.942432
207	0xc113ab9b	-9.229396
208	0xc26ccd30	-59.20038
209	0xc1f93399	-31.150194
210	0xc22484dc	-41.129745
211	0xc260f077	-56.23483
212	0xc264b87d	-57.180164
213	0xc1f1f424	-30.24421
214	0xc177ba8c	-15.483044
215	0x417773a2	15.465731
216	0xc1a6b467	-20.838087
217	0xc1b5ffd0	-22.749908
218	0xc20184fb	-32.379864
219	0xc226b1b2	-41.67353
220	0xc2463242	-49.54908
221	0xc252a08d	-52.656788
222	0xc1fdcf3b	-31.726187
223	0xbf5ca931	-0.86195666
224	0xc20b90ed	-34.89153
225	0xc2712dca	-60.294716
226	0xc2019ef1	-32.405216
227	0xc23e9df8	-47.654266
228	0x413985ab	11.595134
229	0xc1fca965	-31.582712
230	0xc26b8b02	-58.88575
231	0xc22c2a57	-43.041348
232	0xc2218dd0	-40.38849
233	0xc20244e9	-32.567295
234	0xc22e3c20	-43.558716
235	0xc188a055	-17.078287
236	0xc23d15d6	-47.271324
237	0xc230aa92	-44.166573
238	0xc209d86c	-34.46135
239	0xc25f9c4a	-55.902626
240	0xc27230f1	-60.547794
241	0x41a5077c	20.628654
242	0xc210da8f	-36.213436
243	0xc2002c5e	-32.043327
244	0xc264f6b3	-57.240917
245	0xc2331c38	-44.777557
246	0xc14a1286	-12.629522
247	0xc2004b64	-32.073624
248	0xc22ef0c8	-43.735138
249	0xc220c2c4	-40.1902
250	0xc1ed878a	-29.691181
251	0xc24d28b4	-51.28975
252	0xc0fe5e48	-7.949009
253	0xc1ee2de3	-29.772406
254	0xc2613e82	-56.311043
255	0xc201d1d2	-32.454903

lin.weight f4 [8, 64]
0	0x42a1eba9	80.96027
1	0x436d35f1	237.21071
2	0xc305298e	-133.16232
3	0xc2b5045e	-90.50853
4	0xc322930b	-162.57439
5	0x430d3593	141.20927
6	0x42b2f399	89.47578
7	0xc32173af	-161.45189
8	0x4287f40d	67.97666
9	0xc33a40a1	-186.25246
10	0xc300f48b	-128.95525
11	0xc2dff42e	-111.97691
12	0xc19f7c89	-19.935808
13	0x42c82b3f	100.084465
14	0xc0a2f246	-5.0920744
15	0xc305f75a	-133.96622
16	0x431737c8	151.2179
17	0x430eacd7	142.67516
18	0x432158cb	161.34685
19	0x42cd5762	102.67067
20	0x428d6e8b	70.715904
21	0x42b2c96a	89.39339
22	0xc2f96ef5	-124.71671
23	0x4042488b	3.0356777
24	0xc236e7bc	-45.726303
25	0x42e9802d	116.75034
26	0x431443b9	148.26454
27	0xc08ab7d0	-4.334938
28	0x42995bd9	76.67939
29	0xc2cd7325	-102.72489
30	0xc3368b75	-182.54475
31	0xc2fae81d	-125.45335
32	0x41b1ef11	22.241732
33	0x4295486c	74.64145
34	0x4225bf37	41.436733
35	0xc2a0c037	-80.37542
36	0xc258d783	-54.21046
37	0x4322eb96	162.92026
38	0xc37f00b5	-255.00276
39	0xc33491fd	-180.57027
40	0x430815ad	136.08467
41	0x432642d0	166.26099
42	0xc3c89ba5	-401.21597
43	0xc205864d	-33.381153
44	0x411b9bad	9.725507
45	0x432b0aef	171.04271
46	0xc2ae1f1a	-87.060745
47	0x43129f92	146.62332
48	0xc33caaf9	-188.66786
49	0x421b3eaa	38.811195
50	0x43107204	144.44537
51	0xc04b6e35	-3.1786015
52	0x432d1f32	173.12186
53	0x4298f072	76.46962
54	0xc30dad61	-141.67726
55	0x43859631	267.17337
56	0x43977bb3	302.9664
57	0x4337720d	183.44551
58	0x428463db	66.19503
59	0xc27b68ff	-62.852535
60	0x44e43669	1825.7003
61	0xc2a20c27	-81.023735
62	0x4362fa82	226.97855
63	0xc288226c	-68.06723
64	0x426f61c7	59.845486
65	0x43ecf018	473.87573
66	0xc3034769	-131.27895
67	0xc2af465a	-87.637405
68	0xc29eed4b	-79.46346
69	0x431949db	153.2885
70	0x4293424b	73.62948
71	0xc340253c	-192.14545
72	0x4289ebb8	68.96039
73	0xc339e827	-185.90685
74	0xc35ffee8	-223.99573
75	0xc31e3fa5	-158.24861
76	0xc1bf5244	-23.915169
77	0x42bc1cc0	94.05615
78	0xc0e119d2	-7.034402
79	0xc303c449	-131.76674
80	0x430ce2f8	140.8866
81	0x4337e5f2	183.89822
82	0x4316633c	150.38763
83	0x42c1e0f8	96.93939
84	0x4388da8c	273.7074
85	0x42b9cdd2	92.90199
86	0xc3964818	-300.56323
87	0x4014f221	2.3272784
88	0xc239d20e	-46.45513
89	0x42f18fa8	120.78058
90	0x4312085e	146.03268
91	0x415b3481	13.700318
92	0x42956dd6	74.71452
93	0xc2c41431	-98.03944
94	0xc3a0edf8	-321.85913
95	0xc2fb6dfc	-125.71481
96	0x41b2a4d2	22.330479
97	0x43855a47	266.7053
98	0x42423616	48.55282
99	0xc2d9381b	-108.60958
100	0xc25b8520	-54.880005
101	0x4386da79	269.70682
102	0xc2edd687	-118.919
103	0xc39d45f1	-314.54642
104	0x42a8f774	84.48331
105	0x4325e319	165.8871
106	0xc40533ed	-532.81134
107	0xc218a099	-38.156834
108	0x412e6f0b	10.90211
109	0x4337daec	183.85516
110	0xc2bb1d9a	-93.557816
111	0x4310de45	144.86824
112	0xc2e5b47e	-114.85252
113	0x42153b66	37.308006
114	0x43085c12	136.35965
115	0x3f88daa4	1.0691724
116	0x432a21ac	170.13153
117	0x4299ab1f	76.83422
118	0xc30c5568	-140.33362
119	0x434cfa54	204.97784
120	0x42975dc0	75.683105
121	0x4335768f	181.46312
122	0x429332d9	73.59931
123	0xc2f74146	-123.62749
124	0x44c87bcf	1603.869
125	0xc29f83b5	-79.75724
126	0x4363d7d0	227.84302
127	0xc28e6209	-71.191475
128	0x4362e076	226.8768
129	0x43c6cae6	397.58514
130	0xc305f100	-133.9414
131	0xc2af01a5	-87.50321
132	0xc2ca1dac	-101.05795
133	0x432c1928	172.09827
134	0x42ba9fae	93.311874
135	0xc32aec76	-170.92368
136	0x4287d45b	67.91476
137	0xc33d921a	-189.57071
138	0xc38651b4	-268.6383
139	0xc3740baa	-244.04556
140	0xc19c9382	-19.572025
141	0x42bb5fdf	93.68725
142	0xbf3db4d7	-0.74104065
143	0xc3024786	-130.27939
144	0x4304ce30	132.80542
145	0x4357c42f	215.76634
146	0x431fe2f3	159.88652
147	0x42c1892a	96.7679
148	0x43563acc	214.22968
149	0x42bddf05	94.935585
150	0xc381a693	-259.30136
151	0x4056e592	3.3577619
152	0xc25efaef	-55.745052
153	0x42f348a8	121.64191
154	0x4313039e	147.01413
155	0x406dc862	3.7153554
156	0x42a527b3	82.57754
157	0xc2cefa8e	-103.489365
158	0xc3455387	-197.32628
159	0xc39e74ec	-316.91345
160	0x41b583bf	22.68933
161	0x43537b9c	211.48285
162	0x4233745b	44.86363
163	0xc2de38a8	-111.11066
164	0xc25fe526	-55.973778
165	0x4383eb9f	263.8408
166	0xc2fc9d71	-126.3075
167	0xc37fe1c7	-255.88194
168	0x42b404d8	90.00946
169	0x432702e6	167.01132
170	0xc38e76c6	-284.92792
171	0xc22093dc	-40.144394
172	0x41347068	11.277443
173	0x4365af9b	229.68596
174	0xc2c69d99	-99.30781
175	0x4311b5a5	145.70955
176	0xc39ae089	-309.75418
177	0x4216ed0d	37.731495
178	0x43105539	144.3329
179	0x409709cf	4.7199473
180	0x432a9880	170.5957
181	0x42ba7ebd	93.247536
182	0xc30f5024	-143.31305
183	0x4392c7f8	293.56226
184	0x4351fb9a	209.98282
185	0x4335521e	181.32077
186	0x4289f2ef	68.97448
187	0xc322575a	-162.34122
188	0x4473bd02	974.95325
189	0xc2b03038	-88.09418
190	0x43636aa0	227.4165
191	0xc2927885	-73.23539
192	0x426f8bed	59.886646
193	0x431f5bfb	159.3593
194	0xc3045a52	-132.35281
195	0xc2b477c0	-90.23389
196	0xc30bbc4e	-139.73557
197	0x430bfd82	139.99026
198	0x42b26d4b	89.21346
199	0xc3607b5b	-224.48186
200	0x428b8e2b	69.77767
201	0xc33ca47f	-188.64256
202	0xc303adf9	-131.67958
203	0xc3123992	-146.22488
204	0xc1bbde22	-23.483463
205	0x42ca99b3	101.30019
206	0xc15ffbde	-13.998991
207	0xc301ef5c	-129.935
208	0x42bf358a	95.60457
209	0x4144a0eb	12.289287
210	0x4331aaf6	177.66782
211	0x42c73272	99.598526
212	0x43495baf	201.35814
213	0x42b51eb6	90.55998
214	0xc37dffee	-253.99973
215	0x402a9509	2.6653464
216	0xc24d3ee1	-51.311405
217	0x42e91c38	116.555115
218	0x43158497	149.51793
219	0x40875e5f	4.23027
220	0x4299f94d	76.986916
221	0xc2b8c5ef	-92.38659
222	0xc36fda20	-239.85205
223	0xc316e8fe	-150.91013
224	0x41b664a8	22.799149
225	0x433e0964	190.03668
226	0x42716266	60.346092
227	0xc37df4fc	-253.95697
228	0xc259bd97	-54.435146
229	0x42f9758c	124.72958
230	0xc3b50e36	-362.11102
231	0xc393dad0	-295.70947
232	0x42d1bc41	104.86768
233	0x432538b8	165.22156
234	0xc381ebb8	-259.84155
235	0xc21672ae	-37.61199
236	0x412b3000	10.699219
237	0x432e1164	174.06793
238	0xc2b03634	-88.105865
239	0x43146963	148.41167
240	0xc38ec7a2	-285.55963
241	0x421d7d12	39.37214
242	0x430de9c6	141.91318
243	0xbf6ad6b5	-0.91733867
244	0x43ad97c3	347.18564
245	0x42a96233	84.691795
246	0xc30db5bd	-141.70992
247	0x4284ec93	66.46206
248	0x418dee87	17.741468
249	0x4336c284	182.75983
250	0x434aae89	202.68178
251	0xc3019c34	-129.61017
252	0x44c99cea	1612.9036
253	0xc2a55349	-82.66267
254	0x435ee19d	222.8813
255	0xc287caba	-67.89595

lin.bias f4 [8]
0	0xc151a8c7	-13.103705
1	0xc14df9b6	-12.873465
2	0xc14d23d9	-12.821252
3	0xc153dff0	-13.242172
4	0xc154514f	-13.269851
5	0xc157d749	-13.49006
6	0xc14878f6	-12.5295315
7	0xc15771c3	-13.465274
